models/cnn_checkpoint_fromlocal.pth (torch, 451995 bytes, 10 tensors)

conv1.weight f4 [16, 1, 5, 5]
000000 d4 82 9d 3c f4 a6 9c bd ba 79 75 3d a4 42 ad ba
       0.019227423 -0.07649031 0.05993054 -0.0013218713
000010 4f e7 09 3b c0 92 21 be 51 52 0a 3e 3b 84 e3 bc
       0.0021042412 -0.15778637 0.13507964 -0.027773013
000020 58 88 0c 3e 2d 89 97 be 0e c1 8f bd 2a 80 03 3e
       0.13723886 -0.29596844 -0.07019244 0.1284186
000030 7a 69 77 3e 15 53 15 be a5 11 b2 be d1 d5 3d be
       0.2416133 -0.14582475 -0.34779087 -0.18538596
000040 12 97 e6 3d cd 68 63 3e 41 16 02 bd 9c c3 f5 bd
       0.11259283 0.22207947 -0.031759504 -0.120002
000050 8b e0 4f be f5 98 1c 3e 93 bf 09 3e d3 d7 65 be
       -0.203005 0.15292723 0.13451986 -0.22445612
000060 a0 4d 58 be c0 c8 6f 3e 91 d6 8b 3d b5 f3 68 3d
       -0.21123362 0.23416424 0.06828035 0.056873042
000070 7f 7d 83 be 1f 65 9e be 99 db 2a be 16 c8 0b be
       -0.25681683 -0.30936524 -0.16685332 -0.13650545
000080 16 6b b8 be 1f e0 33 be e5 00 cf 3d ea d1 82 bd
       -0.360192 -0.17565964 0.101075925 -0.06387694
000090 cf 3b 4a be 59 e5 00 be 66 3d 4f 3c 6a f9 1c 3e
       -0.19749378 -0.12587489 0.012648916 0.15329519
0000a0 3f 8d 37 be 26 9b db bd 99 6f c2 3d 87 d4 ba bd
       -0.17924975 -0.107229516 0.09493942 -0.091225676
0000b0 df 74 0a 3e 48 b1 93 bd 5c cf 21 be 96 c9 43 3b
       0.13521145 -0.07211548 -0.15801758 0.0029874793
0000c0 6d c7 ef 3d ba 26 1a be 23 9d 95 3d 23 44 29 3e
       0.11707959 -0.15053836 0.07305362 0.16529898
0000d0 00 15 a2 3e b8 2f f9 3d 29 18 48 3e 75 86 c1 bd
       0.31656647 0.12167305 0.19540466 -0.09449474
0000e0 78 e4 a4 3c 2f a6 a1 3e 79 64 75 3d 3f 29 87 3e
       0.020128474 0.315721 0.05991027 0.26398656
0000f0 84 0f 5b be ee 5c 6c be aa d0 9c 3b 08 11 01 be
       -0.21392637 -0.23082325 0.004785617 -0.12604153
000100 19 a7 87 3e 83 3a ad be e2 08 86 be dd d0 ca be
       0.26494673 -0.33833703 -0.26178652 -0.39612475
000110 cb d9 03 be 89 a2 c4 3d 37 9e 89 be 3a a9 9c bd
       -0.1287605 0.096013136 -0.2687852 -0.07649465
000120 31 f7 d4 3c 37 f8 41 be 1b 40 78 bd c1 43 4c bc
       0.025996776 -0.18942343 -0.06060801 -0.012467326
000130 39 7f 42 be b5 3c 42 3d 9d 4e 27 3e 56 ff 55 3d
       -0.18993844 0.047421176 0.16338582 0.05224546
000140 75 02 81 bd c0 01 59 3d 41 0a 21 3e ad 41 36 3e
       -0.06299297 0.052980185 0.15726568 0.17798491
000150 1a 0e c3 bd e5 3d 4e 3e 0f ac 8e 3e d9 48 40 be
       -0.09524174 0.20140798 0.27865645 -0.18777789
000160 49 ce 5e bd 5d 9e fa 3c 62 3b 01 3e c4 54 26 be
       -0.054395948 0.030593092 0.12620309 -0.16243273
000170 d1 43 7a be 71 a5 5f be 99 98 2e 3d 68 34 97 3d
       -0.24439932 -0.21840455 0.042625997 0.073830426
000180 49 24 6a 3d 5b bd 73 be d2 4f e0 bd b9 c7 97 be
       0.05716351 -0.23802702 -0.109527245 -0.29644564
000190 04 f1 77 bd 80 2b b6 3b 8a b5 43 be 98 b6 c8 3d
       -0.060532585 0.005559385 -0.1911222 0.09800452
0001a0 f8 21 46 be 74 5b 6b be 17 e7 85 be 09 6f 24 be
       -0.19348896 -0.22984105 -0.2615287 -0.16057982
0001b0 11 2c 7b bd a7 bb 92 be fc cb a2 bd 84 76 1c 3e
       -0.061321322 -0.28658792 -0.07949063 0.15279585
0001c0 3e 6f 22 bc a7 1f b0 3c 94 be 8d bc 6a 45 d9 3d
       -0.0099142175 0.021499468 -0.017302789 0.10608943
0001d0 c9 ab 06 3c d7 bb 6c 3e d6 f2 fa 3d d1 b9 16 3e
       0.008219668 0.2311853 0.122533485 0.14719321
0001e0 7f da 4d 3e ce 91 77 bd 89 34 0b be de 29 1c be
       0.20102881 -0.060441785 -0.1359426 -0.15250346
0001f0 19 98 e7 bd ac c5 98 bd e4 c9 21 be 04 31 25 be
       -0.11308307 -0.07459578 -0.15799671 -0.16131979
000200 0e f6 32 3c 43 e2 ca bd da a3 23 bd b0 3b 03 3e
       0.010922922 -0.09906437 -0.039951183 0.12815738
000210 51 47 d7 bd 72 b2 bd be f0 cc 3b 3c 05 83 1b 3e
       -0.105116494 -0.37050205 0.011462435 0.15186699
000220 5a 87 a5 3e aa 9d 35 bc ac 3e c9 be a9 44 b6 bc
       0.32329828 -0.011084953 -0.39305627 -0.022249537
000230 c4 36 ea bd e7 43 4e 3e 18 3f 9a 3e 63 38 33 be
       -0.11436227 0.2014309 0.30126262 -0.17501979
000240 17 6e 1e be 67 6e a3 bd 66 87 d6 bd bd c4 6e 3e
       -0.15471683 -0.07980042 -0.10475044 0.23317237
000250 38 7d 45 3e 6e 91 ad 3c 2c e8 52 bc 3f 70 23 bd
       0.19286048 0.02118751 -0.012872737 -0.039901968
000260 cc 0e c9 3c c7 de 98 bd e8 99 ce 3d ed 0a cf 3b
       0.024543189 -0.074643664 0.10087949 0.006318441
000270 5f 43 3a be b9 cf 5d be 04 c7 af 3d c9 e5 53 3e
       -0.18189763 -0.21661271 0.08582881 0.20693125
000280 91 34 1a be 1e 3f 97 be 36 8e fb 3b ec fa b2 3d
       -0.15059115 -0.29540342 0.007676865 0.08739266
000290 04 0b fe 3d 86 4c 41 be e7 39 61 be 4b 1b 07 bd
       0.12404445 -0.18876848 -0.21994744 -0.032985013
0002a0 75 49 13 3d 85 4c 2b 3e dc 07 86 bc e0 f1 00 3c
       0.035958726 0.16728409 -0.01636117 0.0078701675
0002b0 32 d5 ac 3b e2 eb 21 3c 27 d9 58 3e 71 ad 57 3d
       0.0052744383 0.009882899 0.21176587 0.05265564
0002c0 9c 55 d7 3d 34 df 24 be ea ef e8 bd 9a 19 0b 3b
       0.105143756 -0.1610077 -0.11373885 0.0021224977
0002d0 f4 ba dd 3c d0 60 93 3d 84 55 5e be 15 f7 78 bd
       0.027066685 0.071962 -0.21712309 -0.06078251
0002e0 7a 2c 17 3e a2 a7 a6 3d 4e 06 34 bd 75 81 ac be
       0.1476306 0.08137442 -0.043951325 -0.33692518
0002f0 ee 87 4d be f4 cb 3c 3e c6 ac 17 bd 84 70 86 be
       -0.20071384 0.18437177 -0.037030004 -0.26257718
000300 3c 44 0e be d2 a3 bf bd bd 68 8d 3e 25 83 3b be
       -0.13893217 -0.09357418 0.2761897 -0.18311746
000310 a8 ef f9 bb 42 e9 62 be f5 22 a5 bd 49 39 df 3d
       -0.007627446 -0.22159293 -0.08063308 0.10899598
000320 99 b5 32 bd e1 8e b3 be 0a 7a 5d be 45 b0 97 3d
       -0.043630216 -0.35069945 -0.21628585 0.074066676
000330 e0 44 d5 3d 54 93 e8 bd 0e 9e 78 be d9 f1 8e 3d
       0.104135275 -0.113562256 -0.24279043 0.069797225
000340 9b b5 98 3d 41 80 88 bd c2 c8 fc 3d ed 48 fc 3d
       0.074565135 -0.066650875 0.12342979 0.12318597
000350 bf 11 9d 3e 7d ff 3a bc 7b d9 83 3d f9 03 18 3b
       0.30677602 -0.011413452 0.064379655 0.0023195727
000360 8c 1f d5 3d 6e 6a 85 be 63 5c b4 be fd 4f 94 bc
       0.10406408 -0.26057762 -0.35226735 -0.018104548
000370 cb 7f 72 bc 8b d0 39 be 93 5c 0f be 39 a1 55 bd
       -0.014800976 -0.18145959 -0.14000158 -0.052155707
000380 8d 9d 35 3d 58 95 0f bc 2a 1a 32 3d 74 ca a0 be
       0.044339705 -0.008763634 0.043481983 -0.3140446
000390 55 e1 ad 3c bc 4b d0 3d 3e 89 ef bd cf f6 95 3c
       0.02122561 0.10170695 -0.11696099 0.018306164
0003a0 09 4c 06 3e 89 10 65 3e 14 a5 ac 3e c6 93 06 3c
       0.13114943 0.22369589 0.33719695 0.008213943
0003b0 e8 5d 13 3e 9a 8a 57 3d c1 47 18 3d 99 41 8f bd
       0.14391291 0.052622415 0.037177805 -0.06994934
0003c0 07 51 37 3e e2 be 3f 3e ef 90 bd 3c 45 a3 2b bd
       0.17902003 0.1872516 0.023140399 -0.041903753
0003d0 45 34 bd be c6 c5 50 bd 4b d2 81 be f8 3b 47 be
       -0.3695394 -0.05096986 -0.25355753 -0.1945647
0003e0 a7 cb a0 bd c6 4e 3c be 43 35 7a 3e ba 0b c7 3d
       -0.078513436 -0.18389425 0.2443438 0.097190335
0003f0 9b 07 6a 3d e8 ee 11 be fe 2a 1a be 3c a9 df bd
       0.05713616 -0.14251292 -0.15055463 -0.10920951

conv1.bias f4 [16]
000000 82 65 b0 be d3 d0 7f be 6d c8 0f be 67 95 bc bd
       -0.34452444 -0.24982004 -0.140413 -0.09208184
000010 05 b0 5c be 02 59 6a 3c 17 52 18 be 77 57 af be
       -0.21551521 0.014303448 -0.14875065 -0.34246418
000020 cf 2b 44 be 37 5f 12 be fd 9d 50 be 12 b9 ff bd
       -0.19157337 -0.14294134 -0.20372768 -0.12486471
000030 8a 84 57 be b3 56 5f 3d 67 36 6d be 0c 9e d7 be
       -0.21046653 0.054526042 -0.23165284 -0.42112768

conv2.weight f4 [32, 16, 3, 3]
000000 90 9d 08 be a8 1e 67 bd 9d 89 b3 be f0 72 50 be
       -0.13341355 -0.05642572 -0.35065928 -0.20356345
000010 4d fb 62 be 2a fc 77 be 1d 18 bf bd d2 c4 40 be
       -0.22166176 -0.24217287 -0.09330771 -0.18825081
000020 38 8b 3a be c4 72 30 3c f1 b2 19 3d 1a be a4 3d
       -0.1821717 0.01076955 0.037524167 0.080440715
000030 f5 cd 4e 3e 55 75 ee 3b 82 ba d1 bd c2 bc e6 3d
       0.20195754 0.0072771707 -0.10240652 0.112664714
000040 23 9f c6 bd 6f 55 7a be 42 46 f5 3d 18 2f 05 bd
       -0.09698322 -0.24446653 0.11976291 -0.032515615
000050 c1 dd 0e bb d8 7b 68 be 86 eb 8b be 64 3b 14 be
       -0.0021799656 -0.22703493 -0.27328128 -0.1447578
000060 72 d0 20 be 44 ab 00 3d 52 15 73 3e 38 1b f0 bb
       -0.15704516 0.03141333 0.23738602 -0.0073274635
000070 a3 9e c9 bd e7 c9 0c 3d 85 ad 71 be 4d a6 bd bd
       -0.09844711 0.034372237 -0.23601349 -0.09260235
000080 e6 71 f3 bd 94 53 09 3e 28 95 87 3d 45 7c 5e bd
       -0.11886959 0.13410789 0.06620246 -0.05431773
000090 2b 5d 04 be 94 31 cb be 4f bc 8b be 15 c3 15 be
       -0.12926166 -0.39686263 -0.27292106 -0.14625199
0000a0 52 53 4f 3d 49 51 a1 3c 56 0f 77 3b 4a 9a 9c bd
       0.05061657 0.01969208 0.003769835 -0.07646616
0000b0 e1 7e cd 3c c7 bf 43 bd af 2c 13 bd 26 a5 57 bd
       0.025084915 -0.047790315 -0.035931285 -0.052647732
0000c0 6c 3b f1 bd e9 c4 b0 bd 54 bf ee 3d 4a ac 39 be
       -0.11778912 -0.08631308 0.11657587 -0.1813213
0000d0 42 7d d7 bd c8 f8 cb 3c ce a2 32 be 9d fd c8 bd
       -0.10521938 0.024898902 -0.17444918 -0.09813998
0000e0 cc 6c b9 bd 76 56 1d 3d 75 38 1a be dc ec dd 3c
       -0.090539545 0.038412534 -0.15060599 0.027090482
0000f0 ee f9 e8 bd 7b 3c 28 be 78 ae 2c be 9d 93 9c 3d
       -0.11375795 -0.16429321 -0.1686343 0.076453425
000100 27 36 6d bc ec 8a 34 bd a5 59 31 3e c6 d0 36 bd
       -0.014478243 -0.0440778 0.17319353 -0.044632696
000110 c5 47 52 be 3d 3b 97 3c e5 54 12 be 0e b4 82 be
       -0.2053519 0.018460864 -0.14290197 -0.25527996
000120 60 77 71 bd 30 8d 74 bb 9d 81 9c bd e3 38 63 be
       -0.058951735 -0.00373156 -0.07641909 -0.2218967
000130 a3 8a 82 be ef 2b 9b bd 04 7d a3 bc 84 38 db 3d
       -0.25496396 -0.07576739 -0.019957073 0.10704139
000140 f4 64 1e 3c 6d 9d 3a bd f5 65 1e 3e 0f e8 02 3d
       0.009667624 -0.04556029 0.15468581 0.03195959
000150 84 79 1b be 13 67 81 bd 3f f2 0e bc 5d d3 ed 3d
       -0.15183073 -0.06318488 -0.008724748 0.1161258
000160 05 21 ea 3d e2 3b fa 3d 61 06 7a 3c 48 60 80 3d
       0.11432079 0.12218453 0.01526031 0.06268364
000170 b6 fe 8e 3d c1 80 86 3e 4c fb 21 3e e3 7e 1b be
       0.06982176 0.26270106 0.15818518 -0.15185122
000180 cd 49 d6 ba 68 3c 0f be a2 ab 79 be 6d b4 47 be
       -0.0016348899 -0.13987887 -0.24381879 -0.1950242
000190 5b e8 96 bd a4 1a a8 bd bf ec 2d 3c e1 b2 51 3d
       -0.07368537 -0.08208206 0.010615527 0.051195983
0001a0 21 5e 0a 3d 3d 7e cf 3b db f9 97 bd 8f 2b 0d be
       0.033781175 0.0063321874 -0.07420703 -0.13786148
0001b0 c2 c7 a1 3d 61 ba 3d 3e aa 2f 6f 3c 4f 2e 73 3d
       0.07899429 0.18528129 0.014598766 0.059370335
0001c0 db f0 38 be f9 cc 51 be 17 8f 99 3d fb c6 1f 3e
       -0.18060629 -0.20488347 0.07497995 0.15603249
0001d0 8e c0 71 3e 88 c6 a8 bd ac ea c7 3d 24 4a a3 3d
       0.2360861 -0.08240992 0.09761557 0.079731256
0001e0 16 b3 e4 3c 56 1b b5 3c d1 21 1d 3d fa 56 53 bd
       0.027917426 0.022107761 0.038362328 -0.05159662
0001f0 7c b8 95 3c 5b 59 c4 bc 2d 55 6a be 8d 78 9c be
       0.018276446 -0.02396839 -0.22884054 -0.30560723
000200 18 52 1e be 59 25 4a 3d d8 15 f0 3d f5 a7 66 3c
       -0.15461004 0.049352024 0.11722916 0.01407813
000210 af 65 27 3c b0 a3 a2 3d 5e 0e 82 3d c6 f3 41 be
       0.010217114 0.07941377 0.063503966 -0.18940648
000220 16 6e 0a be 31 2e 46 be 1d 6b 95 bd 63 93 58 bd
       -0.13518557 -0.19353558 -0.07295821 -0.052874934
000230 44 08 97 bc 26 c0 92 bd bf 9f 3c be 84 04 bc bd
       -0.018436559 -0.07165556 -0.18420313 -0.09180549
000240 09 b1 8e be 99 d7 9c bd f1 dc 15 bd 98 1f 4b bd
       -0.27869442 -0.076583095 -0.03658766 -0.049590677
000250 ce e8 93 bd 26 30 de bd d8 e8 b2 bc 6d ee 19 bd
       -0.07222138 -0.10849027 -0.021839544 -0.037580896
000260 58 d8 12 bd bb f1 db 3c 01 64 df 3c 26 2b fc bd
       -0.035850853 0.026848665 0.027269365 -0.123129174
000270 d1 3c 05 bd 87 0b 2d be 51 fb a7 bc d5 8e a9 bd
       -0.032528702 -0.16898929 -0.02050558 -0.08279196
000280 31 5d fa bd 0f 56 17 be 9c 46 85 3d 07 9a 2b 3e
       -0.12224806 -0.14778922 0.06507608 0.16757976
000290 ab 5c 16 3e 1c d0 ab be 22 a0 ed bd a2 e1 8b ba
       0.14683788 -0.33557212 -0.116028085 -0.0010672102
0002a0 89 6b 40 3d dc 4e 2a be c4 57 68 be 4a 65 34 be
       0.046977554 -0.16631645 -0.2268973 -0.17616764
0002b0 30 05 6c be 04 c9 2d 3e 57 af 6b be f8 01 bf be
       -0.23048854 0.16971213 -0.23016106 -0.3730619
0002c0 9c 03 4e be c0 45 47 bc de 7d 02 3c 67 75 c1 bd
       -0.20118564 -0.012162626 0.007964579 -0.09446221
0002d0 f0 5a 3a bd 61 92 18 be ba 36 e2 bc 0b 9b dd 3d
       -0.04549688 -0.14899589 -0.027613986 0.10820588
0002e0 ab 02 8b 3d 1e 9d 33 be b3 17 fd 3d 00 27 12 3e
       0.06787618 -0.17540404 0.12358036 0.1427269
0002f0 42 a6 b9 3d ad 90 36 be 67 37 e2 bd 4f 1b 43 be
       0.09064914 -0.17828627 -0.110457234 -0.19053386
000300 2d 47 27 3e f6 ae c9 3d 34 c7 dd 3c ef d7 68 3b
       0.16335745 0.09847824 0.027072527 0.0035529097
000310 73 06 6f 3d 66 6c 01 3e f4 e5 c8 3c 1f af 88 3d
       0.05835576 0.12639007 0.024523713 0.06674027
000320 e6 15 cd ba 68 66 9e bd 98 11 a2 bc fd c9 c1 bd
       -0.0015646785 -0.07734376 -0.01978378 -0.09462354
000330 5c 4e 88 3d f2 48 0d be d3 22 44 3d ad a0 3b bd
       0.06655571 -0.13797358 0.047884773 -0.04580753
000340 ea db 60 3e 33 d2 8d 3b e2 39 6a be cf 6a 79 be
       0.2195889 0.004328036 -0.22873643 -0.2435715
000350 54 8a 25 bd ed c9 6f bd 32 d8 d1 bd a2 14 14 be
       -0.040415123 -0.05854218 -0.10246314 -0.14460996
000360 f6 1f e7 bd d6 fa d4 3b e8 8c aa 3d 1c 8b 02 bd
       -0.11285393 0.0064996285 0.08327657 -0.031870946
000370 74 bd d1 bd 1b 84 c1 bd 4b af c7 3c 30 c8 90 bd
       -0.102412134 -0.09449025 0.024375578 -0.07069433
000380 aa fe 38 bd db d8 63 be 08 ca f3 3d cd 3b 3f 3e
       -0.04516474 -0.22250693 0.11903769 0.18675156
000390 46 2a 02 bf 48 53 96 be 7f be f3 bd 10 22 09 be
       -0.50845754 -0.29360414 -0.119015686 -0.133919
0003a0 46 b6 67 bd 00 b0 64 be f4 3b 09 bc 5e 35 11 be
       -0.056570314 -0.22332764 -0.00837611 -0.14180514
0003b0 bf a8 4a be 11 e2 99 bd 24 22 20 bd f7 47 a9 bd
       -0.19790934 -0.07513822 -0.03909506 -0.08265679
0003c0 cd e3 e9 bb 76 69 00 3d 35 3d 0c be 93 7c a2 3d
       -0.0071377517 0.031350575 -0.13695224 0.07933917
0003d0 3a e9 c7 bd 51 14 52 be 17 53 82 3e e8 87 dd 3d
       -0.09761281 -0.20515563 0.25454018 0.10816938
0003e0 04 7e 75 bc 3a f5 0a 3e 4a 1a a2 3d 97 e8 33 3e
       -0.014983658 0.13570109 0.079151705 0.17569195
0003f0 e7 44 9b 3d 5c 05 ad 3d 79 6d ba 3d 77 7d 70 be
       0.075815015 0.08448288 0.091029115 -0.23485361

conv2.bias f4 [32]
000000 6a 2c 0a be 0a 2a e2 3c 99 16 0c bd bf 1a 99 3d
       -0.13493505 0.027607936 -0.03420124 0.074758045
000010 b7 1b 21 3d 5c 85 8e bd 41 da 87 3c 70 cd 1d 3d
       0.03933307 -0.0695903 0.016583564 0.038526
000020 ef ff 1e 3d b9 18 b0 bc 2a 6b 03 3d 51 67 d4 bd
       0.038818296 -0.021496164 0.03208462 -0.103712685
000030 f8 87 a6 ba d3 37 e6 bd 6b 9a 36 bd 6b 34 1c ba
       -0.0012705317 -0.112411164 -0.04458086 -0.00059587386
000040 ba 64 c8 bd a7 bc 90 3c 96 7e 19 3c 9c 03 71 bd
       -0.09784837 0.017668081 0.009368559 -0.058841333
000050 ff 81 39 bd bc 44 9e bc 9b 2f 1f bd 0f c4 b2 3c
       -0.04528999 -0.019319884 -0.03886376 0.021822004
000060 44 5e 4a bb 05 74 a7 3d 3c cd b0 3c 39 82 86 3c
       -0.003087894 0.08176426 0.021582238 0.016419517
000070 17 e9 37 bd 24 87 50 bb 91 e7 ae bd ee 76 e6 bd
       -0.044900026 -0.0031818831 -0.085402615 -0.11253153

fc1.weight f4 [120, 800]
000000 31 7e 62 3c 1e b9 8e bc 57 e6 55 3d 00 14 81 3c
       0.013824032 -0.017422255 0.052221622 0.015756607
000010 f3 51 37 be ab 08 f1 3b 98 80 fb bd fc 0b 10 be
       -0.17902355 0.0073557696 -0.12280387 -0.14067072
000020 ad 4e 11 be 41 ec 93 be b4 ba 8a be c1 da 24 bd
       -0.14190169 -0.28891185 -0.27095568 -0.040247682
000030 fa af c2 bd ef 0b 18 be 28 1b 2e be ef 2e 06 3e
       -0.09506221 -0.14848302 -0.17002547 0.13103841
000040 fc 1d 15 3d 3a 3f 82 3d 09 69 00 3e 4e 6a f9 3d
       0.03640555 0.06359716 0.12540068 0.12178479
000050 71 eb b6 bc a1 80 ed bc e0 c3 c7 bd 0a df 02 3b
       -0.022329064 -0.028992 -0.09754157 0.0019969367
000060 fb 1c a5 bd b5 14 e0 3c 79 3e 52 3e 6d de 0c 3e
       -0.08062168 0.027353624 0.20531644 0.13756724
000070 b7 79 a6 3d f8 cf 09 3c 6f a5 66 3d ae ce bd bb
       0.08128684 0.0084114 0.056310114 -0.0057924604
000080 3f 3e a6 bc 19 17 71 bc f8 de 84 bc 5c 65 98 bd
       -0.020293353 -0.01471498 -0.016219601 -0.07441208
000090 3a be db 3d 4c 48 87 bb 77 25 0e bd 91 3f 3a be
       0.10729642 -0.0041284915 -0.034703698 -0.18188311
0000a0 04 92 95 3d a5 f9 71 3d b4 0d 87 bd db 24 45 be
       0.07303241 0.05907597 -0.065944105 -0.1925234
0000b0 0a 3e 78 bd 37 35 b5 bd f8 d9 dc bd dd 5b 43 be
       -0.06060604 -0.088480406 -0.10783762 -0.19078012
0000c0 ae 42 04 be 35 a7 da bd bb 2f 68 bc e6 ac d5 bd
       -0.12916061 -0.106764235 -0.014171536 -0.104333684
0000d0 42 55 b3 bd 3a ee 39 3d 57 0c 14 3c 0e 56 d9 3d
       -0.08756496 0.045393206 0.009036145 0.10612117
0000e0 22 4f 5f bc 26 b1 6e be 78 45 2c 3e d1 d3 8e 3d
       -0.013629707 -0.23309764 0.16823375 0.069739945
0000f0 81 b1 3f 3d aa 8d 88 bd f5 cc 53 bd 5c 7c ad bc
       0.04680014 -0.06667645 -0.051709134 -0.021177463
000100 c9 82 fa 3c c7 86 28 3e 99 fd e8 3d 86 b8 8c 3d
       0.030579941 0.16457663 0.11376495 0.068711326
000110 34 1f 27 3d ba 18 82 bd 9d 0c 47 3e bd 6c 2f 3e
       0.040801242 -0.063523725 0.19438405 0.17131324
000120 b0 5b ff bc fe 70 2f bd 54 24 d3 bd 04 bb ab 3d
       -0.03117165 -0.042832367 -0.103096634 0.0838528
000130 2a 29 99 bd 26 0f 5a 3c 04 de ab bc 48 bb 7b be
       -0.074785545 0.013309276 -0.020979889 -0.24583161
000140 7e e0 9b 3c 45 78 a4 3d 8f 16 1a 3e 8e 6f d9 3d
       0.019027945 0.08030752 0.15047668 0.106169805
000150 f3 b1 0e 3b ee d2 90 3e 0c c1 4a 3e 62 ca 85 3c
       0.0021773546 0.28285927 0.19800204 0.016331855
000160 d9 c3 ae bc 93 3c 16 be e5 f1 1d 3d bd 19 1a 3e
       -0.021333622 -0.14671545 0.038560767 0.15048881
000170 61 df a2 3c 8d eb 85 bd 6b 12 22 bd 1c 3b df bd
       0.019881906 -0.06539068 -0.039568346 -0.10899946
000180 0c f8 0b be 68 45 47 be b1 7e da bd f9 15 4d bd
       -0.13668841 -0.1946007 -0.10668696 -0.050069783
000190 7e 10 15 bc 14 0c 41 3c 93 40 24 be 31 4b 18 be
       -0.00909817 0.011782665 -0.16040258 -0.14872433
0001a0 5e ac a6 be 3b 89 8f 3d 0b 83 5d bd f6 95 7d be
       -0.3255338 0.070085965 -0.05408005 -0.24764237
0001b0 f2 7e c3 be d2 67 83 be d1 bc 26 bc c7 b0 1a bd
       -0.3818279 -0.25665146 -0.010176853 -0.037766244
0001c0 27 20 a4 bc 57 f5 ac 3d 5e 52 27 bb 07 39 14 be
       -0.020034863 0.08445232 -0.0025531272 -0.14474879
0001d0 40 45 92 bc be b4 bc 3d d1 b1 a8 bc 38 f4 8f 3d
       -0.017855287 0.09214161 -0.020592602 0.07029003
0001e0 5a 9f d3 3d 1a c4 92 3e 03 4a 2d 3d 8c 06 60 bd
       0.10333128 0.2866524 0.04230691 -0.054693744
0001f0 a5 9b 21 bd 9a df 8a 3d b4 bb cf bc f3 cb db bd
       -0.039455075 0.0678093 -0.025358059 -0.107322596
000200 75 e9 54 bd f9 99 52 3c 25 d4 be 3d 1c c6 b7 3c
       -0.051980454 0.012854093 0.09317807 0.022433333
000210 1d b3 93 bd a8 db 05 be c0 e0 e4 bd 5f 6c aa 3d
       -0.072118975 -0.13072073 -0.1117568 0.083214514
000220 ef 53 82 bc 2b f5 e8 bd 30 e6 0b bd ed 54 e0 bc
       -0.015909163 -0.11374887 -0.03415507 -0.027384246
000230 2e 0f c6 39 86 e5 9d bc 2e 67 48 3c 96 b2 44 bd
       0.00037776813 -0.019274484 0.012231631 -0.048021875
000240 33 aa 3b 3d 36 2d e4 3d c1 74 9f 3e ef 65 29 3e
       0.04581661 0.11141436 0.31143764 0.16542791
000250 76 90 cd bd c8 86 07 be 2f 28 cc 3c 1a fa b1 bd
       -0.10037319 -0.13235009 0.024921505 -0.08690281
000260 73 86 0e be 96 fa 9e 3d 72 b1 40 3b fd e5 da 3d
       -0.13918476 0.07762639 0.002940264 0.10688398
000270 e6 d1 cc 3d b9 30 aa 3c 29 aa 0b be 4f aa 26 bc
       0.100009724 0.020775186 -0.1363913 -0.010172441
000280 43 a0 51 3e 1c ad 6b 3e 93 ec ae bd bb b7 2c bd
       0.20471291 0.23015255 -0.08541217 -0.042167407
000290 98 87 89 3c d1 ba 29 3e db 21 29 3c ee ce 4a be
       0.016788289 0.16575171 0.010323013 -0.198055
0002a0 fc 35 b2 3c 20 14 30 3d 6b 38 98 bd 56 fc 5e be
       0.021754257 0.042987943 -0.07432636 -0.21775946
0002b0 86 79 59 be 95 9a 22 3d 86 1a 7d 3d 17 ed 2b bd
       -0.21237764 0.039698202 0.061792873 -0.041974153
0002c0 98 e4 96 3d af 42 96 3d 02 2c 0f be 39 c9 b7 be
       0.073678195 0.07336938 -0.13981631 -0.35895708
0002d0 6f 93 06 be dc a4 2e 3d 23 96 99 3d 22 bb 51 3d
       -0.13142179 0.04263769 0.074993394 0.051203854
0002e0 fd 12 7e be 26 47 f5 3b 8a b6 89 3d 14 1a 95 3c
       -0.24811931 0.007485288 0.0672427 0.018200912
0002f0 b5 7c 8a 3d ed 13 2c be 56 90 b8 bc 2a d0 98 3d
       0.06762067 -0.16804476 -0.022529762 0.07461579
000300 7e 56 71 3d 17 c4 70 3d 30 44 a1 bd 37 a4 5d 3c
       0.058920376 0.058780756 -0.07874334 0.013527921
000310 84 23 af bd ba 1a 4f be d9 81 8f bd 02 f0 ae bd
       -0.08551696 -0.20225039 -0.07007188 -0.085418716
000320 6c 48 03 3d 58 e7 6d 3d e2 71 90 bd 59 d1 88 be
       0.03205149 0.058081955 -0.070529714 -0.2672222
000330 d9 f9 f0 bc 0d ab 08 b8 5c 11 cb bc f6 75 0c bd
       -0.029416012 -3.258423e-05 -0.024788551 -0.034292184
000340 5b 38 58 bd 9d 48 6e bd 84 72 64 bd 9f 61 f5 bc
       -0.05278812 -0.05817472 -0.055773273 -0.029953776
000350 69 0c 00 3d 9e f5 77 3c d3 30 cf 3d 06 82 e8 3c
       0.031261835 0.015134243 0.10116734 0.028382313
000360 2f 5b 9b bc fb 04 05 3e 87 00 17 3d f4 83 0e bd
       -0.018964378 0.12990181 0.036865737 -0.03479381
000370 39 86 ba 3d b5 cb 5a bc 8a 52 0f be f7 f6 00 be
       0.09107632 -0.013354232 -0.1399633 -0.1259421
000380 26 bf 80 be d0 9c d5 bd 5f 64 2b bd d6 b8 83 be
       -0.25145835 -0.104303 -0.04184377 -0.25726956
000390 38 8d ad be 03 f2 31 be d5 fb 0f bc 0c 2c 7e be
       -0.33896804 -0.17377476 -0.008788069 -0.2482149
0003a0 ed 2c 2f be 74 b8 0a bd 0c a2 7a bd f9 96 13 3b
       -0.17106982 -0.033867314 -0.061189696 0.0022520407
0003b0 a2 b2 72 3c be a1 df 3d f9 8f ef 3d 56 45 4b 3d
       0.014813097 0.10919522 0.116973825 0.04962667
0003c0 df 5a e1 bd c8 21 f2 bd 1f b2 26 be 96 67 fa 3d
       -0.110036604 -0.118228495 -0.16278885 0.12226789
0003d0 86 46 50 3e 4d 59 19 3e 04 61 ca 3d aa 67 e6 3d
       0.20339403 0.14975472 0.098817855 0.11250241
0003e0 1b ba 26 be 9c 27 3e be a7 96 14 3e 4b bf a5 3c
       -0.16281931 -0.18569797 0.14510594 0.020232817
0003f0 6e c6 15 be 89 ec 8d be e7 f2 04 be d2 fc fb 3d
       -0.14626476 -0.27719525 -0.12983285 0.12304081

fc1.bias f4 [120]
000000 78 64 10 be e1 11 ac bd ca 34 46 bd 2e 82 c1 bc
       -0.14100826 -0.08401848 -0.048390187 -0.023621645
000010 77 00 16 3d 97 aa 17 bd 46 8a 40 bd 73 30 31 bd
       0.036621537 -0.03702792 -0.047006868 -0.043259095
000020 c1 e6 f7 bd c1 6f 49 bd 07 f8 39 bd 79 2a 9b bc
       -0.1210456 -0.049178842 -0.045402553 -0.018941151
000030 f3 1a 53 bd ad d1 99 ba 20 ff 3a bd aa 27 27 bd
       -0.051539373 -0.0011735462 -0.045653462 -0.04080931
000040 0f 16 37 3c 6e 8c 5c bd f4 de 0c 3d a2 62 33 bd
       0.011174693 -0.05384486 0.034392312 -0.043795235
000050 71 10 bd bc f6 89 bc 3c 9d 17 40 bc 60 d7 40 bd
       -0.023079129 0.023015004 -0.01172438 -0.047080398
000060 fd 2b 6c b7 c9 fa 9f bc 3b c1 2f 3c 5c 8c cb ba
       -1.4076938e-05 -0.019528763 0.010727222 -0.0015529501
000070 2a 8c 8b bd 27 45 99 bc ab c9 a2 3d ab 20 3c 3c
       -0.068138435 -0.018709732 0.07948621 0.011482398
000080 91 32 df bc 4c 38 c3 bc af 0d 12 3d 6a a8 8d bd
       -0.027245792 -0.023830555 0.03565758 -0.06916888
000090 36 48 b2 bd 6d af 0d 3d 09 86 cf bc c3 4d 4d 3c
       -0.087051794 0.034591127 -0.025332468 0.012530747
0000a0 51 d7 0f be 6e 44 7e 3c 23 92 dc 3c 3e 9f 90 bd
       -0.1404698 0.015519245 0.026925152 -0.07061623
0000b0 49 80 53 bd 8c b1 87 bc 41 0d 9d bd 6f 87 9e bd
       -0.051636014 -0.016564153 -0.076685436 -0.07740676
0000c0 14 7a 14 3d 9d 77 15 3d 8c 13 a5 bd 9d 7f 2f bd
       0.036249235 0.036491025 -0.08060369 -0.04284631
0000d0 53 35 85 bd 37 ce 61 bc fc 0d 81 3d 97 b8 fa bc
       -0.065043114 -0.013782076 0.063014954 -0.030605597
0000e0 51 91 34 3c 74 1a 93 bc 78 db eb bd b1 27 46 bd
       0.011020974 -0.01795695 -0.1151647 -0.048377696
0000f0 3f 68 fd 3c e0 27 51 3c 05 c4 56 bd 11 4a 03 bd
       0.030933497 0.012765855 -0.052433033 -0.032053057
000100 79 49 00 bb 71 a4 b2 bc c9 f7 77 bd 62 e8 60 bd
       -0.0019575043 -0.021806927 -0.06053904 -0.054909118
000110 2e 49 1c 3b d8 90 35 bc 19 19 99 bc 5d 5c 1d bd
       0.002384733 -0.011081897 -0.018688725 -0.038418163
000120 30 e4 4b bd de 6e cb 3b eb 5b b3 bc 6f 07 ab bb
       -0.049778163 0.0062082848 -0.021894416 -0.005219392
000130 f3 84 20 3c 07 3c 1b be ca 48 92 3c 0d cb 3d bd
       0.009797323 -0.15159617 0.017856974 -0.046336222
000140 c5 b0 d2 3b 10 40 ac bd 32 5e a3 bd c8 e7 56 bd
       0.006429764 -0.084106565 -0.07976951 -0.052467138
000150 af 1e 87 ba f4 64 94 3c 24 9f ff bc 88 36 f1 bc
       -0.0010308827 0.018114544 -0.031203814 -0.029444948
000160 38 16 4f bd ba e0 5e 3b 8a 61 07 bd 07 ef 26 bb
       -0.0505583 0.003400846 -0.033052005 -0.0025472061
000170 88 bd 7b bd 2b a7 dd bc 65 84 46 bc 76 86 78 3d
       -0.061460048 -0.027057251 -0.012116526 0.060675107
000180 7e b2 d3 bc 14 ae 23 bb 3e 7f ae bd ab a2 33 bd
       -0.025841948 -0.0024975585 -0.08520363 -0.043856304
000190 8b 49 87 bd 47 f8 03 3c 1f b9 a2 3a c6 b2 19 be
       -0.06605824 0.008054799 0.001241479 -0.15009603
0001a0 83 5b e9 bd 37 f2 d7 bc 16 8b a4 3c 9b ad 56 bd
       -0.113944076 -0.026360614 0.020085853 -0.052411657
0001b0 01 66 bf bc be 8a d7 bc 42 00 9f 3b 88 ab 05 bd
       -0.023364069 -0.026311275 0.0048523257 -0.032634288
0001c0 24 2a 1f bd 25 9f ce 3a fe c6 e7 ba 56 58 a3 bc
       -0.038858548 0.0015763982 -0.0017683206 -0.019939583
0001d0 72 b9 fb bc 1b 0d 03 bd 7b 1c 2a bc ce ad 0b be
       -0.030728076 -0.03199492 -0.010382767 -0.1364052

fc2.weight f4 [84, 120]
000000 75 e6 2a be 03 36 5b 3e a6 1b 8d bd 0d b8 08 3d
       -0.16689475 0.21407323 -0.06890039 0.03337865
000010 a9 1b 1a be be ae 31 be 22 82 bb 3d 9c 29 a1 3d
       -0.15049614 -0.17351815 0.0915568 0.078692645
000020 79 7e 69 3d cc 47 57 bd d1 4b 01 3e 15 fc 70 3d
       0.05700538 -0.052558705 0.12626578 0.058834154
000030 23 4a ab bc 75 81 1b bd 30 2a 57 3d 20 06 13 3d
       -0.020909375 -0.037965257 0.052530468 0.035894513
000040 6d c0 e9 bd ae fe de 3c 07 e3 79 3c 27 38 b2 3d
       -0.114136554 0.02722105 0.015251881 0.087021165
000050 b0 e5 5d be d2 64 1f 3d 21 1e 2c bb f1 5b 09 be
       -0.2166965 0.03891451 -0.0026263075 -0.13413979
000060 09 69 7b bd 80 3a 11 3a cd 28 cd 3c be 2c 1f 3d
       -0.061379466 0.0005540028 0.02504387 0.03886103
000070 98 c8 60 bd ba 67 a0 3d 3c 85 98 3d 18 da 36 3d
       -0.0548788 0.07832284 0.074472874 0.044641584
000080 d4 f9 7b 3d 12 10 b7 bd fe 6d 08 be 39 3c 29 bd
       0.06151755 -0.08938612 -0.13323209 -0.0413172
000090 f2 ab 9b 3d 65 d2 e3 bd a7 44 20 3e 99 ee 04 be
       0.07601155 -0.11124114 0.15651189 -0.12981643
0000a0 22 7f 3a 3e 49 be 36 be 2a fd 59 bc 65 e7 d3 bd
       0.1821256 -0.17846026 -0.013304988 -0.103468694
0000b0 e0 56 38 bd f6 11 44 be f9 d6 fe 3d a0 b8 7d bc
       -0.045004725 -0.19147477 0.124433465 -0.015485913
0000c0 e1 12 16 be 25 5f 10 be 45 1e 85 bd 9c 2f 01 be
       -0.14655639 -0.14098795 -0.06499914 -0.12615818
0000d0 a1 22 35 be 7a 32 40 bd bb 79 d2 bd b4 5c 14 be
       -0.17688991 -0.04692314 -0.102771245 -0.14488488
0000e0 09 cb bd 3b 9b 95 dd bd 4f 57 51 be a8 b1 f3 bc
       0.005792026 -0.108195506 -0.20443462 -0.029747799
0000f0 4e 93 2f be c0 a1 a4 ba 00 f1 b8 bd 45 c7 90 bc
       -0.17146036 -0.0012560412 -0.09030342 -0.017673144
000100 16 71 1f 3d 6d 08 c4 bd 75 b1 d4 bd 3d c1 97 3c
       0.038926207 -0.095719196 -0.1038541 0.01852476
000110 30 56 83 bd 90 32 a6 3c b2 fa be 3c 3e 8c a7 bd
       -0.06412923 0.020287782 0.0233129 -0.08181046
000120 4a a2 f5 3d 1d 33 8e 3a a6 e2 97 bd 1c c5 3c 3d
       0.11993845 0.0010848973 -0.07416277 0.046086416
000130 47 d0 08 bd f8 2e 46 be 95 72 a8 bd 5e a6 85 3d
       -0.033401754 -0.19353855 -0.0822498 0.06525873
000140 9b df 7e bd 7e b3 cb 3d cc fc 1d 3e 95 dc 88 bd
       -0.062224966 0.09946345 0.15428466 -0.06682698
000150 7d 45 19 3e 7b 6e 23 be c0 e5 36 bb e4 98 56 3d
       0.14967914 -0.15960114 -0.0027907938 0.0523919
000160 bd 0d 70 bc 8b 4e 35 bd 48 9f ec 3c d0 9b 67 bd
       -0.014651713 -0.044264358 0.028884545 -0.05654508
000170 e3 b1 40 bb 97 ea 32 bb 82 2f dc 3d 5f 55 76 bd
       -0.0029402904 -0.002730047 0.10751249 -0.06014001
000180 9d 43 b6 bc 46 cd f9 bd 44 80 c2 3c e2 60 a5 bd
       -0.022249037 -0.12197356 0.023742802 -0.080751196
000190 8d 21 b7 bd 9c 54 06 bd 12 d4 ae 3c 2b 75 8d bd
       -0.08941946 -0.032795534 0.021341357 -0.06907114
0001a0 00 3f e1 3c d8 24 a4 bc 97 24 69 3c 09 8d cc 3d
       0.027495861 -0.0200371 0.014229915 0.09987838
0001b0 e2 83 8f 3d a7 17 14 3d 51 39 bd 3c 94 6a 77 bd
       0.070075765 0.03615537 0.02309862 -0.060404375
0001c0 eb 03 16 bd 2b db a2 bd ea 33 f8 3b 26 0f 96 3c
       -0.03662483 -0.07951959 0.007574548 0.01831777
0001d0 a0 8c 64 3d 1e 72 1b be 51 47 7e be a6 7f 8b 3c
       0.055798173 -0.15180251 -0.24831893 0.017028641
0001e0 c2 a5 4f 3d 7a 38 10 be 03 d4 2c 3d 38 f0 d1 3c
       0.05069519 -0.14084044 0.042194378 0.02562724
0001f0 e9 fb 43 be 0e de 4d be b1 39 10 be f2 9a 83 3d
       -0.19139065 -0.20104238 -0.14084508 0.06426038
000200 24 06 00 bc 1b 37 94 3d d9 77 6a bd e0 16 b4 3b
       -0.007813964 0.07237073 -0.057243202 0.005495891
000210 25 1f 32 3e b8 e5 da 3c 58 13 4d bc 58 cb bb 3d
       0.17394693 0.026720867 -0.012516819 0.09169644
000220 aa 92 36 3d d1 d5 19 3d 01 eb af bd 8c e7 f8 3d
       0.044573463 0.037557427 -0.08589745 0.12153539
000230 78 5e 55 bc 48 a9 71 be d5 07 93 bc 28 dd 01 be
       -0.013023011 -0.23599732 -0.01794807 -0.1268202
000240 c5 8c 90 3d d4 80 c6 3c 10 52 4f be f3 ba f8 bb
       0.070581 0.024231352 -0.20246148 -0.0075906455
000250 56 ea f3 3d 9b a2 08 bc ff 17 68 3c d0 b0 54 be
       0.119099304 -0.008339549 0.014165877 -0.20770574
000260 8e ad 75 bd fd 71 ec bd 59 ea 84 bd f1 a6 19 bb
       -0.059979968 -0.11545179 -0.06490011 -0.0023445452
000270 d5 2e 04 3d c5 1a cd 3d 29 de ab bd 7b ee 9d 3d
       0.032271225 0.100148715 -0.08391983 0.07711502
000280 15 84 f0 3d 59 6a 49 3e 0f d8 33 be de 14 0d 3e
       0.11743943 0.19669475 -0.17562889 0.13777491
000290 0b 0c 56 3e dc 5c 0c 3e 27 de 6a be cb 9f 09 be
       0.20903032 0.13707298 -0.22936307 -0.13439862
0002a0 a3 6a 85 3e e4 20 76 be 03 b8 b9 bd 08 33 36 be
       0.2605792 -0.24035984 -0.090683006 -0.17792904
0002b0 86 85 48 3d b2 5b a0 3d b2 db 96 bd 40 fc c8 bd
       0.048955463 0.078299895 -0.07366122 -0.09813738
0002c0 18 a0 b8 bc c2 d7 1e be 1a 8c 12 bd a8 e4 bf 3d
       -0.022537276 -0.15511993 -0.035778143 0.093697846
0002d0 ce d5 49 3e 4c b8 06 3d 46 5e 95 bd db f4 11 bd
       0.19710466 0.032890603 -0.07293372 -0.035633903
0002e0 49 7b 97 3d e4 9b 48 3c b4 4a 04 be 98 34 da bd
       0.07396562 0.0122441985 -0.12919122 -0.10654563
0002f0 82 0a f7 bd a6 4f 9c 3d 37 22 6e 3d 9f 5c 0f bd
       -0.12062551 0.07632379 0.0581381 -0.03500044
000300 05 1d 48 3b da 46 e9 3c a4 18 b6 3d 18 84 b5 bd
       0.0030534875 0.028476167 0.088914186 -0.088630855
000310 0a 55 29 bc 71 85 9e 3d eb 8c 06 be 8a 9d 83 3c
       -0.010335216 0.07740296 -0.13139693 0.016066331
000320 01 b8 b3 3d de 4c c2 3d b9 8f 8a 3d 63 b6 9b bd
       0.0877533 0.094873175 0.06765694 -0.07603147
000330 51 62 10 bd fe 08 c4 3d 6d 83 bf 3d 07 ed 6c bd
       -0.03525001 0.095720276 0.09351239 -0.057843234
000340 dd 1b 9e 3d ec a6 f9 3d 70 67 2a 3d bb e7 02 3e
       0.07720158 0.12190041 0.041602552 0.1278371
000350 aa 3b 56 bb 63 98 91 bd fe 23 a4 3c be ad 07 3c
       -0.003268937 -0.071091436 0.020036694 0.008281169
000360 10 58 f3 3d 54 89 e0 bc ca 1e b6 3d ab 64 de bd
       0.11882031 -0.027409233 0.08892591 -0.10859045
000370 ce 3a a5 3d ff d8 57 3b 26 02 cb 3d b2 36 14 3e
       0.08067857 0.0032935736 0.09912519 0.1447399
000380 e2 95 98 bd 23 cb 21 3d 39 38 79 3d db 65 f5 3c
       -0.07450463 0.039500367 0.060844634 0.029955795
000390 81 04 d2 3c 95 2f 6c 3c a0 fc 27 3d 57 fc 94 bc
       0.025636913 0.014415641 0.041012406 -0.018186731
0003a0 a6 aa aa 3d 40 ac d9 bd 27 6e 4a 3d f2 8e 0f 3d
       0.0833333 -0.10628557 0.049421456 0.035048433
0003b0 4f 6a 48 3d a4 1d b8 3c b3 1c 58 3d a5 a9 88 3b
       0.04892951 0.022475071 0.052761745 0.004170614
0003c0 12 f0 9f be 3b 87 fe 3c 06 d5 57 bd 5c 81 6f be
       -0.31237847 0.031070342 -0.05269339 -0.2338919
0003d0 53 dd 8b 3d 5b 41 0d be 6f 4a 11 bd e0 ae 04 bb
       0.068293236 -0.13794462 -0.035471376 -0.0020245835
0003e0 b2 9a cb bd ce 77 96 bd 84 6f ca 3c ae 24 a8 bd
       -0.09941615 -0.0734707 0.024711378 -0.08210121
0003f0 de 58 3b 3e 9c 7d 93 bd 72 13 e5 bb bc 37 0c 3d
       0.18295619 -0.072016925 -0.0069908435 0.03423284

fc2.bias f4 [84]
000000 de 40 17 be 1e 8b b7 bd 8c 30 24 bd 52 87 5c 3c
       -0.14770839 -0.089620814 -0.04008536 0.013459997
000010 8e 0f 86 3d f6 22 f9 bd 0a 8b 26 3c 64 15 b5 3b
       0.065459356 -0.121648714 0.010164985 0.0055262316
000020 7a 7c 06 3e 4a 8d ec 38 9e 51 db bd 7f 45 14 be
       0.13133422 0.00011279674 -0.107089266 -0.14479636
000030 5a 01 c1 bd ca 84 ed bd 44 7e a5 3b ab 52 bf bc
       -0.09424086 -0.11597593 0.0050504524 -0.023354849
000040 c5 75 97 3d 36 46 c1 3b a3 03 2b 3c 66 6b ad bd
       0.0739551 0.0058982624 0.010437879 -0.0846775
000050 98 d6 c1 bd 14 25 a1 3d b8 f8 03 3d a2 f0 be bd
       -0.09464759 0.078684 0.03221962 -0.09323241
000060 8e 89 10 be 22 dd 22 3e aa e4 fa 3d f5 9b 79 bd
       -0.14114973 0.15904668 0.122506455 -0.060939748
000070 7f 78 8f 3d 50 ae f8 bd e0 6e 1d 3d e4 a4 21 bd
       0.07005405 -0.121426225 0.038435817 -0.039463893
000080 20 a1 61 3d 3c f1 5a be c3 b4 1a 3e ac b4 27 3d
       0.0550853 -0.21381086 0.15108018 0.040943787
000090 89 f8 33 bd ff b6 11 ba e4 de 01 bd 02 4b 97 3b
       -0.043938193 -0.00055585796 -0.031706706 0.004617096
0000a0 49 5a 92 bd ae 60 e6 3d 0f 03 9b bc 92 ac e8 3a
       -0.07146127 0.11248909 -0.018922357 0.0017751625
0000b0 53 41 c9 3b 7c 23 a0 3c 9d 2d c1 bd f7 3b 0b 3d
       0.0061418205 0.01954817 -0.09432528 0.033992734
0000c0 ea 2f e1 3c b1 4b 4a 3d dd 55 ea bd 69 fc 6e bd
       0.027488668 0.04938859 -0.11442158 -0.058346186
0000d0 91 62 f8 bd 43 cd 87 3d a9 76 9e bc e3 1a 22 3e
       -0.12128175 0.066309474 -0.019343691 0.15830569
0000e0 75 1e fd 3a 62 a1 12 3e fb 59 93 3d 18 19 ef 3d
       0.0019311445 0.14319375 0.07194897 0.11674708
0000f0 58 1f 0f bd 2a d7 0c 3d cb 4c 8a bc c9 0f e2 bd
       -0.034942 0.034384884 -0.01688232 -0.11038167
000100 0c 8f 1b 3d b3 21 5a bd 89 63 03 3d 7d ea 1b 3d
       0.037978217 -0.053254794 0.032077346 0.038065422
000110 a9 33 94 bd c2 5c 18 be 01 0a 7b 3a dc d2 48 bd
       -0.07236416 -0.14879134 0.0009576381 -0.049029216
000120 ea 68 d3 bd bb 0e 3f be 29 58 2e be da 96 86 3c
       -0.10322745 -0.18657963 -0.17025818 0.016429354
000130 db 38 47 bd ba a9 2d be c4 1d be 3d b0 28 d1 bd
       -0.048638206 -0.16959277 0.09283021 -0.10212839
000140 eb 3f 04 be 79 02 4e be a5 d9 04 be 41 04 0a 3d
       -0.12915008 -0.2011813 -0.1297365 0.033695463

fc3.weight f4 [10, 84]
000000 d8 66 e9 3d d9 a0 34 be c2 8d 8e 38 0c 68 5f bd
       0.11396569 -0.17639484 6.797492e-05 -0.054542586
000010 09 b2 05 3e 71 00 89 be 75 7c 87 be 71 43 6d be
       0.13056196 -0.2675815 -0.2646214 -0.23170258
000020 bf f3 1d be c5 cc 16 be 3b b7 20 bd 1a 1f b7 be
       -0.15425013 -0.14726551 -0.039237242 -0.35765916
000030 02 83 d3 3d 32 03 a4 be 90 0d 66 b4 82 93 83 be
       0.10327722 -0.32033688 -2.1425353e-07 -0.25698477
000040 3d 88 92 bd 80 51 4b 3d 14 d8 ff bd 8d 40 5f 3c
       -0.07154892 0.04963827 -0.124923855 0.01362623
000050 4f 93 2c be 0e c1 36 bd 96 a9 19 bc bb 44 cf be
       -0.16853069 -0.044617705 -0.009378811 -0.40482125
000060 f9 ba 90 bc cb 99 a3 bd 7e 29 5b be 67 62 d7 bb
       -0.01766728 -0.07988318 -0.21402547 -0.00657301
000070 d7 aa c9 be a1 fb bf 3d 69 dc 13 3e bc e9 80 3c
       -0.39388153 0.09374166 0.14439549 0.015736453
000080 c4 e6 b0 bb 6d e9 13 be 56 a7 0e be e0 1f 12 3e
       -0.005398603 -0.14444514 -0.13931021 0.14269972
000090 70 86 56 be cb ef 2a bf 70 ac 4c be b0 e7 92 3d
       -0.20949721 -0.66772145 -0.19987655 0.07173097
0000a0 2e 68 e9 bd 8f 6e 8a bc bb 1a 00 3e d4 8f 44 be
       -0.11396824 -0.016898422 0.12510197 -0.19195491
0000b0 df 7f 3d be cf 5b 19 be 92 30 16 3e 04 24 af 3d
       -0.1850581 -0.14976428 0.14666966 0.08551791
0000c0 cf 9d 8a 3d 99 13 70 be f5 75 8d 3d 97 38 d3 3d
       0.06768381 -0.23444976 0.06907264 0.10313528
0000d0 c4 bb c0 3d e8 f3 94 be ff bb 17 bc 17 1c 5a be
       0.094108135 -0.29092336 -0.00926113 -0.21299778
0000e0 96 a9 8e 3d d1 e2 7c be 88 d7 d0 bc ed f7 d7 3d
       0.0696594 -0.24695899 -0.025493398 0.10545335
0000f0 79 5e 24 be 28 f6 9c bd b8 e5 d8 bd ef 20 93 3a
       -0.16051663 -0.07664138 -0.105906904 0.0011225025
000100 ba 7e 75 be 49 a8 81 be f8 56 89 be 0d d4 ba be
       -0.23974124 -0.25323704 -0.26824164 -0.36489907
000110 75 7d bf bc f1 c2 60 be 62 bd 6a 3e 43 cb 0a be
       -0.023375252 -0.21949364 0.22923806 -0.135541
000120 2d a4 0f bd 48 b2 d6 3d 4e 17 dc bd b3 79 b4 3d
       -0.03506868 0.10483223 -0.107466325 0.08812275
000130 0d d8 84 3d 21 59 0e be 33 de d0 be b1 5d 5e bd
       0.06486521 -0.13901187 -0.40794525 -0.05428857
000140 c2 12 60 be 53 d6 0a 3c e2 56 e8 3d c3 a8 29 be
       -0.21882156 0.00847395 0.113446966 -0.16568284
000150 86 20 ee bd ba 41 52 be d0 05 65 3d fc b8 fb bc
       -0.11627297 -0.20532885 0.055913746 -0.030727856
000160 5e c8 04 3e d8 41 ef bd 87 a1 33 3e 9f 13 66 bc
       0.12967059 -0.116824806 0.17542087 -0.014042764
000170 e5 fd 95 bd ab 91 10 3e 5f a7 f6 bc d2 bb 8f bd
       -0.07323817 0.14118068 -0.030109106 -0.07018246
000180 96 0b 21 be 4c 27 8e 3d 3c c2 c3 3c 81 8e 1f be
       -0.15727076 0.06941089 0.02389633 -0.15581705
000190 e9 9f 19 bd 35 95 a1 3d d0 05 3a bc 1d ed 9a bd
       -0.037506018 0.07889787 -0.011353925 -0.07564757
0001a0 98 fe bc bd 1b 90 13 3e da 73 75 3c 54 56 b2 bc
       -0.092282474 0.1441044 0.014981234 -0.02176968
0001b0 9c 76 2f bd da 99 46 3d 49 b9 cb 3d da 8e d3 3d
       -0.042837724 0.048486568 0.0994745 0.10329981
0001c0 33 e7 86 3d d2 ef 83 be a4 1c 47 be c9 c3 d8 bd
       0.065870665 -0.25768906 -0.1944452 -0.10584218
0001d0 8d 67 f6 bd 69 e1 03 3d 46 a2 82 3b 8c b2 9e be
       -0.120314695 0.03219739 0.0039866297 -0.30995595
0001e0 7b 64 32 3d ee c0 1e 3e fb 6b e5 bd 0f 87 9b be
       0.043552857 0.15503284 -0.11202236 -0.3037648
0001f0 3d 07 bd 3d fa 41 fb 3d fc 76 42 be 10 f7 da 3d
       0.09229896 0.122684434 -0.18990701 0.10691655
000200 c9 ca 07 be 33 78 92 bd 7c b5 9d 3d e1 b8 fa 3d
       -0.1326095 -0.071518324 0.07700631 0.12242294
000210 5f 7d 2d 3c 45 81 dd 3b 1c 9d a6 bd fe 6e 5f be
       0.010588973 0.006759795 -0.08135435 -0.21819684
000220 d9 2a e7 3d 62 e6 64 3e fd d2 12 be 9a 92 97 3d
       0.112874694 0.22353509 -0.14338298 0.07401009
000230 75 b3 6a 3c 07 5b 8d 3c 9c ed 52 be fd ab 23 be
       0.014325012 0.01725532 -0.20598453 -0.15983577
000240 c9 dc 47 3d 98 25 6c bd c4 e7 ab be e7 56 54 be
       0.04879454 -0.05765304 -0.3357526 -0.20736276
000250 da 4c 29 be fd a8 5b be 1a 19 df bd 4c 9c e0 be
       -0.16533223 -0.21451183 -0.108934596 -0.43869245
000260 d7 ce 00 3c 2c 7c d8 3c fe 97 7e be 64 2b 44 be
       0.007861814 0.026426397 -0.24862668 -0.19157177
000270 4a 9b aa 3c 9f e5 74 be d6 46 55 bc 9c 51 9e bd
       0.020826 -0.23915718 -0.013017377 -0.077304095
000280 15 72 57 be 8d 0d 40 be 6b 96 91 bd 52 0b bf be
       -0.21039613 -0.18755169 -0.07108768 -0.37313324
000290 02 f2 ae bd 14 25 eb bd 6f 30 3c be fa b9 3a 3e
       -0.08542253 -0.114816815 -0.18377851 0.18235007
0002a0 58 d4 0c be 9a fc d0 3d 0d 77 36 bd e2 4f dc bc
       -0.13752878 0.1020443 -0.04454713 -0.02689356
0002b0 34 4d c1 3d 72 94 bb be 8d 02 25 be 48 29 55 be
       0.094385535 -0.36636692 -0.16114254 -0.20816529
0002c0 dc 41 c9 bd d2 ee 08 3e 4d 1c 9c 3d 4d fc ca bd
       -0.09827015 0.13372353 0.076225854 -0.09911404
0002d0 64 a0 aa 3c f2 65 ec bd 03 46 ee 3c 30 bb a1 3d
       0.020828433 -0.11542882 0.029086119 0.07897031
0002e0 6c 7e f5 3d 8f 07 36 3d 61 ec 26 3c 6d e3 a9 3d
       0.11987004 0.044440802 0.010188193 0.08295331
0002f0 ab f4 70 bd 03 ff 62 be 40 c3 54 be da 9d 3b bb
       -0.058827084 -0.22167592 -0.20777607 -0.0028628022
000300 94 e9 cb bd b8 11 5f 3d ec 45 80 bd 01 d6 2b be
       -0.09956661 0.054460257 -0.062633365 -0.16780855
000310 2c 8d 28 bd d0 41 9c bd b6 7f a1 bb 06 d1 7d be
       -0.041150257 -0.0762974 -0.0049285544 -0.24786767
000320 b6 95 fa bd 6d 9b 30 3c 8a 3a 14 3e 4d 79 e6 bc
       -0.12235586 0.010779244 0.14475456 -0.028134013
000330 85 46 9a be f0 68 12 be fb f0 c1 3d 8d 63 6e be
       -0.30131927 -0.14297843 0.094697915 -0.23280163
000340 a1 23 a2 be 9e 0c bf 3d 10 1d 0f 3e 95 3e da 3d
       -0.31667808 0.093285784 0.1397593 0.10656468
000350 06 d8 02 3e 3b a3 16 be 51 aa 4d bc 2b 2d d8 bb
       0.12777719 -0.14710705 -0.012552814 -0.0065971813
000360 61 4d 08 be c4 74 2e be a0 e9 16 be 46 2b 86 3d
       -0.13310768 -0.1703673 -0.14737558 0.065512225
000370 f4 18 f4 bc c4 ec 43 be da 31 2c be 6d ca ca 3d
       -0.029797055 -0.19133288 -0.16815892 0.09901891
000380 84 b6 77 be 34 26 a4 bd b1 c7 26 be 53 85 95 bc
       -0.24190718 -0.08015099 -0.16287114 -0.01825205
000390 13 6d 3e be 91 54 85 be 97 1e b4 3c bb 15 70 be
       -0.18596296 -0.26041082 0.021987243 -0.2344579
0003a0 7c 3e c0 bd f3 b5 0b be 83 df 3f bd 2f 49 5b be
       -0.09386918 -0.13643627 -0.046844017 -0.21414636
0003b0 d8 ce 83 be e4 84 06 3d 66 2f df bd 8a be b7 bb
       -0.25743747 0.032841578 -0.108977124 -0.005607431
0003c0 70 5d f4 bd 01 2b 53 bc 57 5d 38 3d b3 13 07 be
       -0.11931884 -0.012888671 0.04501089 -0.13191108
0003d0 34 d8 51 3d 65 47 9c 3d b0 68 24 be ef 2f df be
       0.051231578 0.07630805 -0.1605556 -0.43591258
0003e0 bc 47 b5 3d 4b f5 9f be 87 88 55 bd 08 59 bd 3c
       0.08851573 -0.3124183 -0.052132156 0.023113742
0003f0 06 7e 62 be 5e 2a 31 3d af 39 12 bd a0 4e ad 3d
       -0.22118387 0.043253295 -0.035699543 0.08462262

fc3.bias f4 [10]
000000 05 61 fb 3c e9 14 83 3d c6 7b d1 bc 9e 7e cc 3d
       0.030685911 0.06400473 -0.025571715 0.09985088
000010 39 82 74 3d f9 71 c1 bd 85 67 09 be db 2e 8b bd
       0.059694503 -0.09445567 -0.13418396 -0.06796046
000020 0c b7 d2 3c fa 5c 3c 3d
       0.02572205 0.045987107
