models/cnn_checkpoint.pth (torch, 451995 bytes, 10 tensors)

conv1.weight f4 [16, 1, 5, 5]
000000 8d fe 66 bc af bd 2f 3e b6 62 08 3e 6f 75 63 bd
       -0.014098776 0.17162202 0.13318905 -0.055531915
000010 89 ce 25 3e 26 a6 5c 3e 72 e5 dd 3c 52 46 61 bd
       0.16192068 0.21547756 0.027086947 -0.054998703
000020 2e 4e 53 be ff 80 bb bc 33 86 26 3e 41 0a e3 3c
       -0.20635292 -0.022888659 0.1626213 0.02771485
000030 20 74 fd 3d ac 8c 1f be 0a b7 f1 bd d3 c6 92 3d
       0.12375665 -0.15581006 -0.1180249 0.07166829
000040 a2 25 5d 3e 3b 24 ce 3d 09 51 e1 bd cc ae 47 be
       0.21596387 0.10065504 -0.11001784 -0.19500273
000050 3e f8 e5 3d 93 48 07 be fc 0f 32 bd 49 24 8b be
       0.11228989 -0.13211279 -0.043472275 -0.2717612
000060 ac 99 6f be 77 e1 17 3e df 8b d7 bb be 39 55 be
       -0.23398465 0.14832102 -0.006577953 -0.20822808
000070 5d 1f 8a be 65 07 96 be 3b 4d 0d 3e 34 b1 21 3e
       -0.26977053 -0.29302517 0.13798992 0.15790254
000080 fc e8 b9 bd 7a b9 21 3e 54 a6 da 3b 62 a4 56 3d
       -0.09077641 0.1579341 0.00667266 0.05240286
000090 00 3b 82 3d 81 a0 29 be 07 c2 30 3e 0b 40 71 3e
       0.063589096 -0.16565134 0.17261516 0.23559587
0000a0 c8 07 2c 3e 4a f9 70 3d fc 77 59 be 89 ef ba 3c
       0.16799843 0.05883149 -0.21237177 0.022819297
0000b0 27 bb 66 3d 38 b9 de 3d 07 90 76 3d b4 75 7c 3d
       0.056330826 0.108751714 0.06019595 0.061635688
0000c0 d9 d9 3c be b1 4f 3e 3d 80 d1 03 be 5a 3e 7f 3c
       -0.18442477 0.04646272 -0.12872887 0.015578831
0000d0 78 d6 f4 3b d4 bc 63 3e 48 97 69 3e 63 74 08 be
       0.0074718557 0.22240001 0.22811615 -0.13325648
0000e0 37 56 13 be 4b 47 4e be b9 94 d1 bd c5 7e ad 3e
       -0.14388357 -0.20144384 -0.10233445 0.3388578
0000f0 89 fe 58 be 14 4d 5a be b1 c5 09 be 20 fa 8f bd
       -0.21190847 -0.21318465 -0.1345432 -0.070301294
000100 7b 72 8d 3e 3f db 73 be 82 89 0b be 4d c7 ea bd
       0.27626404 -0.23814104 -0.13626674 -0.11463795
000110 3e 21 9b bd 2c 95 51 3e b3 f8 1d be f2 35 91 bb
       -0.075747 0.20467061 -0.15426902 -0.0044314796
000120 73 19 33 be 0c 9e e6 3c d4 a8 5d 3e 1e 02 20 bb
       -0.17490177 0.028151534 0.21646434 -0.0024415324
000130 8b 47 8d be f6 c8 d6 3d 2a 91 b1 bd de 2a 38 bd
       -0.27593645 0.10487549 -0.08670266 -0.044962756
000140 cc fb 17 be bf af 36 be b8 ad d6 bd bc 3c af bd
       -0.14842147 -0.1784048 -0.10482353 -0.08556506
000150 c8 9b 7f be 0c 01 2f 3e d1 50 6e bd 14 00 0e 3e
       -0.2496177 0.17090243 -0.05818254 0.13867217
000160 16 fc 1c bd 0a a7 a6 bd 4f fb f5 3d b6 37 13 3e
       -0.038326345 -0.08137329 0.12010824 0.14376721
000170 f6 4d 15 3e 97 f3 f2 3d 49 51 06 3e e6 ca 16 be
       0.14580521 0.11862867 0.13116945 -0.14725837
000180 01 91 27 bd c8 3a 33 bd 66 2c 80 3d 86 83 71 3e
       -0.04090977 -0.04375723 0.06258468 0.23585328
000190 b3 ce 53 3e 4c 46 1f 3e 99 85 28 3d 6b 61 dd 3c
       0.20684318 0.1555416 0.041143034 0.027023992
0001a0 a6 1a 10 3c df d4 74 be 6e 54 7b be ec b3 5a be
       0.008795416 -0.23909329 -0.24543926 -0.21357697
0001b0 0d 5f 37 be 19 45 2e 3c 38 a9 91 be 39 ce 9d be
       -0.17907353 0.010636591 -0.28449416 -0.30821398
0001c0 82 77 b7 bd e7 4c 3c 3e 9d 07 d5 bc b9 09 11 3e
       -0.08958341 0.18388711 -0.026004607 0.14163865
0001d0 84 21 e5 3d b6 e2 bb 3c 77 f7 03 3e fe 86 d8 3c
       0.11188033 0.022935253 0.12887369 0.026431557
0001e0 af 0e 92 3e 58 ad a7 3e 96 70 7c 3d 85 01 bf bd
       0.28526828 0.32749438 0.061630808 -0.09326462
0001f0 73 0a c2 bd aa 92 b6 bd 71 10 ea 3d 76 42 1c be
       -0.09474649 -0.08914693 0.11428917 -0.15259728
000200 de 1e 03 3e 6e 22 26 3c 8a a7 3e be 99 ff 08 3d
       0.12804744 0.010140045 -0.18618599 0.033446882
000210 6b 64 d7 3d 65 37 5e 3e 3e 49 4f 3b 17 17 9c 3d
       0.105172 0.21700819 0.003162935 0.076215915
000220 6b 4c 94 3e ee b4 af 3e 0b 92 3b 3e 46 b6 9b 3c
       0.28964552 0.34317726 0.1831743 0.019007813
000230 c1 fa c4 3c f7 8b 80 3e 34 6a a6 3d bb ea 34 be
       0.02404535 0.25106785 0.081257254 -0.17667668
000240 1c 74 19 be 72 34 cc 3d f1 26 56 be 0a 94 c1 be
       -0.14985698 0.09970941 -0.20913292 -0.37808257
000250 2f ac b3 be 75 d8 8f be 72 49 41 3e c6 c1 78 3e
       -0.35092303 -0.2809483 0.18875673 0.24292669
000260 83 6c a0 3d 12 0f 57 3d e3 4f 2e be 90 63 d3 b7
       0.07833197 0.052504607 -0.17022662 -2.5199522e-05
000270 d2 04 56 3e 3b 88 3a bd 77 28 a8 bd d8 6f 52 be
       0.20900276 -0.045540076 -0.08210843 -0.20550478
000280 63 32 92 3c 95 33 1c bd 9f ad bc 3d 89 6a 8c be
       0.017846292 -0.03813513 0.09212803 -0.2742503
000290 00 d5 04 bd 46 8d e1 3d 91 72 4b 3e e7 88 ea bd
       -0.032429695 0.11013274 0.19867922 -0.11451893
0002a0 4d 09 96 be 36 fc 6d be b2 4c 23 3e 5a 69 b0 3d
       -0.2930397 -0.23240742 0.15947226 0.08613844
0002b0 dd 7f 53 bd b3 25 3a be 8b f1 ee bd 34 2f 6f be
       -0.05163561 -0.18178444 -0.116671644 -0.2335785
0002c0 b0 1d ad 3d d6 7d b7 bd 96 52 04 3e ac 50 56 3e
       0.08452928 -0.08959548 0.12922129 0.20929211
0002d0 2a a0 93 be ed 40 eb bd 88 54 3e bd 16 e3 bb bb
       -0.28833133 -0.11486993 -0.046467334 -0.005733858
0002e0 9a 62 50 bd 49 71 10 be ec 6d b4 be e9 4d ef 3a
       -0.050875284 -0.14105715 -0.35240114 0.0018257472
0002f0 43 f2 8d bd 11 a8 72 be 5a 66 2d 3d 53 ee bf be
       -0.069309734 -0.23696925 0.04233394 -0.37486514
000300 50 b0 99 bd 2b ac 3e be 43 18 87 be 99 08 d2 3d
       -0.07504332 -0.18620364 -0.26385698 0.10255546
000310 3f 43 46 be 15 d9 7a be c2 ba 49 be eb 0b b9 bd
       -0.1936159 -0.24496873 -0.19700149 -0.09035476
000320 19 f9 47 be e6 34 04 3e b6 89 6a 3d d1 ad be 3d
       -0.19528617 0.12910804 0.057260238 0.093104966
000330 4f 97 07 bd 72 0f 86 be 46 bf 84 bd 1d 58 15 be
       -0.033103283 -0.2618366 -0.06481795 -0.14584394
000340 b4 19 a3 3d 32 f7 28 3e 0f 9f 4d be 2e 3e df 3d
       0.07963887 0.16500548 -0.20080207 0.10900532
000350 65 70 4c 3e 79 34 32 be f6 eb 4a 3d f6 16 ff 3d
       0.1996475 -0.17402829 0.049541436 0.12455551
000360 9b a7 c5 3d d2 67 3d be fb b4 27 3d 91 2a 3c bd
       0.09651109 -0.18496636 0.04094408 -0.045939032
000370 1c a7 06 3e b1 08 f3 bc 26 0d 11 be bf c1 c5 3c
       0.13149685 -0.02966723 -0.14165172 0.024140237
000380 9b f7 74 be 33 94 33 3e f4 b1 38 3e f0 0a 3a be
       -0.23922579 0.17537002 0.18036634 -0.18168235
000390 ae a9 2e be bc 45 10 be bb 45 0f be 50 09 53 be
       -0.17056915 -0.14089102 -0.13991444 -0.20609021
0003a0 e0 4e 9c be 2f f5 57 bd 06 8c 6e be d3 48 be 3d
       -0.30528927 -0.05272406 -0.23295602 0.09291234
0003b0 70 12 6c be 51 bf 30 be 5d ef 33 be 8a 99 c6 bc
       -0.23053908 -0.17260481 -0.17571779 -0.024243135
0003c0 bb f5 0a be f1 a0 05 be 87 dc 80 bd f3 ec 89 3d
       -0.13570301 -0.13049676 -0.06292062 0.067346476
0003d0 e6 f9 1b 3e e2 50 3c 3e 86 70 32 3e c5 c2 df bd
       0.15232047 0.1839023 0.17425737 -0.10925821
0003e0 f5 7b 0d 3e 67 dd 44 3e f3 ef 95 bd 8d e5 1b be
       0.13816817 0.19225083 -0.07321157 -0.15224285
0003f0 a7 ac 48 3d 59 f8 e4 3d a8 a1 a8 bd 09 c1 88 3c
       0.04899278 0.11180181 -0.082339585 0.016693609

conv1.bias f4 [16]
000000 cd 90 3b be 42 8b fa bd 49 a4 ab 3d 65 37 f5 bd
       -0.18316956 -0.122335926 0.08380944 -0.11973456
000010 69 d8 df bd 3b f9 b4 bd 47 5b 59 3d 89 80 5b be
       -0.10929949 -0.088365994 0.053065564 -0.21435751
000020 fa fc 3c be b5 a1 00 3b 49 b5 4a 3d 13 ba b9 bb
       -0.18455878 0.0019627635 0.049489293 -0.0056679337
000030 ad 90 47 3d dc 00 9a be cf 00 9b be 1a b4 c8 bc
       0.048721958 -0.3007878 -0.30274054 -0.024499942

conv2.weight f4 [32, 16, 3, 3]
000000 bc 12 c3 3c 3d 1d ed bc 9b 8e 66 3c 20 cb 0b be
       0.023812644 -0.028944606 0.014072086 -0.13651705
000010 c1 3a 30 bc 11 7c 24 3d ba aa bb bd 22 28 82 3c
       -0.0107561955 0.04015738 -0.09163423 0.015888277
000020 b6 2a 6b 3d c4 32 13 3e f0 e4 14 3e da 4b c6 3d
       0.05741378 0.14374834 0.14540458 0.09682436
000030 0a a0 3f bd 8c f4 ed 3d 28 9b 8d ba 8e e7 32 bd
       -0.046783485 0.11618909 -0.0010803686 -0.04367786
000040 34 6a 7f bc ff f0 04 bc 51 38 85 3d 86 d7 86 bd
       -0.015589286 -0.008114099 0.06504882 -0.065840766
000050 29 de 6a be 0b a8 ba 3d c3 98 24 3e 92 ef 19 be
       -0.2293631 0.09114083 0.16073899 -0.15032795
000060 e5 db ed bc 1f f6 c6 3d 23 62 9b 3d b2 eb c8 3c
       -0.029035518 0.097149126 0.075870775 0.02452645
000070 9d 69 a4 3d 57 a1 82 3b ec a6 b3 bd 08 ae 66 3b
       0.08027957 0.0039865184 -0.08772072 0.0035198946
000080 1e 8b 09 3d 8e 54 36 3d a3 43 3a bd a5 a4 84 bc
       0.033579938 0.04451423 -0.04547466 -0.01619179
000090 4a a3 76 3c 2d 5a f6 bd 99 4e f7 3d f9 37 9c bd
       0.01505358 -0.120289184 0.12075538 -0.076278634
0000a0 48 03 a9 3c 35 8a 3a be fa c6 72 3e c8 2c d8 3d
       0.020631447 -0.18216784 0.23708716 0.10555416
0000b0 a8 d6 df bd 78 a6 a5 3d 08 9d 49 be 96 39 c0 bd
       -0.10929614 0.08088392 -0.19688809 -0.09385984
0000c0 47 2d 9b bd 11 5e 10 be 26 a2 aa bd 17 d8 b8 3d
       -0.07576995 -0.14098383 -0.083317086 0.09025591
0000d0 20 8d 3b 3e 47 62 b4 3d 0d 4c 83 bd 5b 89 90 3d
       0.18315554 0.088078074 -0.0641099 0.070574485
0000e0 2f 10 bb bc 77 63 59 be a6 22 e1 bd ba 7e 2d bd
       -0.022834865 -0.21229349 -0.10992937 -0.042357184
0000f0 d3 18 83 be 2a b3 4c bd bd 16 ac bd 3f cd 29 be
       -0.25604877 -0.04997555 -0.084027745 -0.16582201
000100 a0 d3 b2 be 0b 86 06 3e b4 c7 30 3e 3e f7 e6 bd
       -0.34927082 0.13137071 0.1726368 -0.112776265
000110 32 e6 73 3d 6c 3f 3b 3d eb 39 9b bc 28 e0 c9 bd
       0.059545703 0.04571478 -0.018948516 -0.098572075
000120 b6 1f d0 3c 99 49 1d be 4c a7 b2 3c 42 d0 e1 3d
       0.025405746 -0.15360107 0.021808289 0.1102605
000130 e6 84 ae bc e5 70 89 bc d7 28 c0 3d b3 b0 73 3e
       -0.021303605 -0.016777465 0.093827896 0.23797874
000140 95 56 3b 3e 29 56 66 be 00 e0 80 be da 6e 98 3d
       0.18294747 -0.22493805 -0.25170898 0.07443018
000150 35 db fe bd ce 48 bd be dc fe 14 be ce 00 b0 3d
       -0.12444154 -0.36969608 -0.14550346 0.085939035
000160 22 a8 a8 be 30 26 4f be c8 cb 26 3e e3 4e 1c 3e
       -0.32940775 -0.20229411 0.16288674 0.15264468
000170 68 a3 7c bd 46 d1 b3 3d d2 c7 39 3e d3 6b f3 bd
       -0.061679274 0.0878015 0.18142632 -0.118858
000180 4b 16 67 be c2 a4 a3 3d ac 4d f1 3d 00 10 b6 3d
       -0.22567098 0.079904094 0.11782393 0.088897705
000190 26 f5 16 be f8 ef 41 be 98 1e d8 3d 2e 15 cc bd
       -0.14741954 -0.18939197 0.1055271 -0.09964977
0001a0 9c 47 5c be 4c d7 8a bd 79 9a c9 3b 50 82 87 3d
       -0.21511692 -0.06779346 0.006152448 0.06616652
0001b0 62 90 c0 3d c7 de e1 3d 6f 1a 60 ba c4 78 b8 bd
       0.09402539 0.110288195 -0.0008548861 -0.09007409
0001c0 0a ef 8d 3d dc 69 81 3d e8 db ea bd 4d fe a1 bb
       0.06930359 0.06319019 -0.11467725 -0.004943645
0001d0 87 fb 52 3c 5b 6d 22 3d d7 0d 00 3e d5 ef 54 bc
       0.012877352 0.03965507 0.1250528 -0.012996634
0001e0 66 4a b7 bd b1 e4 c0 bd 08 ef 71 bb 17 9a 8e 3c
       -0.08949737 -0.094186194 -0.0036916155 0.01740746
0001f0 e1 93 0c 3c c6 56 75 bd fc 34 f5 bd f3 76 47 be
       0.008580179 -0.059897207 -0.119729966 -0.1947897
000200 69 74 c6 bc c4 15 31 bd 44 b2 61 bd 09 f6 88 bd
       -0.02422543 -0.043233648 -0.055101648 -0.066875525
000210 ee 47 f7 3d 90 1a 9b 3d 5f 5a 2c bd 4d f2 3b be
       0.120742664 0.07573426 -0.042078372 -0.18354149
000220 01 98 db be de 3d cf bd ac e0 4b be 47 b0 7a be
       -0.42889407 -0.10119222 -0.19909924 -0.24481307
000230 8e 78 0b be 2f aa 4e bd ec 1c d4 bd 76 97 da bd
       -0.13620207 -0.05045527 -0.10357079 -0.1067342
000240 c2 ed 89 3d 07 29 26 3d 34 42 c7 bd 44 67 a2 3d
       0.06734802 0.04056647 -0.09729424 0.079298526
000250 6a 76 b9 bc c9 f5 ed bc ef 5d a0 bc 3f 28 bc bc
       -0.022639472 -0.029047864 -0.019576041 -0.02296841
000260 1c 9a d5 bb ce 03 3e 3d 83 f0 33 bd 7b 57 1d be
       -0.0065186154 0.046390347 -0.04393054 -0.15365402
000270 75 18 38 bd 91 bc d7 3c ce 83 51 be 9f c6 5a bd
       -0.0449452 0.026335033 -0.20460436 -0.053412076
000280 e1 dc 47 bd 1f 8d b8 bd ab 98 d4 b9 e3 21 12 3e
       -0.04879463 -0.09011292 -0.00040549538 0.1427074
000290 20 9e 64 3e 1e f8 13 be f8 a2 5e 3c c4 dc fb 3d
       0.22325945 -0.14450118 0.013588659 0.12297967
0002a0 17 13 50 bd 4d 0a 82 bd e3 b2 f9 3d bd ce 84 3c
       -0.050799455 -0.06349621 0.12192323 0.016211862
0002b0 3f 59 5a be 47 d2 51 bd 98 a9 06 be ec ae 3d be
       -0.21323107 -0.051225927 -0.13150632 -0.18523759
0002c0 67 52 78 3d f5 a8 bd bd 8c 22 36 bc 4e b6 84 3c
       0.06062546 -0.092607416 -0.011116635 0.01620021
0002d0 b7 db 62 3d 54 f4 02 be d0 55 77 be 6c f0 4e bd
       0.055385318 -0.12788516 -0.24153829 -0.050522253
0002e0 63 e4 3a be ea c4 e2 bd 17 bb 47 bd 09 bc df bd
       -0.18251185 -0.110727146 -0.048762407 -0.10924537
0002f0 43 85 c4 bd 82 ad ba bd 9c 6e 14 be 79 4c 57 be
       -0.0959573 -0.09115125 -0.14495319 -0.21025266
000300 a4 fb 7f bd 19 54 87 3c 83 5b bd bd 4c 11 3e 3c
       -0.062495843 0.016519593 -0.0924597 0.011600804
000310 3b e2 2d be 42 fe d9 bc 5e 05 0b 3e 4a 7d c4 3d
       -0.16980831 -0.026610497 0.13576266 0.095942095
000320 00 c7 7e bd 57 d4 e0 3c 83 2e 73 3d 8a db c4 bd
       -0.0622015 0.027445002 0.05937053 -0.09612186
000330 8a a0 94 3d 81 58 7c 3d 5b d7 18 bd b8 10 ab bd
       0.07257183 0.06160784 -0.037314754 -0.08352798
000340 88 04 af 3c c0 14 e6 bd 40 53 14 3b cb f3 37 3d
       0.021364465 -0.112344265 0.0022632629 0.044910233
000350 ca 24 8c bc 6c cf 86 bd 24 c9 b8 bc 3a ff ed 3c
       -0.017107386 -0.06582531 -0.022556849 0.029052366
000360 19 e0 9b bc 00 a8 55 bd 1c 0e d9 3d fe 76 f1 bd
       -0.019027757 -0.05216217 0.10598394 -0.11790274
000370 a5 72 fa bd 26 ff d0 3d 17 0d 0b bd f0 bf e7 3c
       -0.12228898 0.10204916 -0.03394803 0.028289765
000380 98 86 a8 3c a9 94 d7 bc 73 7c e8 bd 8d 64 26 be
       0.020571992 -0.026316004 -0.11351862 -0.16249295
000390 73 b1 68 bd 63 2e 21 bd 0b 44 5e be 1d fb 07 bd
       -0.056809854 -0.03935088 -0.21705644 -0.033198465
0003a0 db 82 eb 3b bd 73 ee bd 24 f3 fb bd 47 8d 99 bc
       0.00718723 -0.11643169 -0.12302235 -0.018744124
0003b0 e4 9d af 3d 24 bf 10 bd 37 df 46 bc de 5f d1 3d
       0.08575037 -0.035338536 -0.0121381795 0.10223363
0003c0 91 36 96 3c bd 01 40 be 57 08 dc 3d 1a de 69 3d
       0.018336566 -0.18750663 0.10743778 0.05709658
0003d0 17 96 8b 3d 8a 2e 7a 3c 6a d1 01 be 84 eb 19 bc
       0.06815737 0.015269885 -0.12677541 -0.00939453
0003e0 9d 07 d0 3d 17 aa e5 3d bc fa a7 bd 12 e7 23 3d
       0.10157702 0.11214083 -0.08202121 0.040015288
0003f0 e0 8f 06 bc 28 5c 0f be ea 0b cf bd 35 3c 8d 3d
       -0.008213013 -0.13999999 -0.10109694 0.06896249

conv2.bias f4 [32]
000000 7f 70 f4 bc 37 8f 1a bd e6 1f 2d bd 8c e3 bd bd
       -0.029838799 -0.037734237 -0.04226675 -0.09271917
000010 cb 9f 13 ba 23 2d 78 3c f0 84 d6 bd f2 88 16 3b
       -0.0005631416 0.01514748 -0.104745746 0.002296981
000020 36 ac 9c 3c 8e eb 89 bd 4e da 69 bd 2c 89 70 3d
       0.019125085 -0.067343816 -0.057092957 0.058724567
000030 09 4f 0b bd 7b ef 97 3d b1 c5 93 bc 4c 45 7e bd
       -0.03401092 0.07418724 -0.018038603 -0.062077805
000040 9a 6a db bc 9f ae 41 bc e1 96 a7 bd c2 59 86 bd
       -0.02678423 -0.011821418 -0.08183075 -0.06560089
000050 1a 46 7f 3d 77 7e 83 bd 38 df 0a 3d 72 72 52 3b
       0.062322713 -0.06420606 0.033904284 0.0032111672
000060 37 9f e0 3b 99 14 d8 bd 5b b7 66 3d 98 8e a7 bc
       0.0068549174 -0.10550804 0.056327205 -0.020453736
000070 59 5a 85 bc b3 80 42 3d 66 00 33 3d 03 29 bd 3d
       -0.016278433 0.04748602 0.04370155 0.09236338

fc1.weight f4 [120, 800]
000000 0c 58 ab bc c0 51 11 bd 3b e1 d2 3c db 9f e7 bc
       -0.020916007 -0.035478354 0.025742164 -0.028274467
000010 74 47 9b 3c a8 28 f6 bb 9e d4 a2 bc 3f b8 91 bc
       0.01895497 -0.007512171 -0.019876774 -0.01778805
000020 fa 2a 66 3a 72 7c 98 bc 08 7d 1e bc e1 4e c8 3c
       0.0008780208 -0.018614028 -0.009673364 0.024451675
000030 6f 10 27 bc 62 b9 a8 bc ac 1e 8f bb 41 59 22 bd
       -0.010196789 -0.02059621 -0.00436767 -0.0396359
000040 9a a5 e8 3c 18 68 a3 3b 34 10 19 bd 54 60 27 3c
       0.028399277 0.004986774 -0.037368968 0.0102158375
000050 75 bb 2e bc ee f7 a8 3c 3b 94 93 39 c8 88 1e bd
       -0.01066481 0.020626035 0.00028148465 -0.038704664
000060 31 d7 62 bc 8b f8 ec bc 93 5e 31 3c e6 0d eb 3b
       -0.013845251 -0.028927108 0.010825771 0.0071732877
000070 ec 49 57 bc 43 ea ca bb 44 b7 9d 3c e7 43 19 bd
       -0.013140183 -0.006192477 0.019252427 -0.037418272
000080 6a 66 47 3a 3d 44 8e bc 86 a6 93 3b bf bf 02 bd
       0.00076065084 -0.017366523 0.004505935 -0.031921145
000090 9f 83 7f 3c 33 58 39 3c c8 a4 34 bc f2 e8 8e 3c
       0.015595346 0.011312532 -0.011025615 0.017445061
0000a0 69 31 e2 bc c3 2b a6 3b b3 b4 4b bc f2 0c 08 bd
       -0.027611451 0.005071135 -0.012433219 -0.03321547
0000b0 00 0a b0 3c 6d a0 49 bc 22 fd c7 3b 63 d7 04 3b
       0.021489143 -0.012306315 0.006103174 0.0020269982
0000c0 5b b8 26 bd d5 ec 98 3c 04 e7 30 bd 5e 15 79 bc
       -0.04070316 0.018667618 -0.043189064 -0.015202848
0000d0 e7 3c c5 3c 99 0b c3 3b 86 8d 09 3b a8 50 1f bd
       0.024076892 0.0059523103 0.0020988896 -0.03889528
0000e0 20 08 df bc 16 d1 08 bd 53 d3 4c bc 19 5c d7 3c
       -0.027225554 -0.033402525 -0.0125015555 0.026289033
0000f0 90 ee 82 bc f5 a7 40 bc de d2 ca 3c 1c bf 22 3c
       -0.015982896 -0.011758794 0.024758752 0.009933259
000100 a3 12 7b 3c 6b c2 dd 3a a0 dd f7 bc a3 2b bc 3c
       0.015324268 0.0016918903 -0.030257046 0.022970026
000110 f0 ad cf bc 09 ad e5 bb 69 a8 01 bd 28 17 fa bc
       -0.025351495 -0.007009153 -0.03165475 -0.03052862
000120 70 a8 36 bd 60 c5 0b 3b 5b ae ce 38 1c a4 3c 3b
       -0.04459423 0.0021327361 9.855322e-05 0.002878434
000130 ef 91 bd bc 31 c8 ac bc c1 5d da bc 8f 69 a7 3a
       -0.023140876 -0.021091552 -0.026656033 0.0012772548
000140 7c a8 d5 bb 38 31 07 bd 80 36 d6 bc dd 38 e0 3c
       -0.006520329 -0.033005923 -0.026149035 0.027370865
000150 11 74 95 bc 82 9a 10 bd 0e bb 23 bd 41 1b db 3b
       -0.018243821 -0.0353036 -0.03997331 0.0066865985
000160 c5 2a ee 3c fe 70 9c bb 2b 90 b7 3b e3 e6 a0 3b
       0.029073128 -0.004774212 0.005601903 0.0049103363
000170 f0 d6 56 bb 54 96 aa 3b 6c 92 70 bc 5c d3 10 bd
       -0.0032781921 0.005205909 -0.014683347 -0.035357818
000180 b5 22 47 bd c0 b3 e3 bc 45 b0 ec bc cf 95 d9 bc
       -0.048617084 -0.027795672 -0.028892646 -0.026560692
000190 80 ee cf 39 98 d3 69 3b 70 77 70 3c 94 58 60 bb
       0.00039659813 0.0035679098 0.014676914 -0.0034232484
0001a0 21 54 69 3c f4 a9 83 3c 78 1e 06 bc 87 d9 0b bd
       0.014241249 0.01607225 -0.008185975 -0.034142997
0001b0 e8 55 ce bb ae bd e3 bc b8 7d 0b bd 60 b7 54 3c
       -0.006296862 -0.027800407 -0.03405544 0.012983173
0001c0 c8 7f 63 bc 7f 62 b6 3b 64 1e dd 3b 53 e6 40 3c
       -0.013885446 0.005565941 0.0067480076 0.011773664
0001d0 66 78 16 3c 91 9f af 3b 5b d5 1f 3b fd 92 13 bd
       0.009183979 0.005359598 0.0024388644 -0.03602885
0001e0 ca 39 c9 bc be 67 fd 3b 6c 32 26 bc a6 0a a2 bc
       -0.024563689 0.0077333143 -0.010143857 -0.019780468
0001f0 82 73 1b bd cd 62 88 3a 1f da a5 bb 9c b7 58 bb
       -0.037951954 0.0010405421 -0.0050614025 -0.0033068424
000200 5b b9 a0 bb c1 88 05 bd a8 83 ee 3b 5a 27 10 bc
       -0.0049049086 -0.03260112 0.0072788782 -0.008798445
000210 8e c5 8e bb f9 c3 48 bb 14 a0 d2 bc 86 c3 c1 bc
       -0.0043570464 -0.0030634387 -0.025711097 -0.023652803
000220 58 62 ac bb 55 b3 13 bd b6 c3 df bc e2 30 a9 3c
       -0.005260747 -0.036059696 -0.027315002 0.020653192
000230 a7 fc 93 bc 37 e7 0e bd 70 fe f9 bc 42 9e 7d 3c
       -0.01806481 -0.034888472 -0.030516833 0.015479626
000240 f4 e4 c2 bb 20 dc ac bc 9a d5 06 3c 1b aa c8 3b
       -0.0059477035 -0.021101058 0.0082296375 0.006123794
000250 a5 c1 cd 3c 17 77 3d bb 54 3f 21 3c 15 75 98 bc
       0.025116751 -0.0028910094 0.009841759 -0.018610517
000260 f3 36 29 bd 30 67 05 bd 1e dd 96 3c 3b 92 12 3c
       -0.04131217 -0.03256911 0.018415984 0.008945997
000270 08 ca 1b 3b e0 72 9c 3c a7 9d a3 bc aa 31 6d bc
       0.0023771543 0.019097745 -0.019972635 -0.014477173
000280 1f 9a 10 bd dd a6 e2 3c cd 1e 99 bc 05 83 c6 3c
       -0.03530323 0.027667457 -0.018691445 0.024232397
000290 60 ba 31 3c 4d ef f9 3b 94 ab 38 bc 7a ff 82 bc
       0.010847658 0.007627404 -0.011271376 -0.015990961
0002a0 d9 b1 2d 3c cc 4a 1a bc 88 2f d1 bb 92 50 94 3c
       0.010601484 -0.009417247 -0.00638384 0.018104825
0002b0 64 b5 da bb 69 cf 0a 3c 95 84 d5 bc eb c1 89 bc
       -0.0066744555 0.008472302 -0.026064197 -0.0168161
0002c0 47 24 ce 3c 35 4d ca bc 78 52 7f 3c 67 88 58 bc
       0.025163783 -0.024695018 0.015583627 -0.013216115
0002d0 56 8d 02 3c 02 44 8f bb f9 34 8b 3c 11 19 85 bc
       0.007968267 -0.004372121 0.016993033 -0.016247304
0002e0 5e 6e 06 bd 90 3f 8a 3a 4e 2e 59 bc 30 14 bb 3c
       -0.032820098 0.0010547508 -0.013255669 0.022836775
0002f0 29 fc c8 bc 45 b3 25 bd ae fa e3 bc 23 0f b7 bc
       -0.024534302 -0.040454168 -0.027829494 -0.022346085
000300 1b 83 4d bc 9a bd 42 bb a1 6b 02 bd 9a c6 0b bd
       -0.012543465 -0.0029715062 -0.031840924 -0.034124948
000310 de 48 b6 3c 91 55 bc 3c bb 8d 14 bc f6 83 8b 3c
       0.022251543 0.02299002 -0.009066994 0.017030697
000320 49 70 b2 bc 9d d6 26 bd 03 ae 82 bc 79 31 4d bc
       -0.021782057 -0.040732015 -0.015952116 -0.012524002
000330 16 35 0a bd e1 16 da bb 16 48 b9 3c 12 9b d7 bc
       -0.033742033 -0.0066555594 0.022617381 -0.02631906
000340 ee e4 26 bd 1f 01 8b bb 28 2c c5 3b 6a 21 28 bc
       -0.040745668 -0.004242077 0.0060172267 -0.010261873
000350 de 81 e3 3b 14 f0 93 3c e7 8e c9 bc ac bd af 3c
       0.0069429716 0.018058814 -0.024604274 0.021452747
000360 d6 4f c3 3a 82 82 32 3c 1c 2b 16 bd 0d 07 8c bc
       0.0014901112 0.010895373 -0.036662206 -0.017093206
000370 6f 89 f5 3b 0a 68 32 3c a2 46 a3 bc ef 3b 15 bc
       0.00749319 0.010889063 -0.019931141 -0.009108528
000380 65 80 2b bd ec b1 b4 3b f4 e2 06 bd 8b 1f b6 bc
       -0.041870493 0.005514374 -0.032931283 -0.022231838
000390 f4 cb 53 3b ac ac 3f bd fd cd 81 bc 37 cb d2 3b
       0.003231761 -0.046795532 -0.015845293 0.0064329165
0003a0 47 2f 70 3c df 1d 90 bc 1a 7a 1c bd 80 51 1f bd
       0.014659709 -0.017592369 -0.038202383 -0.038896084
0003b0 28 d7 cd bb c0 b4 48 bd a6 fb 5a 3c f7 d8 4c bc
       -0.006281752 -0.0490005 0.013365662 -0.0125029
0003c0 53 cf 07 bd f5 96 0f bd 12 10 cc bc 3f a9 98 bc
       -0.033156704 -0.035056073 -0.024910007 -0.01863539
0003d0 c6 c6 71 3b 88 9f c4 bb f3 25 d3 3c 99 d4 d6 bc
       0.003689216 -0.006000463 0.025774932 -0.026224421
0003e0 00 4e 84 3c e9 7b 06 bd 64 8a c4 3c ca 36 01 bd
       0.016150475 -0.032833014 0.023991771 -0.03154639
0003f0 86 d3 9e bb 04 55 29 bd f4 6f b4 3c 62 d1 42 3c
       -0.004846993 -0.041340843 0.02202604 0.011890741

fc1.bias f4 [120]
000000 1e c6 19 bd 9c 77 6b 3c 0a d8 75 bc 73 f9 cb 3c
       -0.037542455 0.014371779 -0.015005121 0.02489922
000010 89 8d 0f bd b4 de 11 bd 56 88 94 bc 93 db 46 bd
       -0.035047088 -0.035612777 -0.018131416 -0.048549246
000020 d4 95 96 3d 76 00 a6 bc ad 77 b7 bb 3c 8b bb 3c
       0.07352796 -0.020263892 -0.0055989833 0.02289354
000030 11 2d 95 3b ed 50 45 bc b6 45 ec 3b 5e e0 55 bd
       0.0045524915 -0.01204322 0.0072104586 -0.052215926
000040 96 ca 25 3d 5f 75 eb bb 8e 32 0d 3d 5d 3a 4e bc
       0.040476404 -0.0071856226 0.03447204 -0.012587157
000050 4f 69 cf 3c 39 7b 00 bd f0 57 12 bd 25 2a c4 bd
       0.02531877 -0.031367514 -0.035728395 -0.09578351
000060 f7 07 3b 3c 7e 34 c3 3c 24 c9 df bc d7 a3 ee bc
       0.011415473 0.023828741 -0.027317591 -0.02913086
000070 d6 5f c0 bb 2c 2e f6 bb a4 ce 0c bd 63 89 83 bc
       -0.0058707995 -0.0075128283 -0.034376755 -0.016056722
000080 49 ea ff 39 41 80 94 bd 5a 91 95 3a de 24 91 bc
       0.00048811946 -0.07251025 0.0011411116 -0.017717775
000090 94 f5 08 3d c3 79 7a bc 28 70 22 3d aa 25 8e bc
       0.033437327 -0.015287819 0.03965774 -0.017351944
0000a0 45 f9 bf bd 85 6e 6d 3d f0 c5 f9 3c 4e 61 3d bc
       -0.09373716 0.057966728 0.030489892 -0.011558844
0000b0 f5 e9 48 bd 27 c9 ec 3c 52 09 b7 bc 24 5f 88 bd
       -0.049051244 0.02890451 -0.022343311 -0.06658772
0000c0 70 b1 1b bd 1e 0c d2 bc 70 ba cb bb 6c d2 a7 3b
       -0.038011014 -0.025640544 -0.0062172934 0.00512152
0000d0 d1 9f 95 bd 3d 12 b5 bc a7 c6 57 bd c8 91 7d 39
       -0.07305873 -0.022103423 -0.052679684 0.00024182268
0000e0 07 25 0a bd 48 5e 8e 3c e6 30 03 bd 2c f1 a2 bc
       -0.03372672 0.017378941 -0.032029055 -0.01989039
0000f0 3a e0 19 3c c7 03 59 bc a8 53 b1 3c 99 43 85 bb
       0.009391839 -0.0132455295 0.021646336 -0.004066896
000100 0c da 76 3d 68 f8 9e 3c 92 7c 23 3c 76 3b 6a bc
       0.06026654 0.019405559 0.00997843 -0.014296403
000110 ad 5d c7 bc 3b 5d 04 bd 7c 57 92 bd 06 4b fb 3b
       -0.02433666 -0.032315474 -0.071455926 0.0076688556
000120 92 a5 c7 3b be 1d 44 3d f4 b1 f2 bc 0b d5 94 3b
       0.0060927356 0.047879927 -0.02962587 0.0045419983
000130 04 87 25 bd 58 ea c8 3c 97 8c 4b 3d 59 65 da bc
       -0.040411964 0.024525806 0.049694624 -0.026659654
000140 27 9e 82 3d 59 b7 99 bc 49 b5 cc bd bd 63 37 3d
       0.063778214 -0.018764185 -0.09995515 0.044772852
000150 59 93 96 3c 85 54 45 bd a6 13 fb bc 82 cb a6 bc
       0.018380808 -0.048176307 -0.030649018 -0.020360712
000160 af 44 a8 bb b5 8a ce 3b cb 74 4c 3c 66 1d 1d bb
       -0.005135141 0.0063031563 0.0124790175 -0.0023973822
000170 b0 42 1d ba 9d 24 e9 bd b1 3a 09 3d 13 41 e0 bb
       -0.0005999012 -0.113839366 0.033503238 -0.006843695
000180 ee 8a 90 bc bc a9 2f bd 81 4a fd bc 55 b7 8e 3c
       -0.017644372 -0.04288648 -0.030919315 0.017421404
000190 76 a1 03 bc 57 e0 8f bd e4 9a a5 bc d2 4f 33 bc
       -0.008034101 -0.07025211 -0.02021546 -0.010944324
0001a0 22 51 47 3d 85 64 fc 3c cd ca d1 bd e7 87 1d bc
       0.04866136 0.03080965 -0.10243759 -0.009614921
0001b0 e3 cd 73 bc e3 bb cc b9 f8 80 b1 3c 49 88 ef bb
       -0.01488063 -0.000390499 0.021667942 -0.0073099476
0001c0 bb ef bf 3b 70 63 5d 3c b7 e5 6b bc fb ec 43 bd
       0.0058574355 0.013512477 -0.01439803 -0.047833424
0001d0 39 7f db bc 53 6d 7d 3d 84 b8 a8 3c d0 99 18 bd
       -0.026794063 0.061871838 0.020595796 -0.037256062

fc2.weight f4 [84, 120]
000000 e4 3e 74 bd 85 53 44 bd 59 cd 7d bb f9 2f 21 bd
       -0.05963029 -0.047931213 -0.0038727133 -0.03935239
000010 e8 b2 8e 3d 57 64 00 bd 90 4f da bd 56 cf 48 bb
       0.069677174 -0.03134569 -0.106597066 -0.003064116
000020 2d 53 63 bd 10 42 20 bd 86 a9 5f bd a4 56 92 3d
       -0.055499244 -0.039125502 -0.05460503 0.07145432
000030 16 1c 00 3d 2a d4 ba bc 59 d8 34 bd cd 4a 23 bd
       0.031276785 -0.022806246 -0.044151638 -0.039866257
000040 bf 25 8f be 23 ff 03 3e ce a4 ac bd d2 33 79 3d
       -0.27958485 0.12890296 -0.084298715 0.060840435
000050 c8 70 98 bc b7 03 93 3d 98 c4 c1 3d e0 05 a0 bd
       -0.018608466 0.07178443 0.094613254 -0.078136206
000060 b3 77 2a bd 26 9c 95 3d 00 2f e6 bb 73 5b c3 3d
       -0.04161806 0.073051736 -0.007024646 0.09538927
000070 b3 fb ad 3b 80 94 66 be e7 b3 70 bb d0 b9 a1 bd
       0.005309546 -0.22517586 -0.0036728324 -0.07896769
000080 de d9 14 bd 41 19 5f 3c 5f 85 99 3d 1c 16 1a be
       -0.036340587 0.013616861 0.07496142 -0.15047497
000090 85 b1 81 bc 2c c8 e1 bb 61 93 64 bd 9c b5 d8 3d
       -0.015831718 -0.0068903174 -0.055804614 0.10581514
0000a0 5c 47 2c bc 56 ea c2 bd fb 5b 67 bc 06 70 dd bc
       -0.01051506 -0.09517352 -0.014121051 -0.027030956
0000b0 4b 1a a3 bc a1 07 a9 3b 1f 86 84 3d 76 20 60 bd
       -0.019909998 0.00515838 0.06470894 -0.054718457
0000c0 33 df b5 3d 70 11 81 3b d1 43 5e 3d 38 61 d7 bd
       0.088804625 0.0039388463 0.054263894 -0.1051659
0000d0 61 49 fb bb b0 d5 8e 3b d5 4e 00 3d af 5b 8e bd
       -0.0076686596 0.0043589696 0.03132518 -0.06951081
0000e0 ad da 06 3d 87 00 7b bd 56 5c a1 bb a8 87 9a 3d
       0.03292339 -0.0612798 -0.0049243374 0.075454056
0000f0 6d fb 07 3d c6 48 5a bc f0 dd dc 3d a7 c8 19 3d
       0.033198763 -0.013323015 0.10784519 0.037544873
000100 6e fe d8 3b 97 b9 47 bc f8 d5 3c bd c8 99 2c bc
       0.0066221273 -0.012190244 -0.046102494 -0.010534711
000110 6e 40 43 3d 20 a3 24 bb 43 f4 9a 3b f3 8f 14 bd
       0.047668867 -0.0025121644 0.0047288253 -0.036270093
000120 87 12 98 bd ce aa ee 3c 43 04 a3 bd 69 cd 78 3d
       -0.07425409 0.02913418 -0.07959797 0.06074277
000130 e4 0d 47 3d 12 0a 06 3e 59 26 a8 bc 38 95 a3 bd
       0.04859723 0.13089779 -0.020526098 -0.079874456
000140 78 8a a1 bd 44 21 60 bd f1 cb 47 bb 5d 22 63 3b
       -0.07887739 -0.054719225 -0.0030486549 0.0034657933
000150 07 d6 8d bd 08 3c 0e 3d 93 bd a9 3c 75 7d 47 3d
       -0.06925588 0.03472522 0.020720279 0.04870363
000160 96 98 3b 3d dc 3e 80 3b 48 4b 9d bc 06 a9 60 3e
       0.045799814 0.0039137434 -0.019200936 0.21939477
000170 f0 39 d5 3c 52 56 1b bd da e5 9d bd b3 3a d2 bd
       0.026028603 -0.03792412 -0.07709856 -0.10265102
000180 60 a8 12 3d a5 66 03 3b ff dc 17 3e 24 6d f0 3d
       0.035805106 0.0020050195 0.14830397 0.11739567
000190 32 e9 57 bd b2 02 bd 3d 15 3b 99 3d f0 7f eb 3c
       -0.052712627 0.0922903 0.07481972 0.028747529
0001a0 26 8b ad 3b de 4a c5 bc a4 ee 24 bc 2c f4 87 bd
       0.005296129 -0.024083551 -0.010066662 -0.06638369
0001b0 a1 25 90 bd d6 9f cb 3c c9 7e 34 3d c0 a3 22 3e
       -0.07038427 0.02485649 0.044066224 0.15882778
0001c0 81 e0 f3 bc 4f e5 03 be 9b 67 61 3e 58 bf 87 3c
       -0.029770138 -0.12880443 0.22012179 0.016570732
0001d0 cd 5e 4c 3d 2e a6 f3 bd 5d 3d 13 3d 5d ce b0 3d
       0.049895097 -0.11896931 0.035947192 0.08633111
0001e0 8e cf 07 bd 03 1f 64 3d d6 d3 28 bd 47 15 b9 bd
       -0.033156924 0.055693638 -0.041217647 -0.090372615
0001f0 dc 08 c3 3d ff cc 43 3d e2 29 e7 3b 31 72 e7 3c
       0.09523174 0.04780292 0.0070545534 0.028252693
000200 af 42 0f be 15 bf b1 3d 9b b3 a0 bd b0 34 e3 3d
       -0.13990282 0.08679024 -0.07846757 0.11094034
000210 27 b0 2a bd e5 9b bc bb 62 4c 45 bd 4e 67 74 bd
       -0.0416719 -0.0057558888 -0.048168547 -0.05966883
000220 56 93 ee bc 5f 77 98 3d 8c 5c 98 3c b8 57 78 3d
       -0.02912299 0.07444643 0.018598817 0.06063053
000230 09 d8 a5 bd a2 48 05 bc b9 25 0c bd cf d4 3a 3d
       -0.08097846 -0.008134993 -0.034215663 0.045613106
000240 cd e1 97 bd 9d 97 00 3e 4e e6 9c 3b 80 14 df 3c
       -0.07416115 0.12557836 0.0047881966 0.027231455
000250 44 40 51 3d 3b 64 4a 3e 96 cd a2 3d e1 29 8a bd
       0.05108668 0.19764797 0.07949369 -0.06746269
000260 d1 c7 81 bb 00 45 e7 3c 10 53 93 bd 38 6d 95 3c
       -0.0039605875 0.028231144 -0.07193577 0.018240556
000270 f3 10 1b 3c bc 15 5d bd fe 4c 89 bb af bd 55 bd
       0.00946449 -0.053975806 -0.0041900864 -0.05218285
000280 df 08 ee bb fd 93 4b 3e 8a fe d9 bb 2a 58 72 bd
       -0.007264241 0.19880672 -0.006652658 -0.05916611
000290 d1 6d 23 3c 8b f7 19 bd 85 cc 08 3e b9 a3 2b bc
       0.009974913 -0.03758959 0.13359268 -0.010476046
0002a0 73 13 98 bd 7b 9a 0c 3d 67 83 83 3d c4 1a 47 3d
       -0.07425585 0.03432701 0.064215474 0.04860951
0002b0 17 b5 3a 3c 42 f9 98 bd b6 52 21 bd 5d 35 b2 3d
       0.011395714 -0.07469417 -0.03938552 0.087015845
0002c0 d1 af 9e 3d 67 da 57 3c 84 e7 0e 3d da a1 ab bd
       0.07748378 0.01317463 0.03488876 -0.0838048
0002d0 11 6c 76 bc 81 a3 af 3d bd 17 e7 3d ad bf 66 bc
       -0.0150404135 0.08576108 0.112838246 -0.014083785
0002e0 d3 4e 8a 3d 86 83 9a bd 36 35 46 3e 76 64 8d 3d
       0.06753316 -0.07544617 0.19356236 0.06903927
0002f0 ca 37 3e bd 8a 38 0b 3c 4b db 25 bd d8 68 d0 bd
       -0.046439923 0.008497367 -0.040492337 -0.10176247
000300 c7 b7 a4 bd 10 a6 a2 bd 12 04 ab 3d 18 46 56 bd
       -0.08042865 -0.0794183 0.08350386 -0.05231294
000310 9e 36 25 bd 88 c3 24 be a0 9e 74 3c 05 9b de bc
       -0.04033529 -0.16090214 0.014930397 -0.027173528
000320 1c 29 9b 3d 0a 85 a8 bd c0 1f 81 3d c9 29 95 bc
       0.075762 -0.082285 0.06304884 -0.018208401
000330 32 eb ad bd fb 44 53 3d 7e df a6 3d fd cc 22 3d
       -0.084921256 0.051579457 0.081480965 0.039746273
000340 e2 b7 71 3d af 61 99 bd 41 95 90 3d a9 08 e3 3c
       0.059013255 -0.07489335 0.07059718 0.02771409
000350 37 56 34 bd 07 11 3a bd 7e f8 2f bd d0 72 ea 39
       -0.044027533 -0.045426395 -0.04296159 0.000447175
000360 e4 6f 24 3d ee e8 04 bc b5 45 ef bd 89 74 52 be
       0.04014577 -0.008112175 -0.116832174 -0.20552267
000370 f2 8a 94 bd 15 c6 ac 3b 54 6c ce 3d 0b f4 f9 3c
       -0.07253064 0.0052726367 0.10079256 0.030511877
000380 d2 da c7 bd 92 bf 55 bd fb ec 88 3d 8f ac 99 3c
       -0.097585335 -0.05218465 0.066858254 0.01875904
000390 31 81 73 bd 7a bd 42 3b bc 68 2c bd 39 08 19 bd
       -0.05944938 0.0029714988 -0.04209207 -0.037361357
0003a0 7f c9 5d 3c 5a 6d 3a bc 0f e0 0d 3e 8c ef 9c bd
       0.01353681 -0.0113786105 0.13855003 -0.076628774
0003b0 92 e3 e4 3c 2f 8d 85 bd 36 34 8d bd 46 8f 65 bd
       0.027940545 -0.06521069 -0.06894724 -0.05604484
0003c0 a3 81 96 bd 72 fa 94 3b d3 79 11 bd 5e 36 b1 3d
       -0.07348945 0.004546457 -0.03551657 0.08652948
0003d0 2b 4e 95 3d b6 28 7c 3d 8f cb b4 3d 2a e6 92 3d
       0.072903 0.061562262 0.08827888 0.071728066
0003e0 1f 4c 71 bd 97 52 8f 3d 00 ba f6 ba f1 09 15 3d
       -0.058910485 0.06998175 -0.0018823743 0.036386434
0003f0 e1 42 c5 bb c4 a5 03 be 82 02 94 bd 35 69 b7 3c
       -0.0060199355 -0.12856203 -0.07227041 0.022389034

fc2.bias f4 [84]
000000 e0 67 e5 ba 1e 55 c1 3d 19 f3 5b bb 46 aa 9a 3d
       -0.0017502271 0.09440063 -0.0033561646 0.07552008
000010 be 08 a3 bd 22 e7 80 bb f6 39 ca bd f7 6c 88 3d
       -0.07960652 -0.003933803 -0.098743364 0.066614084
000020 39 65 f7 3d 84 b7 fe bd 60 e5 e5 bc 84 a9 d1 bc
       0.120798536 -0.124373466 -0.028063476 -0.025593527
000030 14 56 bc bc c2 a6 20 3c 46 97 4d bd 4e bc 88 3d
       -0.022990264 0.009805383 -0.050193094 0.06676541
000040 a9 cf 97 3d 85 64 24 bd 11 57 cd bc 05 63 90 3d
       0.07412655 -0.040134925 -0.02506593 0.070501365
000050 17 f6 b5 3b f9 bc 08 bd fa a7 86 3d 3a ae 9d bd
       0.005553018 -0.033383343 0.06575008 -0.07699247
000060 ab bd cc bc ba 86 e0 3d 0e 02 e3 bb 5d cb d7 bd
       -0.024992784 0.10963197 -0.006927735 -0.10536835
000070 cf 1a 1f 3d 96 e3 54 ba ca 28 bb 3b 2e ec 48 bc
       0.038843926 -0.0008121071 0.0057116495 -0.012263341
000080 cd 0a f4 bc 7b f7 c1 3c 07 2e a2 bd 58 1f a8 ba
       -0.029790306 0.023677578 -0.07918935 -0.0012826724
000090 b8 a2 80 bd bf 88 cd 3d 40 7d f1 bd 11 58 9a 3d
       -0.06281036 0.10035848 -0.11791468 0.075363286
0000a0 42 7b 36 bc 0c 54 1d bd 11 f1 f3 bd 54 56 4b bd
       -0.011137785 -0.03841023 -0.11911214 -0.049642876
0000b0 71 b2 e6 bc f9 01 07 3d 0f 0a 20 bd f9 dc 51 3d
       -0.02816126 0.032960866 -0.039072093 0.051236127
0000c0 ce 70 c5 bb 7d 9e 7d bc 2c 82 24 3d 7f 58 d7 bd
       -0.0060254103 -0.015479681 0.040163204 -0.10514926
0000d0 49 b2 0a 3d a7 5a 51 3c 97 4a 90 3d 9a 34 a4 bd
       0.033861432 0.012777961 0.07045477 -0.080178455
0000e0 f5 3b e0 bd a3 9a 11 3e 9c 8f d0 3b 96 46 4e bd
       -0.10948936 0.14219145 0.006364776 -0.050360285
0000f0 97 a3 f7 3c c7 6d 3d 3d 13 a0 ab bc ee b4 04 3e
       0.030229373 0.04624727 -0.020950353 0.12959644
000100 36 a6 9a 3c 4a f2 93 bd 7e 06 85 3d 05 49 3c 3d
       0.018878084 -0.07223947 0.06495379 0.045968074
000110 15 98 ab bd 0e 94 8c 3d 15 b3 b4 bd 46 5b b4 3d
       -0.08378617 0.06864177 -0.0882322 0.088064715
000120 57 22 b3 3d 00 9d d2 bd a2 9d 83 bb 59 30 e8 bc
       0.08746784 -0.102838516 -0.004016594 -0.028343366
000130 2d f0 a2 bb 73 84 9c bd a6 b3 c6 bd 9e cc c7 3d
       -0.004972479 -0.0764245 -0.09702234 0.097558245
000140 c6 b8 23 bc 8d f3 c8 bc f0 f1 ae 3d e3 0c 74 bd
       -0.009992784 -0.024530197 0.0854224 -0.059582602

fc3.weight f4 [10, 84]
000000 31 4f b1 bd 83 a2 ef bc 94 63 2a be 20 ab 02 be
       -0.08657683 -0.029252296 -0.16639549 -0.12760592
000010 f5 e9 3f bd ba 1d ea 3b 4e 07 45 bd df b0 b5 bd
       -0.04685398 0.007144657 -0.04810267 -0.08871626
000020 84 84 b4 bd 39 87 26 be d4 12 1b bc 91 e8 02 be
       -0.08814338 -0.16262521 -0.009464938 -0.1278403
000030 09 b6 49 be 23 23 db 3d a0 59 c5 bd 11 c3 3a be
       -0.19698347 0.10700061 -0.09636235 -0.18238474
000040 d1 10 2d be 54 95 32 bd 42 ac 06 be cc 62 09 bc
       -0.16900946 -0.04359944 -0.13151649 -0.008385371
000050 55 f0 a2 bc 7e 18 7f bd 4d f7 e8 3d 21 56 84 3c
       -0.01988999 -0.062279217 0.11375294 0.01615435
000060 b4 d2 f4 3c 84 1c 04 be df f4 02 be 81 1f 0c be
       0.029885627 -0.12901503 -0.12788723 -0.13683893
000070 27 03 28 3b a5 a2 eb bc 31 d5 d5 bc bb b1 19 3e
       0.0025636645 -0.028764078 -0.026102634 0.15009205
000080 29 2b 3e bd 20 b7 df bd 32 91 d9 be 0e 0b ea bd
       -0.04642788 -0.109236 -0.42493588 -0.1142789
000090 7a 43 6d be f1 e7 1e be f9 70 b9 3d 5c 16 fd bd
       -0.23170272 -0.15518166 0.09054751 -0.1235778
0000a0 ed 8a 18 bd 9f ee 12 3e aa 03 db bd 5f 0d 66 be
       -0.037241865 0.14348839 -0.10694058 -0.22466038
0000b0 2a b5 ad be e4 f1 3b be ae 41 26 be d6 70 c2 3d
       -0.3392728 -0.18353993 -0.16235992 0.09494178
0000c0 71 ba 18 be f2 68 82 3d b6 0f 87 bd 9e df 21 bc
       -0.14914872 0.06367673 -0.065947935 -0.009879975
0000d0 a7 7b 3a be 87 dc 84 3d 23 d5 4e bd 04 2e dd 3c
       -0.18211232 0.06487375 -0.05049623 0.026999481
0000e0 1e 4c 3a 3d bf 55 b0 3d 7d 2f 28 3d 50 38 c9 3d
       0.045482747 0.08610105 0.041060913 0.09825194
0000f0 5c cf 0b be 9f 89 ac bc 2d a0 24 be d6 be 80 3d
       -0.1365332 -0.021061717 -0.16076727 0.06286399
000100 1a f2 04 3e 41 97 1c 3d 7e 95 41 3d 24 4d 0d bd
       0.1298298 0.038230184 0.047261707 -0.034497395
000110 f9 a3 1c 3e bd d8 02 bc d2 dc e9 bd 09 ab 02 3d
       0.15296926 -0.007986245 -0.11419071 0.031901393
000120 99 16 01 be e2 9c 90 bd 6e b0 9a 3d 81 0b 00 be
       -0.12606277 -0.07061173 0.075531825 -0.12504388
000130 a5 a8 65 bd a5 4d 2e 3e ce ad 9c bd 22 37 26 be
       -0.056069035 0.17021807 -0.07650338 -0.16231969
000140 ad 03 d0 3d 28 4a 7c 3c 2c a8 bb 3d b5 5c 5a 3d
       0.10156951 0.01539854 0.091629356 0.05331107
000150 c7 b2 c5 bd b3 cc 19 3c 79 e1 94 bd db 81 9e 3d
       -0.0965324 0.009387183 -0.07269568 0.07739612
000160 79 42 52 3d b0 3a fa bd df cf 8d be 9d 76 41 be
       0.051332925 -0.12218225 -0.27697656 -0.18892904
000170 c2 95 8a bd 17 57 28 be eb e2 53 3d 0a 4f 0b be
       -0.06766845 -0.16439472 0.051730078 -0.1360437
000180 bd 9f 2c be 4e 42 10 be 21 bc 8c bd d5 a2 9b 3d
       -0.1685781 -0.14087793 -0.0687182 0.07599417
000190 56 a2 10 3c 78 2c 98 3d 28 53 2b be c0 1b da bc
       0.008827766 0.07430357 -0.1673094 -0.02662456
0001a0 88 ed 49 bd dc 89 6c 3d 4e b2 46 be e6 09 0a be
       -0.049298793 0.05774866 -0.19403955 -0.13480338
0001b0 1b eb 32 be c2 b5 ce 3c e9 e6 07 3e 7d 94 6d be
       -0.17472498 0.025233153 0.13271679 -0.23201175
0001c0 8e 4e 8e be 51 47 04 bd 5a ce 9a 3d 18 e2 1e bc
       -0.27794307 -0.032294575 0.0755889 -0.00969746
0001d0 8f 0a 72 3c 40 4e d7 bd fc c4 9d be 88 ca c2 3d
       0.014773025 -0.10512972 -0.3081435 0.09511286
0001e0 28 62 ef bd a9 be 02 3e 84 97 49 bd 8e 18 dd bd
       -0.11688644 0.12768044 -0.049216762 -0.10795699
0001f0 18 b5 c1 bd e0 44 d7 3c b4 2f d9 bd 84 d2 f2 3c
       -0.09458369 0.02627796 -0.10604802 0.029641397
000200 26 17 d8 3c 1c 0c ea bd 58 81 d7 3d 71 c6 cd bc
       0.026378226 -0.11428091 0.10522717 -0.025119038
000210 92 02 dd bd f3 72 68 bc 1f e0 fe 3b 9c c4 e9 3c
       -0.10791506 -0.014187562 0.007778182 0.028536133
000220 23 8f 68 be e5 e0 54 be ea 77 3b be 30 5c b2 3c
       -0.22710852 -0.20788915 -0.18307462 0.021772474
000230 3a f1 fd bc dd a4 e4 bd f6 20 41 be 44 cb b9 bb
       -0.030998815 -0.11164258 -0.1886023 -0.005669983
000240 10 31 4a bd 6c 6a cb 3c fb 47 52 3d b2 d2 a8 3d
       -0.049363196 0.02483102 0.051338177 0.08243312
000250 0f 40 62 bd a5 48 b1 bd fe 53 d7 3d 28 23 66 be
       -0.055236872 -0.08656434 0.10514067 -0.22474349
000260 60 ff 11 3c 0e 7c 19 3e d4 15 e0 bd b3 c8 bb 3d
       0.008910984 0.1498873 -0.109416634 0.0916914
000270 19 f4 17 3d cd 92 ae 3d a2 3e e7 bc d4 3d dc 3d
       0.037098024 0.08524094 -0.028228108 0.1075398
000280 89 6d 94 3d 89 c6 b1 3d 82 48 f3 bd ac 92 9c 3d
       0.07247455 0.08680446 -0.11879064 0.07645163
000290 d9 f0 e8 bd 44 01 88 3d 7f c9 6a be b8 47 bc 3d
       -0.11374063 0.066408664 -0.22928427 0.09193367
0002a0 6f bc 82 be 22 3c 3b 3d 1c cf ff bd fb 54 70 bd
       -0.25534388 0.045711644 -0.12490675 -0.058674794
0002b0 05 71 b4 bd 3c 49 dd 3d b2 e6 fe bd 08 57 05 bd
       -0.08810619 0.10804984 -0.124463454 -0.032553703
0002c0 3f 00 bf 3c d1 32 f7 3c 69 9a a6 bc c7 93 b4 3c
       0.023315547 0.030175598 -0.0203373 0.022043122
0002d0 f0 cb fb 3c 50 56 e4 3d 24 24 b8 3b 2e 39 76 3d
       0.030736893 0.11149275 0.0056195427 0.060113125
0002e0 c7 7b 2b be 99 97 c9 bd 97 7a 18 3e 1c cd 3f bd
       -0.16746436 -0.09843368 0.14890514 -0.046826467
0002f0 fa 86 76 3c 0d dc a1 bd 9d 91 bf 3c b3 1f 70 bd
       0.015046829 -0.079032995 0.023384864 -0.05862398
000300 4b 88 08 be eb 04 a7 3d b5 12 e6 3d e1 29 c7 bd
       -0.13333242 0.08155235 0.11234037 -0.09724785
000310 2a d4 b0 bd 33 32 01 3d f3 bf 92 3d cd 37 30 be
       -0.08634217 0.031542014 0.07165518 -0.17208786
000320 f9 d6 70 bd 3a 78 ee 3c e8 8a ab bd 8c ca df bd
       -0.058798764 0.029110063 -0.08376104 -0.109273046
000330 6c 1d e4 bd 10 90 4e bc 15 19 a1 3c 71 43 67 3d
       -0.11138424 -0.012607589 0.01966528 0.0564608
000340 ec af c1 bc 0d e9 02 be 60 86 0a be 79 0b ad bd
       -0.023643456 -0.12784214 -0.13527822 -0.08449454
000350 fb bc 72 3d c1 46 c9 bd b2 c5 26 be 5f 23 d8 3c
       0.059262257 -0.09827948 -0.16286352 0.026384054
000360 85 f4 55 3c d4 28 02 be 65 29 ee 3d 8c 9c 94 3c
       0.013058786 -0.12710887 0.11628989 0.018141054
000370 49 43 24 3d f4 e1 59 be 36 37 df bd 31 b1 06 3d
       0.04010323 -0.212776 -0.108992025 0.032883827
000380 78 e7 99 3d 4c 38 82 bd 9e ab c3 bd ba 7e a8 bd
       0.07514852 -0.06358394 -0.09554218 -0.08227296
000390 72 79 df 3c 45 d6 91 bc 25 30 0d be 80 68 f4 bd
       0.02727959 -0.017802367 -0.13787897 -0.11933994
0003a0 24 7f 14 3d d4 85 d9 3d 9e 41 fa 3d 9f 63 6e 3d
       0.036254063 0.10621229 0.12219547 0.058200475
0003b0 5d 08 63 bd 34 c4 5b 3b e8 2c 37 bd 7d 8d df bb
       -0.055427898 0.0033533694 -0.04472056 -0.0068222866
0003c0 54 0e b7 bd 41 06 89 bd 39 f4 05 bd 64 ec 1c 3d
       -0.0893828 -0.06690646 -0.032703612 0.038311377
0003d0 e8 2f 8a 3d 9c 39 97 3d b0 3f b8 bd 07 54 fd bd
       0.06747419 0.07384035 -0.089965224 -0.123695426
0003e0 29 75 cd 3d 56 5d e0 bd b1 8c 82 3d 23 ec c8 bc
       0.10032112 -0.109553024 0.06374491 -0.024526661
0003f0 98 a1 37 3d 1c 2c 09 3e 8d 38 04 bd c6 bd be bd
       0.044831842 0.13395733 -0.032280494 -0.0931354

fc3.bias f4 [10]
000000 08 28 1d b8 89 9d fd 3d 5e 7d 8b 3d 33 ab ef bc
       -3.7469e-05 0.12383563 0.06811021 -0.029256439
000010 af 61 67 bc 02 8d 73 bb 70 9d e7 3b 22 58 b8 bd
       -0.014122411 -0.0037162905 0.0070683286 -0.09001185
000020 1c 12 28 3d 54 bc 72 bc
       0.041032895 -0.014815409
