models/cnn_checkpoint.pth (torch, 451995 bytes, 10 tensors)

conv1.weight f4 [16, 1, 5, 5]
0	0xbb0bc7ce	-0.002132881
1	0xbe0b6a5f	-0.13614796
2	0x3dd6d2c6	0.104894206
3	0x3e15d707	0.14632808
4	0xbe8e4c5d	-0.27792636
5	0x3db0ae1d	0.086269595
6	0x3da9669a	0.08271523
7	0x3e509caf	0.2037227
8	0xbdd7357a	-0.10508247
9	0xbec6594a	-0.38739997
10	0x3c117dc8	0.008880086
11	0x3e8df546	0.2772619
12	0x3deaf4a4	0.11472443
13	0xbeb4259b	-0.3518494
14	0xbe4b8bc2	-0.19877532
15	0x3c6c2c74	0.014414895
16	0x3e5470b4	0.20746118
17	0xbd033e44	-0.032041803
18	0x3d1cccfa	0.03828142
19	0x3e10aab9	0.14127626
20	0x3aa4a217	0.0012560514
21	0x3dd81618	0.10551089
22	0x3d2bd774	0.04195352
23	0x3e4cad7f	0.19988059
24	0xbd9179ed	-0.071033336
25	0xbd8185fb	-0.06324383
26	0xbe71b1c5	-0.2360297
27	0xbe5ec2a3	-0.21753936
28	0xbd8e4ead	-0.069486
29	0x3e439e57	0.1910337
30	0xbe827d6e	-0.2548632
31	0xbdbea81c	-0.09309408
32	0xbe8568b2	-0.2605644
33	0xbd0f2772	-0.034949727
34	0xb9b6521d	-0.00034774924
35	0xbe32ac4c	-0.17448539
36	0xbe6efaf7	-0.23337923
37	0xbe5bb124	-0.21454293
38	0xbd01bf1e	-0.031676404
39	0x3e417406	0.18891916
40	0xbeb3e0d3	-0.35132465
41	0x3d352fb9	0.044234965
42	0x3d4e7e97	0.050413694
43	0x3e19fb13	0.15037183
44	0xbd7e2b76	-0.062053166
45	0xbe10f703	-0.14156727
46	0x3e3fbf1b	0.18725245
47	0xbe11544e	-0.14192316
48	0x3e62fdeb	0.22167175
49	0xbd2210e8	-0.039566904
50	0x3e5b65e1	0.21425582
51	0xbdab84dc	-0.0837495
52	0xbd1d84fd	-0.038456906
53	0xbe37e56e	-0.17958614
54	0x3db95d21	0.09050966
55	0x3d0db11d	0.034592737
56	0x3d3203c8	0.043460637
57	0x3e80b9b3	0.25141677
58	0x3d9cd480	0.07657719
59	0xbe34cb90	-0.17655778
60	0xbd89e945	-0.06733946
61	0xbe09c450	-0.13453794
62	0xbe425c1e	-0.18980452
63	0x3e44c7c2	0.19216827
64	0x3dd3bdfd	0.10338972
65	0x3d905431	0.07047308
66	0xbe641448	-0.22273362
67	0xbe1490bc	-0.14508337
68	0x3deff0f8	0.11715883
69	0x3e0821c3	0.13294129
70	0xbea921dd	-0.33033648
71	0xbd0a122f	-0.033708747
72	0xbe36c251	-0.17847563
73	0xbde336e4	-0.11094454
74	0x3e540b06	0.2070733
75	0xbd2c4710	-0.042059958
76	0xbee97cfc	-0.45603168
77	0xbdb2ae90	-0.087247014
78	0xbdb864b4	-0.090035826
79	0x3d8ed55b	0.06974288
80	0xbe553300	-0.20820236
81	0xbdf3d0d6	-0.11905067
82	0x3e576b46	0.21037015
83	0x3cdcb4ae	0.026941624
84	0x3dae483f	0.085098736
85	0x3d137200	0.03599739
86	0x3e1e3611	0.15450312
87	0x3dad6c5e	0.08467935
88	0xbe01a1e3	-0.12659411
89	0xb9416a72	-0.00018445568
90	0x3e8aa595	0.27079454
91	0x3dde0712	0.10841192
92	0x3dbf2800	0.09333801
93	0xbda2d827	-0.07951384
94	0x3d7ea828	0.062172085
95	0xbdab1d9c	-0.08355257
96	0xbd6984cd	-0.057011414
97	0xbe5b9a50	-0.21445584
98	0xbe15dd77	-0.14635263
99	0xbe3d939d	-0.18513341
100	0x3e0807a5	0.13284166
101	0xbd0c911b	-0.03431807
102	0x3debbf5e	0.1151111
103	0x3bb00b78	0.005372461
104	0xbd586dba	-0.05283902
105	0xbd2e6798	-0.042579263
106	0x3d357292	0.044298716
107	0xbe530137	-0.20605932
108	0x3c281dcc	0.01026101
109	0x3db225bc	0.086986035
110	0x3e8013ee	0.25015205
111	0x3de012d4	0.10941091
112	0x3e6826fa	0.22671118
113	0x3e56d87d	0.20981021
114	0x3d249897	0.040184584
115	0x3cd44ecf	0.025916485
116	0x3e05aeee	0.13055012
117	0x3e311b48	0.17295563
118	0x3df63cad	0.12023292
119	0xbd8b758f	-0.06809532
120	0xbea37a4a	-0.31929237
121	0xbe893d35	-0.2680451
122	0xbed71301	-0.42006686
123	0xbed43709	-0.41448238
124	0xbdb8c707	-0.090223365
125	0xbdfb8878	-0.12281889
126	0x3e3e3ccb	0.18577878
127	0xbbc8637f	-0.0061153765
128	0x3e61a4f5	0.22035582
129	0x3e66aab7	0.2252606
130	0x3deb33e0	0.11484504
131	0xbd193507	-0.037404086
132	0x3decf257	0.1156966
133	0xbd24764d	-0.040151883
134	0x3e44a6a6	0.19204196
135	0x3d8532de	0.06503843
136	0x3cf789c7	0.030217065
137	0x3cab1497	0.020883841
138	0xbde5f6f0	-0.1122874
139	0x3d92dd88	0.0717116
140	0xbe6f53ac	-0.23371762
141	0xbe58ed74	-0.21184331
142	0xbebfd70a	-0.3746875
143	0xbe48c1a4	-0.19605118
144	0x3bf66d54	0.007520357
145	0xbd3bd1ab	-0.04585425
146	0xbcd456f8	-0.025920376
147	0xbe1fad05	-0.15593345
148	0xbb768038	-0.0037613045
149	0x3d158e69	0.036512766
150	0x3d04b19a	0.032395937
151	0x3d2e9ee9	0.042632017
152	0xbe959bf9	-0.2922056
153	0xbe4ed562	-0.20198587
154	0x3de33887	0.11094766
155	0x3d03d336	0.03218385
156	0xbd249fb5	-0.04019137
157	0x3d83e749	0.064405985
158	0x3e03f2fb	0.12885658
159	0xbda6c05c	-0.081421584
160	0xbcab18b7	-0.020885808
161	0xbe23ce5f	-0.15996693
162	0x3d3e94d3	0.04652865
163	0x3d4a8605	0.049444217
164	0xbe47e0ce	-0.1951935
165	0x3d3e992d	0.0465328
166	0x3da50b85	0.08058838
167	0x3c57de4c	0.013175558
168	0x3de563ad	0.11200652
169	0xbdc5d11a	-0.096590236
170	0xbe70eb5d	-0.23527284
171	0x3e11a64f	0.14223598
172	0x3e258f77	0.16168009
173	0xbe7538bf	-0.23947428
174	0xbd00a82c	-0.03141038
175	0xbd985c06	-0.07439427
176	0xbde2cc8a	-0.11074169
177	0xbe4971c7	-0.19672309
178	0xbe5bea2c	-0.21476048
179	0x3df5d10d	0.12002764
180	0x3c79fd89	0.015258201
181	0x3e682783	0.22671323
182	0x3e86b454	0.26309454
183	0x3e2e1a6d	0.17002268
184	0xbeace749	-0.33770207
185	0x3cc63b67	0.024198247
186	0xbd9f47ee	-0.077773914
187	0x3e87794e	0.26459736
188	0x3e32f3f8	0.17475879
189	0xbe95ad95	-0.29233995
190	0xbe66e997	-0.22550045
191	0xbe59a660	-0.21254873
192	0x3caf7bb1	0.021421285
193	0x3e8d3afb	0.2758406
194	0xbe61b98d	-0.22043438
195	0xbe8a2fa7	-0.2698948
196	0xbe31675e	-0.17324588
197	0x3dd8a1fe	0.105777726
198	0xbd61ab65	-0.055095095
199	0x3e01a245	0.12659557
200	0xbe05289b	-0.13003771
201	0xbe76972c	-0.24081105
202	0xbec7bca3	-0.39011106
203	0xbeb600dd	-0.35547534
204	0xbe7a156e	-0.24422237
205	0x3d83eea3	0.06442001
206	0xbe8b5a8f	-0.27217528
207	0xbc94cba6	-0.018163513
208	0xbe51770e	-0.20455572
209	0xbe121f2d	-0.14269705
210	0x3e732a48	0.23746598
211	0x3dfbca04	0.12294391
212	0x3e8947b1	0.2681251
213	0x3eb7acb6	0.35873955
214	0x3e4ba9af	0.19888948
215	0x3e813974	0.25239146
216	0x3e858ced	0.2608408
217	0x3d1b6782	0.03794051
218	0x3e461e99	0.1934761
219	0x3db36028	0.08758575
220	0x3dd6b171	0.10483063
221	0xbd832cf3	-0.06405058
222	0xbe3417df	-0.17587231
223	0xbe04f2df	-0.12983273
224	0xbe4819af	-0.19541048
225	0xbbf097fc	-0.0073423367
226	0xbe507e26	-0.20360622
227	0xbde9e500	-0.114206314
228	0xbd6d74f7	-0.057972874
229	0x3b194a55	0.0023390253
230	0xbe60bf0c	-0.21947879
231	0xbeb6c482	-0.356968
232	0x3c58430b	0.013199578
233	0xbd77d55a	-0.060506202
234	0x3e7f0dc1	0.2490759
235	0xbdcbc463	-0.09949567
236	0xbd24b68e	-0.04021316
237	0xbc80d5de	-0.01572698
238	0x3e71c30b	0.23609559
239	0x3d0f95b3	0.035054874
240	0xbcc145a0	-0.02359277
241	0x3d62d10f	0.055375155
242	0xbe0513f9	-0.129959
243	0x3e911ce1	0.28342345
244	0xbd1c1f18	-0.03811559
245	0x3dd3a74f	0.10334646
246	0xbd355ec2	-0.04427982
247	0xbd5c0585	-0.0537162
248	0x3db90d70	0.09035766
249	0xbe370f8e	-0.17877027
250	0xbe34b0c6	-0.17645559
251	0xbe826770	-0.25469542
252	0xbd96cabc	-0.07362887
253	0x3b7eb0f8	0.0038862806
254	0xbdd7ca49	-0.1053663
255	0xbcc5418e	-0.02407911

conv1.bias f4 [16]
0	0xbe56da40	-0.20981693
1	0xbdae0d2c	-0.08498606
2	0xbe38bdea	-0.18041196
3	0xbec19120	-0.37806034
4	0xbe461ff4	-0.19348127
5	0xbd831cd3	-0.06401982
6	0xbedb3225	-0.42811695
7	0xbe9d3d18	-0.30710673
8	0xbe475c14	-0.19468719
9	0xbe638426	-0.2221838
10	0xbe489830	-0.19589305
11	0xbe1d59bf	-0.15366267
12	0xbe4f23ec	-0.20228547
13	0xbc89ea16	-0.016835254
14	0xbe8fc95d	-0.28083315
15	0xbd8f71fd	-0.070041634

conv2.weight f4 [32, 16, 3, 3]
0	0xbeac298b	-0.33625445
1	0xbd954e3d	-0.072903134
2	0xbd5fe4d7	-0.054661598
3	0xbe80250b	-0.25028262
4	0x3d987d8a	0.0744582
5	0x3dad0af8	0.08449358
6	0xbda6acd8	-0.08138436
7	0x3c1e848d	0.009675157
8	0x3d41a131	0.047272865
9	0x3c5ecf4b	0.013599227
10	0xbda8df8e	-0.08245765
11	0xbe0fd777	-0.14047037
12	0xbd151309	-0.036395106
13	0x3d1187e8	0.03553
14	0xbe839d68	-0.2570603
15	0x3e383623	0.17989402
16	0x3c6a29ed	0.014292222
17	0xbe7433c9	-0.2384788
18	0x3d4b39ce	0.049615674
19	0xbdd0bf94	-0.10192791
20	0xbe84477d	-0.2583579
21	0xbbc18164	-0.005905317
22	0x3ddfd94d	0.10930119
23	0xbe87f88c	-0.26556814
24	0xbc157888	-0.009122975
25	0x3e289ebd	0.16466804
26	0x3e0ff3b9	0.14057817
27	0x3e83c67d	0.25737372
28	0xbd393ec5	-0.045225877
29	0x3d998de7	0.07497769
30	0x3d9935ff	0.07481002
31	0xbe0c036b	-0.13673179
32	0xbe003251	-0.12519194
33	0xbe33f764	-0.17574841
34	0xbdda3338	-0.106543005
35	0xbde7ea4a	-0.11323984
36	0x3d48c58d	0.049016524
37	0xbd419c93	-0.04726846
38	0x3e0b7c0f	0.13621543
39	0x3c0f4b10	0.008745924
40	0xbc8133b7	-0.01577173
41	0xbe02d027	-0.12774716
42	0xbe7744b8	-0.24147308
43	0xbdd238f5	-0.1026477
44	0xbdc7e0d3	-0.09759679
45	0x3da7a194	0.081851155
46	0xbe5faea3	-0.21843962
47	0x3e09bfcc	0.13452071
48	0x3e8ab29b	0.2708939
49	0x3ccb0f6f	0.024787633
50	0xbe027fe3	-0.12744097
51	0x3de3ea44	0.11128667
52	0xbd8319ac	-0.06401381
53	0xbe24c987	-0.16092502
54	0xbc57c549	-0.013169595
55	0x3d39b0c0	0.045334578
56	0x3d4f1ea5	0.050566334
57	0xbe0afc7d	-0.13572879
58	0xbc5569b2	-0.013025688
59	0x3d01239f	0.03152811
60	0xbe26b41d	-0.16279645
61	0xbdb25a26	-0.08708601
62	0x3d0fa2f6	0.03506752
63	0x3d50e1be	0.050996535
64	0x3e18ad7f	0.14909934
65	0xbe1f5905	-0.15561302
66	0xbd6d3877	-0.057915177
67	0x3e4dc54e	0.20094797
68	0xbcc2a70f	-0.0237613
69	0xbe068da5	-0.1313997
70	0x3ad66577	0.0016357143
71	0x3e4b9e6b	0.1988465
72	0x3dbe1de9	0.09283049
73	0x3e3d427c	0.18482393
74	0x3e01e47a	0.12684813
75	0xbe93e96c	-0.28889024
76	0xbc8aafa0	-0.016929448
77	0x3ce8fc58	0.02844064
78	0xbea604a3	-0.32425413
79	0xbca9e94d	-0.02074113
80	0x3dd06aa9	0.10176594
81	0x3e03135c	0.12800354
82	0x3d89c60e	0.06727229
83	0xbdd7037f	-0.10498714
84	0xbbd2cad7	-0.006432872
85	0xbc209bf4	-0.009802807
86	0xbdede5d0	-0.11616099
87	0xbcf51962	-0.02991933
88	0xbd70c684	-0.05878307
89	0x3c9d6093	0.01921109
90	0x3dc234ca	0.09482725
91	0x3dcd8026	0.10034208
92	0x3d01f1d8	0.03172478
93	0xbd29a267	-0.041414645
94	0x3d4fc1a4	0.05072178
95	0xbdb5237d	-0.088446595
96	0xbdae242c	-0.08502993
97	0x3e0ee17f	0.13953207
98	0x3dc027ec	0.093826145
99	0xbde667d3	-0.11250272
100	0xbea41b05	-0.32051864
101	0xba6c9ba9	-0.0009025881
102	0x3e57540f	0.2102816
103	0xbda95738	-0.08268589
104	0xbda0593b	-0.07829519
105	0x3dceecbb	0.101037465
106	0x3dcf771c	0.1013014
107	0xbd9907f7	-0.07472222
108	0xbe0c6806	-0.13711557
109	0xbc018048	-0.00790412
110	0x3e1b6817	0.15176426
111	0xbe20828b	-0.15674798
112	0xbe462a37	-0.19352041
113	0x3d8ca97a	0.068682626
114	0xbea04e09	-0.31309536
115	0xbe3ba0d6	-0.18323073
116	0xbd75123e	-0.05983185
117	0xbdd0d6cd	-0.1019722
118	0xbe373e7a	-0.17894927
119	0xbe404fe9	-0.18780483
120	0x3dfa0987	0.122088484
121	0xbe45e2b0	-0.19324756
122	0xbea3d20f	-0.319962
123	0x3d4348b1	0.047676746
124	0xbe65cda6	-0.2244173
125	0xbeb2f56c	-0.34952867
126	0xbe222274	-0.15833455
127	0xbdb81db7	-0.08990043
128	0x3d01a95f	0.031655665
129	0xbe41839e	-0.18897864
130	0xbb43cf98	-0.0029878374
131	0x3da3a1bb	0.07989832
132	0xbe84c4e2	-0.2593146
133	0x3e13d33d	0.1443605
134	0x3d71d2c8	0.059038907
135	0xbe173daa	-0.14769617
136	0xbe5f082c	-0.21780461
137	0xbe2d7efa	-0.16942969
138	0x3b0b160d	0.002122286
139	0xbc8851c8	-0.016640559
140	0x3e29d318	0.16584432
141	0x3df2fb77	0.11864369
142	0x3e336955	0.1752065
143	0x3d7a4f26	0.061110638
144	0x3df1d602	0.11808397
145	0x3e437a55	0.19089635
146	0xbe4b1b1d	-0.19834562
147	0x3e6b8ec1	0.23003675
148	0x3e11d9d8	0.14243257
149	0xbe7d290e	-0.24722692
150	0x3e136bf3	0.14396648
151	0xbe0859f1	-0.1331556
152	0xbd09fa97	-0.033686247
153	0xbe10b87d	-0.14132877
154	0xbdb57db0	-0.088618636
155	0x3e42a406	0.19007882
156	0xbe34f024	-0.17669731
157	0xbc8adca2	-0.016950909
158	0x3e7da40f	0.24769615
159	0xbdb785e5	-0.08961085
160	0x3db3064c	0.087414354
161	0x3e579f8e	0.21056959
162	0xbe19704c	-0.14984244
163	0xbd9507ae	-0.072768554
164	0x3cde8e60	0.027167499
165	0xbe784e5b	-0.2424864
166	0xbd2385ed	-0.039922643
167	0x3e3c2e4c	0.18377036
168	0xbccc655c	-0.024950676
169	0x3df28782	0.11842252
170	0x3dd1fe50	0.102535844
171	0x3b8dc43a	0.0043263705
172	0xbe41290a	-0.18863311
173	0xbccfb343	-0.025354033
174	0xbd868876	-0.065689966
175	0xbe280783	-0.16409115
176	0x3db82d6d	0.08993039
177	0xbe017af0	-0.12644553
178	0xbd6b5709	-0.05745605
179	0x3e0fb2c5	0.14033039
180	0xbe133174	-0.14374334
181	0xbe9dfa4a	-0.30855018
182	0xbecccd6b	-0.4000047
183	0xbb64591d	-0.0034843155
184	0xbdf7badc	-0.120961875
185	0xbeb1129d	-0.34584513
186	0xbd39ca8a	-0.045359172
187	0xbedfe922	-0.43732554
188	0xbef838cb	-0.4848083
189	0xbe5995a9	-0.21248497
190	0xbe474919	-0.19461478
191	0xbe6f8b9f	-0.23393105
192	0xbe58f81f	-0.211884
193	0x3bcffae1	0.006347046
194	0xbd8ef5d6	-0.06980483
195	0xbdc21408	-0.09476477
196	0xbde65809	-0.1124726
197	0xbd1aa441	-0.0377543
198	0x3cfd6b6c	0.030935012
199	0xbe528169	-0.20557179
200	0xbdd5d45d	-0.10440896
201	0xbc3fec5b	-0.011714066
202	0xbd8f9432	-0.07010688
203	0x3e5f838a	0.21827522
204	0xbe023925	-0.12717111
205	0xbb6b1d6a	-0.0035875686
206	0x3e3ca210	0.18421197
207	0x3e5f7ebd	0.2182569
208	0xbe97919e	-0.29603285
209	0xb7e863e7	-2.7703076e-05
210	0xbd79d648	-0.06099537
211	0xbe3fc638	-0.18727958
212	0x3dcd1f35	0.10015718
213	0xbdeb8f2d	-0.11501918
214	0xbe79bcc8	-0.2438842
215	0x3e387c75	0.18016227
216	0x3e6ab33f	0.2291994
217	0x3da4ae97	0.08041113
218	0xbd88c50f	-0.06678211
219	0x3db3f827	0.08787566
220	0xbdde6074	-0.10858241
221	0xbd06e00c	-0.03292851
222	0xbdf81a6d	-0.12114415
223	0xbe7b1e56	-0.24523291
224	0xbd5f7657	-0.054556217
225	0xbe7b1646	-0.24520215
226	0xbe669443	-0.22517495
227	0x3da2225f	0.07916712
228	0xbda3db59	-0.080008216
229	0xbd2ee9d0	-0.04270345
230	0x3e34b8e3	0.17648654
231	0xbdc875d5	-0.097881
232	0x3d08b05e	0.03337132
233	0x3e5d1802	0.2159119
234	0x3e55917a	0.20856276
235	0xbe89e6d7	-0.2693393
236	0x3cf80b1f	0.03027874
237	0xbc0c280c	-0.00855447
238	0xbe1b1641	-0.15145208
239	0x3e2c080a	0.16799942
240	0xbce9ae84	-0.028525598
241	0xbd3c6554	-0.04599507
242	0x3d959d06	0.073053405
243	0x3d844487	0.06458383
244	0xbdcc3ebc	-0.09972903
245	0xbe94779c	-0.28997505
246	0xbe985432	-0.29751736
247	0xbe80c356	-0.2514903
248	0xbe1de16a	-0.1541802
249	0xbea63b32	-0.32467037
250	0xbe71691c	-0.23575252
251	0xbea90e7d	-0.33018866
252	0x3debb78c	0.11509618
253	0xbba9fda0	-0.005187705
254	0xbeb0e245	-0.3454763
255	0x3e125c83	0.14293103

conv2.bias f4 [32]
0	0x3d24c651	0.04022819
1	0x3db743cf	0.0894848
2	0xbc9971d4	-0.018731035
3	0xbd4ef645	-0.05052783
4	0xbde48894	-0.11158863
5	0xbd02b9ab	-0.031915348
6	0x3c42dfb0	0.011894152
7	0x3d30afb4	0.043136314
8	0xbe1f1f07	-0.1553918
9	0xbd89c158	-0.067263305
10	0x3d1bf039	0.03807089
11	0xbe370161	-0.1787162
12	0xbd1f03e2	-0.038822062
13	0xbd0538bc	-0.03252481
14	0xbcff4b7e	-0.031163927
15	0xbcde120c	-0.027108215
16	0x3d8f9faa	0.070128754
17	0xbd0fb3f3	-0.035083722
18	0xbd9b2904	-0.075761825
19	0x3d4d38d4	0.050103024
20	0xbc088cb8	-0.008334331
21	0xbd180552	-0.03711445
22	0xbd8b3faf	-0.06799256
23	0xbde8f5a5	-0.11374978
24	0xbce22354	-0.027604736
25	0xbd2e1487	-0.042500045
26	0x3d40a2b9	0.047030184
27	0xbdf3d645	-0.11906103
28	0x3da7b259	0.08188314
29	0x3d3d0d3f	0.04615521
30	0xbdf9748a	-0.12180431
31	0xbd636345	-0.055514593

fc1.weight f4 [120, 800]
0	0xbbaa3139	-0.005193856
1	0x3c0877a0	0.008329302
2	0xbd0ad9e9	-0.03389922
3	0x3b53ec6e	0.0032336968
4	0xbd175a4c	-0.03695135
5	0x3cc4474e	0.023959782
6	0xbc0269a5	-0.007959758
7	0xbcaa4535	-0.020784954
8	0xbc048913	-0.008089322
9	0x3ccce254	0.025010265
10	0xbcf7de62	-0.030257408
11	0xbbb9db36	-0.005671884
12	0xbcd74145	-0.02627624
13	0xbc5ef6eb	-0.0136086745
14	0xbb0a25de	-0.00210797
15	0xbcc68056	-0.024231117
16	0xbd209bf6	-0.039211236
17	0xbb39fc78	-0.0028379243
18	0xbc6dd529	-0.014516153
19	0x3c4cdea3	0.012504253
20	0xbc5130f0	-0.012768015
21	0x3bbbe778	0.0057343803
22	0x3ae1833c	0.0017205249
23	0xbc2f777e	-0.0107096415
24	0x3cf28876	0.029606085
25	0xbd76b323	-0.06022943
26	0xbd2f2526	-0.042760037
27	0x3cf22921	0.029560627
28	0x3c66cf23	0.014087471
29	0xbd1870b3	-0.037216853
30	0xbc87d527	-0.016581131
31	0x3afdd19a	0.0019364834
32	0x3cad3c5a	0.021146942
33	0xbc724644	-0.01478726
34	0xbd08f21b	-0.033434015
35	0xbc4afe0f	-0.012389674
36	0xbc30c9d7	-0.01079031
37	0xbc8cee33	-0.017203426
38	0xbd07db78	-0.033168286
39	0xbc911f1b	-0.017715028
40	0xbc84e180	-0.016220808
41	0xbcece7dd	-0.028919155
42	0xbc8f7449	-0.017511504
43	0x3c910262	0.017701332
44	0xbd410d9e	-0.047132127
45	0x3cf69a24	0.030102797
46	0xbce350ad	-0.02774843
47	0xbd4adc09	-0.049526248
48	0xbd0929ab	-0.033487003
49	0xb93a449c	-0.00017763901
50	0xbb844b87	-0.004037324
51	0xbd21a85d	-0.039467204
52	0xbd1fc15e	-0.03900277
53	0xbaaf008b	-0.0013351602
54	0x3c6df8b2	0.014524626
55	0x3bec010b	0.007202273
56	0x3cb00a30	0.021489233
57	0xbcf29cfb	-0.02961587
58	0xbd00074b	-0.031256955
59	0x3d0363bb	0.032077532
60	0xbce4d7f4	-0.027935006
61	0xbba34f8f	-0.0049838494
62	0xbbbb87bd	-0.0057229684
63	0xbd1be61a	-0.03806124
64	0xbc8b0ebf	-0.016974805
65	0xbd2a0d5a	-0.04151664
66	0x3cce00c3	0.025146848
67	0xbc272798	-0.010202311
68	0x3c7e398c	0.01551665
69	0xbd054811	-0.03253943
70	0xbc07d138	-0.008289628
71	0xbd0b6eb2	-0.034041114
72	0x3b832553	0.004002252
73	0xbb5fd16b	-0.0034151922
74	0xbd3de3f6	-0.04635998
75	0xbd1a6fd5	-0.037704308
76	0xbc9b847c	-0.018984072
77	0x3cd8208d	0.026382709
78	0xbd6d12b4	-0.057879165
79	0x3c3f25c6	0.011666721
80	0x3cc6870a	0.024234314
81	0xbc7a1b52	-0.015265303
82	0xbaff2019	-0.0019464522
83	0xbd47f973	-0.048821878
84	0x3c36d2a7	0.011158622
85	0xbc58f647	-0.013242311
86	0xbced7a49	-0.028988974
87	0x3cb9af50	0.022666603
88	0xbccb82cb	-0.02484264
89	0xbc660f21	-0.014041693
90	0xbc593d64	-0.013259266
91	0xbc5e11a8	-0.013554014
92	0x3cf51210	0.02991584
93	0xbd4add47	-0.049527433
94	0xbd201912	-0.03908641
95	0xbd15c7aa	-0.036567368
96	0x3ca278bb	0.01983296
97	0xbd0332e8	-0.03203097
98	0xbd0f3e4b	-0.034971517
99	0xbd04aca5	-0.03239121
100	0xbc2a865d	-0.010408011
101	0x3be90fca	0.007112478
102	0xbccbd4d5	-0.02488176
103	0xbce7c39b	-0.028291514
104	0x3ba440d6	0.005012612
105	0xbb20da19	-0.0024544059
106	0xbb765e76	-0.0037592924
107	0x3be22834	0.0069017652
108	0xbc544243	-0.012955251
109	0x3b51237e	0.0031912024
110	0xbc455b3f	-0.012045681
111	0xbb96f276	-0.0046065403
112	0xbd0e34b0	-0.034718215
113	0xbd1ab957	-0.03777441
114	0x3bd12db4	0.006383622
115	0xbd20cef1	-0.039259855
116	0x3c60db40	0.013724148
117	0x3c6c6dad	0.014430446
118	0xbca7d6ff	-0.02048826
119	0x3cbaf71a	0.022822905
120	0x3bc221ba	0.0059244307
121	0x3c57f1f0	0.013180241
122	0xbbaf7759	-0.0053548035
123	0x3c9fd47b	0.019510498
124	0xbd0a6b5c	-0.033793792
125	0xbd1258ce	-0.035729222
126	0xbd4d5fa7	-0.05014005
127	0xbca77ca5	-0.020445177
128	0xbbebbdb9	-0.0071942476
129	0x3c8bd533	0.017069435
130	0xbd17afec	-0.037033007
131	0xbcb8edb4	-0.022574283
132	0x3b87a1ab	0.0041391454
133	0xbba9714a	-0.005170976
134	0x3ca6e8aa	0.020374615
135	0x3c5f71d1	0.013637976
136	0x3b1b3912	0.002368514
137	0x3a8a84d7	0.0010568154
138	0xbd381deb	-0.044950407
139	0x3caa7241	0.020806434
140	0xbcbef693	-0.023310935
141	0xbcabe43c	-0.020982854
142	0xbcd4fd7f	-0.025999783
143	0xbd5ad17a	-0.05342243
144	0x3baded75	0.005307848
145	0xbcbdeeb0	-0.023185104
146	0xbc539d6c	-0.01291595
147	0xbca15dbd	-0.019698018
148	0xbc106bce	-0.008814765
149	0xbcd5124a	-0.026009697
150	0x3d009dee	0.031400613
151	0x3c40a724	0.011758599
152	0xbcc61fb8	-0.024185047
153	0x3c6b5e4e	0.014365746
154	0x3c23ad78	0.009990089
155	0xbcbcf2c7	-0.023064984
156	0xbae1db61	-0.0017231518
157	0xbd4ce4fa	-0.050023057
158	0xbc78a1fe	-0.015175341
159	0xbb2d55fe	-0.002644896
160	0xbce391ed	-0.027779544
161	0x3c838cf8	0.01605843
162	0xbba738f9	-0.005103227
163	0xbd566695	-0.052343924
164	0x3cb7664f	0.022387652
165	0xbcb49bd2	-0.022046957
166	0xbcfce8b3	-0.030872678
167	0xbd101d5f	-0.03518426
168	0xbb1903ee	-0.002334829
169	0xbcc10807	-0.023563398
170	0xbcb95aea	-0.022626359
171	0x3d0ea87e	0.034828655
172	0xbae12cbf	-0.0017179473
173	0xbd229473	-0.039692353
174	0xbbe3fbc9	-0.0069575054
175	0x3bd8af41	0.006612689
176	0x3ca31ed4	0.019912161
177	0x3ad028bc	0.001588128
178	0xbc018bbf	-0.007906853
179	0xbc3b12f7	-0.011418096
180	0xbd493ac7	-0.04912832
181	0x3bb13768	0.0054082163
182	0x3c2c9b37	0.010535053
183	0xbbfe36b4	-0.007757986
184	0x3ccada18	0.024762198
185	0x3c0cba8b	0.008589397
186	0xbd707f4c	-0.05871515
187	0xbd332bc9	-0.04374293
188	0xbd466fc6	-0.04844644
189	0x3bfa85f6	0.007645364
190	0x3cdbacc4	0.02681578
191	0xbcce3b25	-0.025174687
192	0x3cbf50c1	0.023353936
193	0xbc8600a2	-0.016357724
194	0x3c20ee52	0.009822445
195	0xbcad5ccf	-0.021162419
196	0xbcaecba2	-0.021337334
197	0x3b8c348a	0.004278724
198	0xbd3e2508	-0.046422035
199	0xbcc73808	-0.02431871
200	0x3c972c88	0.018453851
201	0x3ca9b4b6	0.020716053
202	0xbc8c020b	-0.017090818
203	0x3ccc5571	0.024943085
204	0xbd0b9ac3	-0.03408314
205	0xbd052b39	-0.032511923
206	0xbcc91a8c	-0.024548791
207	0xbd0014dd	-0.031269897
208	0x3cb637bc	0.022243373
209	0xbc1d44c2	-0.009598913
210	0x3ce59da3	0.028029269
211	0xbcc6313f	-0.024193404
212	0xbd1e52e1	-0.03865326
213	0xbd244299	-0.040102575
214	0xbc940598	-0.018069074
215	0xba3fbd8d	-0.0007314317
216	0xbd1623cc	-0.036655232
217	0xbd0c3115	-0.034226496
218	0xbd11224b	-0.035433095
219	0x3c1ce335	0.009575655
220	0xbcd46589	-0.025927322
221	0x3a71e4aa	0.0009227494
222	0x3beaa91a	0.0071612718
223	0x3c8bc2f2	0.01706073
224	0x3cf2e397	0.029649539
225	0xbcd999b3	-0.026562547
226	0xbc95fa81	-0.018307926
227	0xbc543e70	-0.012954339
228	0x3b79dfa7	0.0038127692
229	0xbcf60e00	-0.030035973
230	0x3c55b2c5	0.01304311
231	0x3b562fc6	0.0032682284
232	0xbcd21808	-0.025646225
233	0xbbda0fba	-0.006654707
234	0x3bd03f0f	0.0063551734
235	0x3ce8e53b	0.028429618
236	0xbc9a52f4	-0.018838383
237	0x3c83e5a7	0.016100718
238	0xbd0bc1a1	-0.034120206
239	0x3cabb1f1	0.020958873
240	0xbd25e478	-0.040501088
241	0xbb960876	-0.0045786453
242	0xbca73a5f	-0.020413576
243	0x3a5a3879	0.0008324455
244	0xbc4df2fb	-0.012570138
245	0xbccce018	-0.0250092
246	0xbce74a8d	-0.02823379
247	0x3c0e4f8c	0.008685958
248	0xbc8f8211	-0.017518075
249	0xba839e30	-0.001004165
250	0xbcffbd88	-0.031218305
251	0x3ad56a30	0.0016282257
252	0x3bced648	0.0063121654
253	0xbd04a6c3	-0.0323856
254	0x3ae37113	0.0017352424
255	0xbce0b59d	-0.02743035

fc1.bias f4 [120]
0	0xbcad91ac	-0.021187626
1	0xbcbe850b	-0.0232568
2	0xbdc38d08	-0.09548384
3	0xbd1f485d	-0.03888737
4	0xbdea585c	-0.114426345
5	0x3c245515	0.010030051
6	0xbdd1bf04	-0.102415115
7	0x3d8c9e85	0.06866173
8	0xbd7bee4e	-0.061506562
9	0x3c88d7c6	0.016704451
10	0xbd466e0c	-0.048444793
11	0x3c910ae3	0.017705387
12	0xbd3c0caf	-0.045910534
13	0x3b2838aa	0.002566854
14	0xbdc461b2	-0.095889464
15	0xbdccbd84	-0.09997085
16	0xbd8e227d	-0.06940172
17	0x3cb552d0	0.022134215
18	0x3cebbe60	0.028777301
19	0xbdac3444	-0.084084064
20	0xbce0801b	-0.027404835
21	0xbd0b876a	-0.034064688
22	0xbd262dee	-0.040571146
23	0xbd1a820b	-0.037721675
24	0x3c16aac4	0.009195987
25	0x3c52242f	0.01282601
26	0xbd1bf136	-0.038071834
27	0x3cd5450b	0.026033899
28	0xbd5c0067	-0.05371132
29	0xbdc3a493	-0.095528744
30	0xbb0582c4	-0.0020372132
31	0x3b9cca0f	0.0047848294
32	0xbd7b6909	-0.061379466
33	0x3c1ff64e	0.009763313
34	0xbd0d1e79	-0.03445289
35	0x3c25e956	0.010126432
36	0x3aef2e39	0.0018248028
37	0x3cb500f4	0.022095181
38	0xbd76268b	-0.06009535
39	0xbb39bd45	-0.0028341573
40	0xbcbfea97	-0.02342729
41	0x3bf097f6	0.007342334
42	0xbd88fca6	-0.06688814
43	0x3c3de4e1	0.0115902135
44	0x3d60883c	0.054817423
45	0xbdb8a03c	-0.09014937
46	0xbc29d0cd	-0.010364723
47	0xbc237ab4	-0.009977985
48	0xbd57f740	-0.05272603
49	0xbd5d1033	-0.053970527
50	0xbb98cd67	-0.0046631577
51	0xbdcc0a0e	-0.09962855
52	0xba546c61	-0.0008103308
53	0x3cce8185	0.025208244
54	0xbc5f3638	-0.013623767
55	0xbc9ec3b0	-0.01938042
56	0x3d25400d	0.040344287
57	0xbd3c9270	-0.04603809
58	0xbcd09bfa	-0.025465
59	0xbd0d490a	-0.034493484
60	0xbcb6bca2	-0.022306744
61	0xbd96be81	-0.073605545
62	0xbe07bb12	-0.13254955
63	0xbc848dfb	-0.016180983
64	0xbcbfb5f8	-0.0234022
65	0xbd802d83	-0.06258681
66	0xbd880e2b	-0.06643327
67	0x3bd75259	0.006571096
68	0x3d81f0db	0.06344768
69	0xbd4b7877	-0.04967543
70	0xbe1fccf8	-0.15605533
71	0x3c03987e	0.008031962
72	0xbd500fd8	-0.05079636
73	0xbe0945d1	-0.13405539
74	0xbdfe5d98	-0.12420195
75	0xbd3387c9	-0.043830667
76	0x3cad1bf1	0.021131488
77	0xbd00c30f	-0.031436022
78	0xbd76ac9f	-0.060223218
79	0x3ce1da73	0.027569985
80	0x3e04b191	0.12958361
81	0xbd809fc6	-0.06280474
82	0xbc20c47e	-0.009812472
83	0xbd198b4d	-0.037486363
84	0x3a351c10	0.00069087837
85	0xbd258098	-0.04040584
86	0xbe373c6d	-0.17894144
87	0x3d5cbb2f	0.05388945
88	0xbdc9dbbe	-0.098563656
89	0x3c89a989	0.016804473
90	0xbe25dd89	-0.1619779
91	0xbdc24cf6	-0.094873354
92	0xbd943a25	-0.07237653
93	0xbd8619b1	-0.06547869
94	0xbd23c759	-0.039985035
95	0xbda56e5a	-0.080776885
96	0x3bb2e68a	0.0054596113
97	0x3cf1a198	0.029496
98	0xbd071125	-0.032975335
99	0xbbc38b6c	-0.005967548
100	0x3bb047b0	0.0053796396
101	0xb9a1f8dd	-0.0003089373
102	0xbe15f4c9	-0.1464416
103	0xbd30c398	-0.043155283
104	0xbcae611d	-0.021286542
105	0xbc80cbb7	-0.015722139
106	0xbc41f5a1	-0.011838348
107	0xbca4bf37	-0.02011071
108	0xbbea5d65	-0.007152247
109	0xbda757da	-0.08171053
110	0xbd400bda	-0.046886303
111	0xbe290a61	-0.16507865
112	0xbd21130f	-0.039324816
113	0xbd560d2c	-0.052258655
114	0xbb3e907c	-0.0029077819
115	0xbd3f8211	-0.0467549
116	0xbcef239c	-0.029191785
117	0x3aae8db6	0.001331738
118	0xbce9898e	-0.028507974
119	0xbdd2b031	-0.10287512

fc2.weight f4 [84, 120]
0	0xbd2c55c0	-0.042073965
1	0x3c6f63d4	0.014611203
2	0x3e230bb1	0.15922429
3	0xbda30578	-0.079600275
4	0xbbcfe5f0	-0.0063445494
5	0xbd049b43	-0.03237463
6	0xbe47f15a	-0.19525662
7	0xbe3be224	-0.18347985
8	0xbe453fee	-0.19262668
9	0x3ce29e0b	0.027663251
10	0xbde26618	-0.11054629
11	0x3df37105	0.11886791
12	0xbd2e8890	-0.042610705
13	0xbd84516e	-0.06460844
14	0xbe07b182	-0.13251308
15	0x3e493ef7	0.19652925
16	0x3e0a6be2	0.13517717
17	0xbd38a9cc	-0.045083806
18	0xbc89c4c7	-0.016817464
19	0xbd8e08e4	-0.069352895
20	0xbd2b2f78	-0.041793317
21	0x3e64b95a	0.22336331
22	0x3d6f1d29	0.05837742
23	0x3d9a6512	0.07538809
24	0xbe875270	-0.26430082
25	0xbd00e1ef	-0.031465467
26	0xb9b8fc7b	-0.00035283327
27	0xbc12d422	-0.008961709
28	0x3df308af	0.11866891
29	0x3d5a7cce	0.05334168
30	0xbe93d4ae	-0.288732
31	0x3e0db334	0.13837892
32	0xbc4e2e3a	-0.012584263
33	0xbe2a4bf8	-0.16630542
34	0x3cf82f3f	0.030295966
35	0xbd73f804	-0.059562698
36	0x3caa7c07	0.020811094
37	0x3d6a49da	0.057199337
38	0xbdc409d5	-0.09572188
39	0xbd8fafd7	-0.07015961
40	0x3c50a20b	0.012733947
41	0xbe13b307	-0.14423762
42	0xbd94d82a	-0.072677925
43	0x3d07a14f	0.03311282
44	0xbd3447b2	-0.044013686
45	0x3d916e30	0.07101095
46	0x3d9160fb	0.07098576
47	0x3dd3c109	0.10339553
48	0xbdfdcd8e	-0.12392722
49	0x3d881dbb	0.06646296
50	0x3d0fc412	0.035099097
51	0x3c6bf193	0.0144008575
52	0x3bf2feb2	0.007415616
53	0x3c579f21	0.013160498
54	0x3e17cd36	0.14824376
55	0xbe983da0	-0.29734516
56	0x3d86f6c3	0.06590035
57	0x3e2f345a	0.17109814
58	0x3dc1098b	0.09425648
59	0x3c2c6606	0.010522371
60	0x3c0d6766	0.008630609
61	0xbdad2574	-0.08454409
62	0xbdd99fbd	-0.10626171
63	0xbd446d56	-0.047955833
64	0xbdcdcaa9	-0.1004842
65	0x3e4440f0	0.19165397
66	0xbd8d9713	-0.06913581
67	0x3d2b58a4	0.04183258
68	0x3d0008fb	0.031258564
69	0x3d53da8b	0.05172209
70	0xbd8cd462	-0.06876446
71	0x3d8dd62b	0.06925615
72	0xbdb903fb	-0.09033962
73	0x3de3c727	0.1112197
74	0x3d3caf36	0.04606553
75	0x3da91970	0.08256805
76	0x3dfb1998	0.12260741
77	0xbe3944b4	-0.18092614
78	0x3ceed2b7	0.029153211
79	0x3c845573	0.016154027
80	0x3e265939	0.16244973
81	0x3c41a311	0.011818663
82	0xbda6c466	-0.08142929
83	0xbe5caba9	-0.21549858
84	0xbe2e3f1d	-0.17016263
85	0x3d4c2c39	0.04984686
86	0x3e825e27	0.25462458
87	0xbe1d13a4	-0.15339524
88	0xbe4f1c83	-0.2022572
89	0xbdfb1e8f	-0.12261688
90	0x3dbcfbd9	0.09227724
91	0x3a833aaf	0.0010011996
92	0x3dde4630	0.10853231
93	0x3d937ef5	0.072019495
94	0x3d89514d	0.0670496
95	0xbd78f3b3	-0.060779285
96	0xbe7414a0	-0.23835993
97	0xbe557b5b	-0.20847838
98	0xbc9f673e	-0.01945841
99	0x3da41eee	0.08013712
100	0x3907bb85	0.0001294446
101	0x3e2260a1	0.15857174
102	0x3d6ed315	0.058306772
103	0xbbe54201	-0.0069963937
104	0x3df08e36	0.117458746
105	0xbe061431	-0.1309364
106	0x3e0acd7f	0.13554953
107	0x3b82f057	0.003995936
108	0x3dadf652	0.084942475
109	0xbbb076dc	-0.005385263
110	0x3dfd0496	0.1235439
111	0x3d427f11	0.04748446
112	0xbd4e87e6	-0.05042257
113	0x3e33f006	0.1757203
114	0xbccadd44	-0.02476371
115	0xbcbb14f3	-0.022837138
116	0xbce16271	-0.02751276
117	0x3ca79836	0.020458322
118	0xbc4253b4	-0.011860777
119	0x3d259f9b	0.040435415
120	0xbdae900d	-0.08523569
121	0xbd76881a	-0.06018839
122	0x3de0b48e	0.10971938
123	0x3d2e5448	0.042560846
124	0x3e1f0a36	0.15531239
125	0x3cbd367c	0.02309727
126	0xbd04ace2	-0.032391436
127	0xbe831172	-0.25599247
128	0x3e14c719	0.14529075
129	0x3d3dfaba	0.04638169
130	0x3c891808	0.016735092
131	0x3da37f82	0.079833046
132	0x3d8b8b4a	0.06813677
133	0x3dbc2278	0.09186262
134	0x3de6286d	0.11238179
135	0x3da5043e	0.0805745
136	0x3dab3cb6	0.08361189
137	0xbe8e7db7	-0.27830288
138	0x3d0e83c4	0.03479363
139	0x3e1d470f	0.15359138
140	0xbe9cd984	-0.306347
141	0x3e5c213d	0.21497054
142	0xbe37b096	-0.17938456
143	0xbd4e59db	-0.05037866
144	0x3e30f6b4	0.1728161
145	0xbe81f45e	-0.2538175
146	0xbe6f5d22	-0.23375371
147	0xbda94df8	-0.082668245
148	0x3dc65c31	0.09685553
149	0x3cc9a13e	0.02461302
150	0x3d7a8aac	0.061167404
151	0xbd959c52	-0.07305206
152	0x3d0c9340	0.034320116
153	0x3dbd2733	0.09235992
154	0x3d895bd1	0.06706966
155	0x3bd0baf8	0.0063699447
156	0xbe3f747c	-0.18696779
157	0xbe964f91	-0.2935758
158	0x3cb2e052	0.02183548
159	0xbc99381e	-0.018703517
160	0x3dccae82	0.09994222
161	0x3d6d5797	0.05794486
162	0x3d593e45	0.0530379
163	0x3d845b3b	0.06462713
164	0xbe057cb7	-0.13035856
165	0x3dc28769	0.09498484
166	0xbdbd768a	-0.09251125
167	0xbbe546ba	-0.0069969567
168	0xbb7de82b	-0.003874312
169	0x3e0e1044	0.13873392
170	0xbd106ade	-0.035258166
171	0xbdeada38	-0.11467403
172	0xbd3fcddb	-0.04682718
173	0x3db16d78	0.08663458
174	0xbeda6cd2	-0.42661148
175	0x3c6ce509	0.014458903
176	0x3d02fdf2	0.031980462
177	0xbe453f96	-0.19262537
178	0xbe3f35b8	-0.18672836
179	0xbc88197a	-0.01661371
180	0xbd8fc3f4	-0.07019797
181	0x3d619caf	0.055081066
182	0x3a10023d	0.00054934976
183	0x3d1a7821	0.03771222
184	0x3ded3978	0.11583227
185	0xbd619ec1	-0.05508304
186	0xbdd0dd30	-0.10198438
187	0xbde60bc8	-0.11232716
188	0xbea85e1f	-0.3288431
189	0x3d0f8da9	0.035047207
190	0x3d964c66	0.073387906
191	0x3d04448a	0.032291926
192	0x3d9bcb71	0.07607163
193	0x3cf8b3cb	0.03035917
194	0x3d93ffd4	0.0722653
195	0x3d2cee76	0.0422196
196	0x3df5e825	0.12007169
197	0x3df38f7b	0.11892601
198	0xbd8b868a	-0.06812771
199	0x3c191237	0.009342722
200	0xbcd8e482	-0.026476149
201	0x3cadb018	0.021202132
202	0xbe27425e	-0.16333911
203	0x3b8c2e92	0.0042780126
204	0x3db49d3e	0.08819054
205	0x3c49cdd5	0.012317141
206	0x3bcc77f8	0.0062398873
207	0x3dfd33fd	0.123634316
208	0x3cef6cb9	0.029226648
209	0xbd92af33	-0.07162323
210	0x3ca054f9	0.019571768
211	0x3d40c260	0.04706037
212	0x3c3a8d2e	0.011386199
213	0x3e61def9	0.22057714
214	0xbcd5da07	-0.02610494
215	0xbb3351fa	-0.0027362094
216	0xbb99c75e	-0.004692956
217	0xbe853426	-0.2601635
218	0x3d98be69	0.07458193
219	0x3c69a0c8	0.014259525
220	0x3d9c17e8	0.07621747
221	0x3cf1e80b	0.029529592
222	0xbc6a5681	-0.014302851
223	0xbeb8049c	-0.35941017
224	0xbebce3f1	-0.36892655
225	0xbdec62cd	-0.11542282
226	0xbdbe4551	-0.09290565
227	0x3c7ea477	0.015542141
228	0x3dbe02eb	0.092779
229	0xbe6f6dd3	-0.23381738
230	0x3df52fc8	0.11972004
231	0x3cffee64	0.031241603
232	0xbbcbb756	-0.0062169237
233	0x3d266474	0.040623143
234	0x3d0d777c	0.034537777
235	0x3d985e03	0.07439806
236	0xbd21a853	-0.039467167
237	0x3b9b74bb	0.00474414
238	0x3d1a38d0	0.037651837
239	0x3df9dffa	0.12200923
240	0x3d736fa3	0.059432637
241	0xbd1b5964	-0.037927046
242	0x3d0fcf46	0.03510978
243	0xbd50826f	-0.05090564
244	0x3e1efddd	0.15526529
245	0x3d8746b9	0.06605286
246	0x3d28387a	0.041069485
247	0x3e2acec9	0.16680445
248	0xbdf3a51a	-0.11896725
249	0xbd520971	-0.051278535
250	0x3b31faf2	0.0027157632
251	0xbe944c9b	-0.28964695
252	0x3cb6e0f0	0.022324055
253	0xbed5921d	-0.41713038
254	0x3cc699bd	0.02424323
255	0xbcfb35b9	-0.030665265

fc2.bias f4 [84]
0	0x3bae88dd	0.005326374
1	0xbd82b33a	-0.06381841
2	0xbd40ed1f	-0.047101136
3	0xbb1049e7	-0.0022016705
4	0xbdd97dd1	-0.10619701
5	0xbe1c4aa4	-0.15262848
6	0xbe0ee61e	-0.1395497
7	0x3dd5457e	0.10413645
8	0x3e067b5b	0.13132994
9	0x3d33f7a8	0.043937355
10	0x3dddbf38	0.10827488
11	0xbe1cd1ce	-0.15314409
12	0xbd0eb379	-0.034839127
13	0x3b868637	0.004105355
14	0x3db0ef87	0.08639436
15	0xbd774dd7	-0.06037697
16	0xbd005f0e	-0.03134065
17	0xbd1a6fca	-0.037704267
18	0x3c4cbeae	0.012496633
19	0x3df1a199	0.117984004
20	0xbd93b08d	-0.07211409
21	0x3b4142e6	0.0029489337
22	0xbd24703d	-0.0401461
23	0xbcc5aa97	-0.024129195
24	0xbde7a299	-0.1131031
25	0xbdcf8fa3	-0.101348184
26	0xbd22f1c2	-0.03978134
27	0xbd3cb373	-0.046069574
28	0x3c69b419	0.01426413
29	0xbd9931f3	-0.0748023
30	0xbaed8dc9	-0.001812392
31	0xbcf334d4	-0.029688276
32	0x3d2ab2a3	0.041674268
33	0xbd97b95e	-0.07408403
34	0xbd13431c	-0.035952672
35	0xbbe418af	-0.0069609503
36	0x3cbed39f	0.023294268
37	0xbe0e42ed	-0.13892718
38	0xbdce4c19	-0.10073108
39	0x3dd1bbba	0.10240884
40	0x3c157377	0.009121767
41	0xbe264035	-0.1623543
42	0xbd202b41	-0.03910375
43	0x3da2eb7a	0.0795507
44	0xbe126890	-0.142977
45	0x3c0b6ba4	0.00850955
46	0xbd52f960	-0.051507354
47	0x3dc48058	0.09594792
48	0xbd56a64c	-0.052404687
49	0x3cbb0792	0.022830758
50	0xbd9e54be	-0.07731007
51	0xbdb77eb3	-0.08959713
52	0x3c38f609	0.011289128
53	0x3c9d62d2	0.01921216
54	0xbe24b47f	-0.16084479
55	0xbddccea7	-0.10781603
56	0xbdd3f62c	-0.10349688
57	0xbd9c47cd	-0.076308824
58	0x3d770982	0.0603118
59	0x3e110ed7	0.14165817
60	0x3b526d05	0.0032108438
61	0xbc141504	-0.009038214
62	0x3a04d67f	0.0005067363
63	0xbd2eee96	-0.042708002
64	0xbcd8693c	-0.026417367
65	0xbdf87f22	-0.12133624
66	0xbdab77e8	-0.0837248
67	0x3dbc8978	0.092059076
68	0xbd35c8ea	-0.04438106
69	0xbd984464	-0.074349195
70	0xbc5ec77f	-0.013597368
71	0x3dc0264c	0.093823045
72	0xbd65f4eb	-0.056141775
73	0xb900a5eb	-0.0001226884
74	0x3d8c736e	0.06857954
75	0xbe1d2514	-0.15346175
76	0xbddad204	-0.106845886
77	0x3dc0a1d4	0.09405866
78	0xbc8acebe	-0.016944285
79	0xbc7459c2	-0.014913978
80	0xbe069cb4	-0.13145715
81	0xbe1c5b25	-0.15269144
82	0xbca2fea9	-0.019896822
83	0xbd2eabfc	-0.042644486

fc3.weight f4 [10, 84]
0	0x3e5483e3	0.20753436
1	0xbdb7ded9	-0.08978052
2	0xbe8a9b37	-0.27071545
3	0xbd7d6707	-0.061865833
4	0xbe106f17	-0.14104877
5	0xbc0027ff	-0.007822036
6	0xbeb06d96	-0.34458607
7	0xbe666cde	-0.22502467
8	0xbe71373e	-0.2355623
9	0xbe28a7b9	-0.16470231
10	0xbe880a18	-0.265702
11	0xbe03823d	-0.1284265
12	0xbe3dda85	-0.1854039
13	0xbdb398a8	-0.08769351
14	0x3d6e1ff6	0.05813595
15	0xbe95348b	-0.2914165
16	0xbdbe10e1	-0.09280563
17	0xbdc5704c	-0.096405596
18	0x3d0d9ed8	0.034575313
19	0xbdcf0a16	-0.101093456
20	0xbe0716d9	-0.1319231
21	0xbd83abeb	-0.06429275
22	0x3d9e222b	0.07721361
23	0xbe412dea	-0.18865171
24	0x3c116fc1	0.008876742
25	0xbf368dcd	-0.7131012
26	0xbd5dd57d	-0.054158676
27	0xbc945273	-0.018105721
28	0x3d2766a5	0.040869374
29	0xbe099ddc	-0.13439125
30	0x3dac0293	0.083989285
31	0xbe90c1fd	-0.28273
32	0xbdafa1a5	-0.08575753
33	0xbd747066	-0.059677504
34	0xbd54189b	-0.051781278
35	0xbe3d8322	-0.18507054
36	0x3d95f7eb	0.07322677
37	0xbe45ecea	-0.19328657
38	0xbe068d73	-0.13139896
39	0xbe27bb70	-0.16380095
40	0x3e2c0b91	0.16801287
41	0xbba43450	-0.005011119
42	0xbe79537c	-0.24348253
43	0x3d11b088	0.035568744
44	0xbe9d7527	-0.30753443
45	0xbe857cc6	-0.26071757
46	0xbe8835d5	-0.2660357
47	0x3c83b06c	0.016075335
48	0x3ca58aed	0.020207847
49	0x3de7a682	0.11311056
50	0xbe504d23	-0.20341925
51	0xbda82518	-0.082102
52	0xbe5f4e65	-0.21807249
53	0xbdf9a880	-0.12190342
54	0x3e24a0de	0.16076991
55	0xbe1a0a7e	-0.15043065
56	0x3e1dbf46	0.15404996
57	0xbe9b72f7	-0.3036115
58	0xbdf1c20a	-0.11804588
59	0xbe22200a	-0.15832534
60	0xbe39da4c	-0.1814968
61	0xbe62d273	-0.22150593
62	0x3ca42e98	0.020041749
63	0xbe8379ed	-0.2567896
64	0xbcc30e01	-0.023810389
65	0xbe874fa1	-0.2642794
66	0x3d24082e	0.040046863
67	0xbf044cf8	-0.51679945
68	0xbe0d08cd	-0.13772888
69	0xbd851df8	-0.06499857
70	0xbe039444	-0.12849528
71	0xbeb355bf	-0.35026357
72	0xbd9f7ed3	-0.07787862
73	0x3d0d30fa	0.034470536
74	0xbc1951c0	-0.00935787
75	0x3d9dfe51	0.07714523
76	0xbde2c164	-0.110720426
77	0x3cf681f3	0.030091261
78	0xbd4b2f3f	-0.049605604
79	0x3db39151	0.08767951
80	0xbc9cbd76	-0.01913331
81	0x3df50fbe	0.11965893
82	0x3c9a306c	0.018821917
83	0xbe4c57df	-0.19955395
84	0xbd8b044a	-0.067879274
85	0xbda375ec	-0.07981476
86	0x3ddbd989	0.10734851
87	0x3dab74a8	0.0837186
88	0x3b2401d6	0.0025025508
89	0xbdfb5d1e	-0.1227362
90	0xbed70479	-0.419956
91	0x3dc1641b	0.09442922
92	0xbe54a098	-0.20764387
93	0xbe1897c3	-0.14901643
94	0xbe7104fb	-0.23537056
95	0xbe1eb922	-0.1550031
96	0xbe394e40	-0.18096256
97	0xbe8bb7f8	-0.27288795
98	0x3c1f0122	0.00970486
99	0xbdd44035	-0.10363809
100	0xbdfdb45c	-0.123879164
101	0x3dbf2043	0.09332325
102	0xbd013a20	-0.031549573
103	0x3e11e136	0.14246067
104	0xbe3a12e9	-0.18171276
105	0xbdc1dab1	-0.0946554
106	0x3dd1424d	0.10217724
107	0xbe53323f	-0.20624636
108	0xbd0d5b49	-0.034510884
109	0xbd5c722a	-0.053819813
110	0xbe1e20f8	-0.15442264
111	0x3df830fb	0.12118717
112	0xbe2fd57d	-0.17171283
113	0xbdfbb490	-0.12290299
114	0xbe35cb08	-0.17753232
115	0x3df1181b	0.11772176
116	0x3e0cc4d4	0.13746959
117	0x3c882ff4	0.016624428
118	0xbe7ffccb	-0.24998777
119	0xbd8e365b	-0.06943961
120	0x3e105cb5	0.14097865
121	0x3c992c49	0.018697875
122	0xbe3d1470	-0.18464828
123	0x3e092f01	0.13396837
124	0xbdb5147e	-0.08841799
125	0xbb625735	-0.0034536843
126	0x3dc289fd	0.094989754
127	0xbdd46f35	-0.103727736
128	0xbdd4aa85	-0.103840865
129	0xbdcda56f	-0.100413196
130	0xbe0fe91f	-0.14053772
131	0x3ce8b73c	0.028407685
132	0x3e24f49a	0.16108933
133	0xbe461df8	-0.1934737
134	0xbe90879f	-0.2822847
135	0xbc26a63f	-0.010171472
136	0xbea50883	-0.32233056
137	0xbe626d23	-0.22111945
138	0xbdbb11cc	-0.09134254
139	0x3d787734	0.060660556
140	0x3c40a138	0.011757188
141	0xbe705bcc	-0.23472518
142	0x3d933a67	0.07188874
143	0xbd008e07	-0.031385448
144	0x3e1af479	0.15132321
145	0x3d8736f8	0.06602281
146	0x3dd8860a	0.10572441
147	0x3c030d3e	0.007998763
148	0xbe3e75dc	-0.18599647
149	0x3c6f583d	0.01460844
150	0xbe492fdb	-0.19647162
151	0xbdd5aa31	-0.10432852
152	0xbeb94a78	-0.36189628
153	0xbde0a03c	-0.10968062
154	0xbc11e396	-0.008904358
155	0x3dfc1ecd	0.12310562
156	0x3d462b52	0.048381157
157	0x3e1dba1b	0.15403025
158	0xbe0a4a81	-0.13504983
159	0xbbfc574a	-0.0077008354
160	0xbeb6cc62	-0.35702807
161	0xbde17620	-0.11008859
162	0x3d8ee328	0.0697692
163	0xbe63dd23	-0.22252326
164	0xbdbddb91	-0.092703946
165	0xbdda5621	-0.10660959
166	0xbe3d087a	-0.18460265
167	0x3da1b1fd	0.07895277
168	0xbe781630	-0.24227214
169	0xbdca936e	-0.09891401
170	0x3cc8c31a	0.024507094
171	0xbda5432e	-0.08069454
172	0xbd861ec7	-0.06548839
173	0x3d37133b	0.044696074
174	0xbe5c38c1	-0.21506025
175	0x3e0aab0c	0.13541812
176	0xbe80d8a5	-0.25165287
177	0xbe63ad0c	-0.22233981
178	0x3dca83f9	0.09888453
179	0xbd32803f	-0.043579336
180	0xbe4f3d79	-0.20238294
181	0xbedf7425	-0.436433
182	0x3dd256d9	0.10270471
183	0xbe8bd663	-0.27312002
184	0xbe3449d3	-0.17606287
185	0xbd76dd72	-0.06026978
186	0xbdde459a	-0.10853119
187	0x3e059d09	0.13048185
188	0xbde85fb6	-0.113463804
189	0xbde8ca7d	-0.113667466
190	0xbdf19ab6	-0.11797087
191	0xbe17a77a	-0.14809981
192	0xbce12a31	-0.027485939
193	0xbd8c8634	-0.06861535
194	0xbb9bd047	-0.004755053
195	0x3d3316be	0.04372286
196	0xbd965f7d	-0.07342432
197	0x3cf75c9e	0.03019553
198	0xbea61c49	-0.32443455
199	0xbe2c30c7	-0.16815482
200	0x3e3fa21e	0.18714187
201	0x3d7c120c	0.06154065
202	0xbc12cfd6	-0.008960685
203	0x3e860705	0.2617723
204	0xbba07f6f	-0.004898004
205	0xbde9a9e2	-0.11409356
206	0x3dba0d48	0.090845644
207	0xbe305e74	-0.17223531
208	0xbe6fd7e8	-0.23422205
209	0xbdabb475	-0.08384029
210	0xbdd852fb	-0.10562702
211	0x3e0392c4	0.12848955
212	0xbe555b0e	-0.20835516
213	0xbe7d177b	-0.24715988
214	0xbeb3c505	-0.3511125
215	0xbe53ea56	-0.20694861
216	0xbdca363a	-0.09873624
217	0xbe55637d	-0.20838733
218	0x3d2a2e9a	0.04154835
219	0xbe41ba42	-0.18918708
220	0x3d9e4d89	0.077296324
221	0xbdbad3a6	-0.091224
222	0xbdb3f3d0	-0.08786738
223	0xbbb87258	-0.005628865
224	0x3d1e1485	0.038593788
225	0xbd0cf9b5	-0.034417827
226	0x3cc9fc45	0.024656424
227	0xbe1301e0	-0.14356184
228	0xbe814e3a	-0.25254995
229	0x3cce98a7	0.025219275
230	0x3d0a0380	0.033694744
231	0xbd2607c1	-0.04053474
232	0x3d707f44	0.05871512
233	0x3dfb6990	0.12275994
234	0xbe011992	-0.1260741
235	0x3c4f22de	0.01264259
236	0x3c99dfff	0.018783567
237	0xbda33ac8	-0.07970196
238	0x3dd7f187	0.105441146
239	0x3c993f79	0.018707024
240	0xbd9a1777	-0.07524007
241	0xbd900e35	-0.0703396
242	0xbe34eebb	-0.17669193
243	0x3cf61f9e	0.030044373
244	0xbdae7a3b	-0.08519407
245	0x3c2d51c0	0.010578573
246	0xbcf46695	-0.029834071
247	0x3e1f2044	0.15539652
248	0xbc576443	-0.013146463
249	0x3d6b2168	0.057404906
250	0xbb757fdc	-0.0037460243
251	0xbd849483	-0.06473639
252	0xbe58ed94	-0.21184379
253	0x3db92906	0.09041028
254	0x3d4b62cb	0.049654763
255	0xbe14067f	-0.14455603

fc3.bias f4 [10]
0	0xbdc2a56f	-0.0950421
1	0xbc72dead	-0.014823598
2	0x3d9b2931	0.07576216
3	0x3cda6baa	0.026662666
4	0x3df1c71a	0.11805554
5	0x3d24cbc0	0.040233374
6	0xbe4b519e	-0.19855353
7	0xbd0188c7	-0.03162458
8	0xbc91fcbd	-0.01782071
9	0xbd3f6b19	-0.046732996
