models/cnn_checkpoint.pth (torch, 451995 bytes, 10 tensors)

conv1.weight f4 [16, 1, 5, 5]
000000 d7 82 05 3e 1e df c6 3d 3a 5e e8 bb e7 97 5c be
       0.13038193 0.09710525 -0.007091311 -0.21542321
000010 30 0a 4f bd 8c a3 ef bd 74 0f d4 3b bb 68 b8 3c
       -0.050546825 -0.11701116 0.0064715687 0.022510877
000020 09 84 18 be cf 1f 0e 3e 94 f0 19 3b e5 bb 5b 3d
       -0.14894117 0.13879322 0.0023489343 0.053645987
000030 9e cb 13 3c 75 3b 8d 3d 33 ca 58 bd 63 5a 0f 3c
       0.009020714 0.06896106 -0.052927207 0.008749577
000040 79 f7 32 3d 6f c8 44 3e 2d ec 0e 3e af e9 86 be
       0.04369304 0.19217084 0.13957281 -0.2635016
000050 7b df 8d 3d 95 67 43 be 7f 10 c3 bd 67 c3 49 be
       0.06927391 -0.19082482 -0.09524631 -0.19703446
000060 02 91 1e 3e b9 41 03 3e 57 6f 83 be 3a 58 c7 be
       0.15485004 0.1281804 -0.25670883 -0.389345
000070 8c d1 7c 3e 9f 85 67 be cb a9 b1 3b aa a5 1f 3e
       0.24689311 -0.22609566 0.005421852 0.1559054
000080 39 d5 28 3e 2f e5 93 3e f6 2e 15 be 54 da 02 3e
       0.16487588 0.2888579 -0.14568695 0.12778598
000090 60 0a b2 3d 59 ab 3f bd 6f 68 65 3e f2 31 67 be
       0.08693385 -0.04679427 0.2240312 -0.22577646
0000a0 63 3b b4 3d 2f dc b2 be ca c8 d8 3d 4a d6 25 be
       0.088003896 -0.34933612 0.105851725 -0.16195026
0000b0 bd 84 78 be f9 06 93 3d fb fa 95 be cf 01 af 3c
       -0.24269386 0.07179064 -0.29293045 0.021363167
0000c0 85 00 c0 3d 65 c2 2a 3d de 57 c1 be 19 18 85 be
       0.09375099 0.041689295 -0.3776235 -0.25994948
0000d0 95 d4 57 be 75 85 f2 3c ce 78 19 3d e7 65 22 be
       -0.21077187 0.029604653 0.037468724 -0.15859185
0000e0 9d 15 a4 bd 89 f8 61 3e a9 7c df 3d 84 e0 89 3c
       -0.08011935 0.22067465 0.10912449 0.01683069
0000f0 ae d9 c5 3c 40 08 ba 3d 37 bf 49 3d 95 82 2e 3e
       0.02415165 0.09083605 0.049254622 0.17042
000100 00 8c 61 be 9d 9e 1a be c0 82 76 3d 48 7a fb 3d
       -0.22026062 -0.15099569 0.060183287 0.12279183
000110 c4 56 d7 3d e6 b5 92 be 17 e4 06 be f0 08 54 3c
       0.10514596 -0.28654402 -0.13172947 0.012941584
000120 85 06 19 3e c5 81 4a 3e 43 40 d4 bd 69 3c 23 3e
       0.14943893 0.19776066 -0.103638195 0.15941013
000130 4d d1 36 3e 7e 12 b5 bd be 58 10 3e 5a 00 30 bb
       0.1785328 -0.08841418 0.14096352 -0.0026855678
000140 67 5e 8a bd 31 27 22 3d 64 38 8a bd 90 d6 23 3e
       -0.06756287 0.039588157 -0.06749037 0.15999818
000150 55 88 9f bd 7a d6 a4 be 16 6a 2c be ff 25 35 be
       -0.07789675 -0.32194883 -0.16837344 -0.17690276
000160 c2 67 2d 3e 71 66 37 3e 16 a0 c6 be c7 ae 09 be
       0.16934112 0.17910172 -0.3879401 -0.13445579
000170 2c d8 38 3e 04 83 74 3e ea 72 67 bd 37 15 13 3e
       0.18051213 0.23878103 -0.056506075 0.14363562
000180 fc 6a f8 3d 3b fa 50 3e 8d cd 38 bd 92 e0 83 3c
       0.12129781 0.20407955 -0.045117904 0.016098294
000190 5a d7 26 3e d6 d2 3b 3e d2 31 e5 3d 7f 17 1e be
       0.16293088 0.18342146 0.11191143 -0.1543865
0001a0 36 3f d6 3d 21 6b 19 3d d8 23 7e 3e 4d 38 e0 3d
       0.10461275 0.03745568 0.24818361 0.109482385
0001b0 a6 7d 29 3e 43 3c 2e 3e 9a b8 f6 bd a3 b0 3c be
       0.16551837 0.17015176 -0.12046929 -0.18426757
0001c0 6d 85 6b bc 30 e7 af 3d 7c 3a d4 bc 75 6b 02 be
       -0.014375073 0.085890174 -0.025906794 -0.12736304
0001d0 80 e2 a1 bd e4 de c6 be b7 64 b3 be 80 27 fd bd
       -0.079045296 -0.38841927 -0.35037777 -0.1236105
0001e0 f0 d0 3b 3d f9 9d f2 bd e9 c9 07 3e 6c 40 e9 bc
       0.045853555 -0.11846537 0.13260616 -0.028473102
0001f0 2c 3f 0a be 3d 77 72 be 4d 6c bf bc 3a c2 20 3e
       -0.1350066 -0.23678298 -0.023367072 0.15699092
000200 88 1a 1a 3e 97 1b 9c 3e fa fa ec 3d cf 2d 6f 3e
       0.15049183 0.304898 0.115713075 0.23357318
000210 5f 32 6f 3e 0b 98 13 3e ea c3 66 3c e5 2c a0 3e
       0.23359059 0.14413469 0.0140847955 0.31284252
000220 37 54 4c 3e 1c 4b 63 3e e0 76 c6 bc ec 87 55 be
       0.19954 0.2219662 -0.024226606 -0.20852631
000230 2b 67 37 bc 89 da f4 bd b6 84 55 be 71 87 cc be
       -0.011194031 -0.11955745 -0.20851406 -0.39947084
000240 58 3d 59 be 76 da 33 bd 6e 4b 76 be 7b 94 90 be
       -0.21214807 -0.043909512 -0.24052212 -0.28238282
000250 ca 7c 35 be 7b e9 ae ba ad cf 8e 3d 5b 2b 2c be
       -0.17723384 -0.0013344729 0.06973205 -0.16813414
000260 6c 28 8a 3e 23 0a 75 3d 52 d8 75 bd d1 97 0d be
       0.26983964 0.05982412 -0.060020752 -0.13827445
000270 c3 6a f5 bc 57 9f 0a bb e0 bf 99 be bf 58 98 be
       -0.029958135 -0.0021152103 -0.30029202 -0.29755208
000280 7b 96 03 3e ab 87 c5 3b 49 e4 24 3e 25 70 1f bd
       0.12850372 0.006028136 0.16102709 -0.03892531
000290 86 87 fc 3b ed 94 33 3e 14 82 aa 3d 5b 7b f8 3d
       0.0077065853 0.1753728 0.08325592 0.12132903
0002a0 31 d8 82 3e 3d 95 8b bd fa 68 a3 be a6 88 76 be
       0.25555566 -0.06815574 -0.31916028 -0.24075565
0002b0 54 c6 4d be e4 f3 3b 3d 1f 1e 50 3e 98 cc 8b 3d
       -0.20095187 0.04588689 0.2032399 0.068261325
0002c0 41 0a 5d be 6d ee 34 be b7 78 f9 be e1 7d 98 be
       -0.21585943 -0.17669077 -0.4872491 -0.29783538
0002d0 08 b3 f2 3d f5 b9 4f bd ba 0b 9f 3d ea db a0 bb
       0.11850554 -0.05071445 0.077659085 -0.0049090283
0002e0 9b de 7e bd 1f de 2f 3e 4c 38 51 3e a4 05 a5 3e
       -0.062224012 0.17174576 0.20431632 0.32230866
0002f0 b5 0d 32 3e fe 2a 22 3e e9 ee d4 3c 5f 8e 2e bc
       0.17388041 0.15836713 0.025992827 -0.010654061
000300 34 8a 0b 3e 22 e0 81 3e 39 d6 af bd 3f e4 89 be
       0.13626939 0.25366312 -0.085857816 -0.2693195
000310 d7 7c ac 3d c0 79 d5 bd 12 d1 18 be 15 0c 1f 3e
       0.08422249 -0.104236126 -0.14923504 0.15531953
000320 61 23 41 be 0a 05 68 be aa bc 0f 3e 44 2a cc bd
       -0.18861152 -0.22658172 0.14036813 -0.09968999
000330 de 29 f8 bd 5b a8 17 3e 1d 1a 55 3e 65 46 3c 3e
       -0.121173605 0.14810316 0.20810743 0.18386228
000340 92 ef 9f 3e b8 2c 04 3e 0e f2 7b 3e 25 d2 2f bd
       0.31237465 0.12907684 0.24604055 -0.04292502
000350 38 e5 6b 3e 9e 22 84 3e a3 3e 23 3d 5f 8d 1e bd
       0.23036659 0.2580766 0.039854657 -0.03870904
000360 aa 8a a8 be 7e 03 3a be 43 a2 47 39 eb 3f 18 3d
       -0.32918292 -0.18165395 0.00019038566 0.037170332
000370 45 7c 48 be 96 85 af be 2e 38 a0 be 4a de fb bd
       -0.19578655 -0.34281605 -0.31292862 -0.12298258
000380 64 7d bc 3d f6 04 67 be 83 b4 26 be 2c da 20 3d
       0.09203604 -0.22560486 -0.16279797 0.039270565
000390 80 c2 aa 3e 86 2b 73 3e 3d 43 94 bd 00 46 c5 be
       0.33351517 0.23747072 -0.07239387 -0.38529968
0003a0 df 41 13 bc cb 4f 8f bb 4c c7 93 3e f3 63 66 be
       -0.008987873 -0.0043735257 0.2886299 -0.22499065
0003b0 36 da a7 be 8f 6b 9e be dc 61 73 3d f9 df 27 3e
       -0.3278367 -0.30941436 0.059419498 0.16394033
0003c0 c1 59 6c 3d 0c 0f 00 be 8e 13 eb be 29 be db be
       0.057702783 -0.1250574 -0.45913357 -0.42918518
0003d0 a2 67 35 3e 2e 71 be 3b b5 94 7f 3d d2 44 f7 bb
       0.17715314 0.005811832 0.062397677 -0.007546046
0003e0 1f 36 2f be fd 8a 4c be 3b e3 a7 be 25 61 90 bd
       -0.1711049 -0.19974895 -0.3279055 -0.07049779
0003f0 7d 45 77 bd d6 7b e9 3d 7d 8d 24 3d fb da 1a be
       -0.060369004 0.11400573 0.040173996 -0.15122597

conv1.bias f4 [16]
000000 c9 7a 80 be 09 ce b3 be e7 3a a1 be 4a a4 ab be
       -0.25093678 -0.3511813 -0.3149025 -0.3352378
000010 c8 31 57 3c 6a 6f 19 be 94 4e 8d be 09 fc e9 bd
       0.013134427 -0.14983907 -0.27599013 -0.11425025
000020 01 3d 76 be d9 91 8b be e0 4b b3 3b 2d ae 28 be
       -0.24046709 -0.2725971 0.0054716915 -0.16472693
000030 24 11 8e be 0c d3 c3 be 37 46 8c be 52 f4 6e be
       -0.27747452 -0.38246953 -0.2739732 -0.23335388

conv2.weight f4 [32, 16, 3, 3]
000000 72 89 37 bc 89 37 60 bd 29 29 e3 3d b4 7a a8 bd
       -0.011202203 -0.054740462 0.11091835 -0.08226529
000010 4a 2d 8d bd 3d eb c0 bc 01 b5 52 bc 42 11 de 3d
       -0.06893404 -0.02354967 -0.0128605375 0.108431354
000020 18 e3 67 bd b1 3c 86 bd e8 46 6f bc 0e 33 2c be
       -0.056613058 -0.06554545 -0.014604308 -0.16816351
000030 bb ca eb 3b 93 bd 59 bc 68 0a 5d bb 39 63 fe 3b
       0.007195798 -0.013289827 -0.0033728126 0.007763293
000040 d2 a2 c5 3d 8d 0c 0c 3d 19 17 0e bd e4 95 08 3e
       0.09650196 0.034191657 -0.034689996 0.13338429
000050 6f ea 93 bd bf e5 08 3e 34 dc bd 3d e4 9c d6 bd
       -0.07222449 0.13368891 0.09270516 -0.10479143
000060 8e 91 5b be 49 48 ce bb d5 f5 7e bb 67 c1 2c 3e
       -0.21442243 -0.006295238 -0.0038903852 0.16870652
000070 f2 17 3b b9 c2 41 76 be 86 45 60 bd 56 c5 3e bc
       -0.0001784263 -0.24048522 -0.054753803 -0.011643728
000080 c3 0f 52 be ce c9 ed bd 11 dc 76 bc c0 e3 f7 bd
       -0.20513825 -0.11610757 -0.015067116 -0.12103987
000090 b6 d2 2d be 36 85 80 3d 5f ad 84 3e 28 a1 1c be
       -0.16974911 0.06275408 0.25913522 -0.15295851
0000a0 48 e7 b7 3d ee 1e aa 3d 1a 45 91 3a 2a a8 de 3d
       0.0897966 0.083066806 0.0011083216 0.108719185
0000b0 f0 b3 93 bd 8d 94 5f be 1e a4 51 3e 33 68 2f 3e
       -0.07212055 -0.21834011 0.20472762 0.17129593
0000c0 6d 45 fe 3c 2d f5 30 bd e3 78 d0 bd 6f cf 89 bd
       0.031038964 -0.043202568 -0.10179307 -0.06729018
0000d0 84 d0 54 be b7 e7 d1 bd 27 c1 e4 bd ab c5 db 3d
       -0.20782667 -0.10249274 -0.111696534 0.107310615
0000e0 1c 85 50 3d 86 08 e3 bd 27 0b 08 bd d3 35 c0 3d
       0.050908193 -0.1108561 -0.03321376 0.09385266
0000f0 05 54 81 3e 9e 0b 90 3e 54 0f 3a 3e ab c7 10 bd
       0.25259414 0.28133863 0.1816991 -0.03534667
000100 eb 4c d6 be cf 1d 86 be ac 61 4e be 16 31 c5 bd
       -0.4185556 -0.26194617 -0.20154446 -0.09628503
000110 8e 36 f6 3c 19 72 cf 3d 1f 60 4c 3d da 75 d2 3d
       0.03005531 0.10129184 0.049896356 0.10276385
000120 c0 48 5a be 26 91 03 be 4d b2 cb 3d f1 69 3c 3d
       -0.21316814 -0.12848338 0.099461176 0.04599947
000130 f1 2c 02 3e 1d ff de bc 5d 64 1c 3e 9c f0 19 3e
       0.12712456 -0.027221257 0.1527266 0.15033191
000140 d9 f4 b5 3c 2f dd 6f bd e4 13 98 be d0 9f b4 bd
       0.022211479 -0.058560546 -0.29702675 -0.08819544
000150 86 aa 22 3d 4a ab 94 bd 06 80 2a be 4e 54 0a 3e
       0.039713405 -0.07259233 -0.166504 0.13508722
000160 51 4d 67 3e 15 66 98 be ac ce 0b bd c0 aa 26 bf
       0.22588088 -0.29765382 -0.034132645 -0.65104294
000170 55 5e a9 be 4c b4 a4 be 4b 2e c9 be 44 7d 6a bd
       -0.33079782 -0.32168806 -0.3929313 -0.05724837
000180 39 be 8c be 51 20 03 be 72 08 ba 3c f7 b3 36 bb
       -0.27488878 -0.12805296 0.022709105 -0.0027878263
000190 63 b8 c4 be 53 df 91 be 0d 84 4e be c9 00 0f be
       -0.38421926 -0.28490695 -0.20167561 -0.13965143
0001a0 2d 00 80 3b a2 c2 87 3d 40 21 0f 3e 3b 7b c5 3d
       0.003906271 0.0662892 0.13977528 0.09642645
0001b0 fa 0b e1 3c 50 57 22 3e d8 9d e0 3d ae 4a 0c 3d
       0.027471531 0.1585362 0.10967606 0.034250908
0001c0 d7 13 4a 3b dd d1 3b bc 96 fa 50 3d fb 2e 18 3e
       0.003083458 -0.0114636095 0.051020227 0.14861672
0001d0 65 d4 d1 3d ed f1 13 bd be 7c 2f 3c 38 36 f4 bc
       0.10245589 -0.03611939 0.010710893 -0.02981101
0001e0 58 53 a7 bd f6 4f 10 3d 47 12 93 be 30 eb 60 bc
       -0.081701934 0.035232507 -0.28724882 -0.013727948
0001f0 14 ef 00 3e a8 9e 7f bc b1 f7 25 be 13 02 fb 3c
       0.12591201 -0.015601791 -0.16207768 0.030640638
000200 8b a0 f6 3d cd 85 cc bc 00 72 45 be 19 2a de 3d
       0.1204234 -0.024966145 -0.19281769 0.10847873
000210 c3 80 7a bd 4b 11 ec 3b 0e a0 e9 3d 15 ec af 3d
       -0.061157953 0.00720421 0.11407481 0.08589951
000220 dc bf fd 3d 15 2c 58 be be 29 94 bc 97 63 5c 3d
       0.1239011 -0.21110566 -0.01808631 0.053805914
000230 35 25 ad be e1 50 02 bd 7a da ed bd e8 57 b6 be
       -0.3381745 -0.031815413 -0.11613937 -0.35613942
000240 52 f8 3f bd 84 02 05 bd fa 5d b7 3d e4 72 04 bb
       -0.046867676 -0.032473102 0.089534715 -0.0020210082
000250 07 35 d8 bd 27 2f 66 3d e7 27 05 3d 1d 3a 09 bd
       -0.10556989 0.05619731 0.032508757 -0.033502687
000260 b6 38 a8 3c 4c 7e 9f 3d 25 a1 57 3d 55 31 5c 3b
       0.020534854 0.07787761 0.052643914 0.003359874
000270 a0 99 48 be 6e 42 42 3d bc 04 cb 3d 0a 70 32 be
       -0.19589853 0.047426634 0.099130124 -0.17425552
000280 4f 40 a2 bd b0 04 84 3d 2d 20 d7 3d c3 b8 41 bd
       -0.07922422 0.064462066 0.10504184 -0.047295343
000290 2b 0c 5f bc 7d 03 a3 3c 87 2b 03 be e0 03 7f 3b
       -0.013613741 0.019899124 -0.12809573 0.0038912222
0002a0 24 e9 72 be 2c 9f 7c be 01 7a ea bd cd 48 ab 3d
       -0.23721749 -0.24670094 -0.11449052 0.08363495
0002b0 a2 82 a0 bd bc b2 eb bc 6a 09 4d be 34 36 91 bd
       -0.07837416 -0.02877175 -0.20023122 -0.070904166
0002c0 6d 4b c3 bc d4 f4 9a 3d ae f7 03 be b5 41 20 be
       -0.023839677 0.075662285 -0.12887451 -0.15650065
0002d0 3f e1 a5 be bb e4 d9 bd 14 a4 19 bd c2 8b be bc
       -0.32398412 -0.1063933 -0.037509993 -0.023260001
0002e0 7c 14 b2 bd bb ee 83 3d 71 2e 0b 3e 4b cb da 3d
       -0.08695313 0.064420186 0.13591935 0.10683306
0002f0 15 74 c3 3d e1 5b 1c be 83 90 0e 3d 8b 1f 37 3d
       0.09543625 -0.15269424 0.034805786 0.044707816
000300 cc ed 11 bd 6e ae 08 be d6 82 5d 39 59 24 cb bc
       -0.03562717 -0.1334779 0.00021124943 -0.024797605
000310 89 1f 40 3d 46 42 e7 3d a6 58 06 be dc 28 28 be
       0.046905074 0.112919375 -0.13119754 -0.16421837
000320 75 48 a8 3d 28 b9 d2 3d 9a 73 87 bc e1 01 48 be
       0.08216945 0.10289222 -0.016534615 -0.19531967
000330 4a 9c 80 3c df c6 4b 3d 48 9d ee bb ec b0 ac 3d
       0.015699524 0.049750205 -0.007281933 0.08432183
000340 af e9 d8 3d 4d 1c 03 3e d4 02 0a 3d ec 40 12 3d
       0.105914466 0.12803765 0.033694103 0.035706446
000350 f2 a3 0a 3e 8b 06 2a be eb c8 94 3c 5b 43 8a bd
       0.13539103 -0.16604058 0.018162211 -0.06751128
000360 5b ea 94 be 0c dc 8b bd 35 26 22 be 20 9e 2f 39
       -0.2908505 -0.0682908 -0.15834887 0.00016748207
000370 d9 f7 0c be 41 33 b7 3c f6 c5 a2 3c 91 44 37 3d
       -0.13766421 0.022363307 0.019869786 0.044743124
000380 b5 71 75 3d 76 59 88 be 70 f2 d7 bd 5d 37 84 be
       0.059922893 -0.26630753 -0.10544288 -0.2582349
000390 49 e6 a2 be fc a4 2b be 70 31 e4 be a5 cd 0b be
       -0.3181632 -0.16762155 -0.44568968 -0.13652666
0003a0 9e 54 e7 bd 99 14 b8 bd cb 37 d1 bd 5b 6d 09 be
       -0.11295436 -0.08988304 -0.1021572 -0.13420622
0003b0 87 a6 b9 bd 79 09 8d bd 37 39 06 be 7f 93 9a bc
       -0.09064966 -0.068865724 -0.13107763 -0.01886916
0003c0 ee 27 74 be e6 0f cb be 89 14 8c be 89 f3 fb 3c
       -0.23843357 -0.39660567 -0.27359417 0.030755775
0003d0 2c 5a 0d 3d c1 04 46 3d d9 e7 f8 3d c1 a7 c1 3d
       0.034509823 0.048344377 0.121535964 0.09455825
0003e0 a7 4a 35 3e 84 83 1f 3b 61 8b c6 39 2e 25 57 bd
       0.17704259 0.0024339864 0.00037869348 -0.05252569
0003f0 3f 0b da 3d e0 ae 95 3c 52 a7 10 3e 0f 50 e5 bc
       0.10646676 0.018271863 0.14126328 -0.027992276

conv2.bias f4 [32]
000000 98 d0 97 3c 9a c0 0e 3d 4d 09 67 bd 9f 78 15 bd
       0.018532082 0.034851648 -0.056405354 -0.036491986
000010 15 e0 9c bc 09 af 08 be 78 37 f5 3b 4e 63 00 bc
       -0.01914982 -0.1334802 0.007483419 -0.007836176
000020 52 e6 03 bc a0 b3 d8 bc c5 48 06 be f4 31 f7 bd
       -0.008050518 -0.02645284 -0.13113697 -0.12070075
000030 db 66 ca bd 58 10 3e bd aa 5f c3 3c ff 17 fe bd
       -0.098828994 -0.046402305 0.023849327 -0.12406921
000040 31 a4 b9 bd 04 7c 82 3b 57 bd b7 bd b0 59 41 3d
       -0.0906452 0.003982069 -0.089716606 0.047204673
000050 2a 13 bb 3d 51 db 14 be d3 7d 87 3c 45 b7 15 bc
       0.09134515 -0.14536788 0.01653949 -0.009137933
000060 90 44 aa bd 4f ed f7 bb d1 7f 8c 3d 76 e9 dd bd
       -0.083138585 -0.007566131 0.068603165 -0.10835545
000070 92 b5 59 bd 83 78 ee bc c0 dc f0 3d dc 76 96 3c
       -0.053151675 -0.029110199 0.11760855 0.018367223

fc1.weight f4 [120, 800]
000000 86 74 1a bc 35 2e 99 3b 0c 1b 98 3a f9 4d 7f 3c
       -0.009427195 0.0046746978 0.001160474 0.015582555
000010 0c a8 56 3c 61 9f b1 bc fb 52 b3 3b 1f 94 82 bc
       0.013101589 -0.021682443 0.0054725385 -0.01593977
000020 a2 53 62 3b f2 ad 67 bc 06 ea 8e bc a2 61 5d 3c
       0.0034534712 -0.014140593 -0.017445575 0.013512047
000030 74 d9 a0 bc 98 ba 4c bc 90 fc 56 bb c7 92 e6 3c
       -0.01963494 -0.012495659 -0.0032804348 0.02814616
000040 79 f4 ce 3c 25 dc 06 3b f1 5e 92 3c 6b 23 46 bc
       0.025263058 0.0020577994 0.017867537 -0.012093405
000050 18 98 9f 3c 0a 57 25 bc e7 1d 98 3c 0d 5e f0 bb
       0.019481704 -0.0100915525 0.018568946 -0.0073354305
000060 0c 99 80 ba 0e 9d 74 3c 22 39 3a 3b fb 4e 35 3c
       -0.0009811237 0.014930023 0.0028415401 0.011066194
000070 54 3a 20 bd 95 c1 e7 bc 51 92 0b 3b 74 de 3d 3c
       -0.039118126 -0.02829055 0.0021296928 0.0115886815
000080 11 e0 ca bc a6 7a c1 bc 4b 66 9c bc c1 cd f3 b9
       -0.024765046 -0.023618054 -0.019091746 -0.0004650187
000090 f9 94 5d ba 1b 50 0e bd 32 72 d9 3c 8b 77 72 bc
       -0.00084526796 -0.034744363 0.02654371 -0.014799009
0000a0 28 65 0d bd 7e a7 7c 3c 6b 62 b5 3c 99 f5 91 3b
       -0.0345203 0.015420793 0.022141656 0.0044543264
0000b0 e9 11 4f ba 6c 9e e4 3c 62 2b a1 bc 78 36 83 bc
       -0.0007899092 0.027907573 -0.019674007 -0.016017184
0000c0 bf 92 0a bc 7d 89 a7 bc 01 27 63 bc 7b 2e a7 3c
       -0.008457839 -0.020451302 -0.01386428 0.020407906
0000d0 78 88 a9 3b 61 83 04 bd 13 2e 19 bd b0 11 4a 3c
       0.005173739 -0.032351855 -0.037397455 0.012333319
0000e0 16 77 1a bd cb c3 e1 bc 74 60 08 bd b0 fe 94 bc
       -0.037711225 -0.027559182 -0.03329511 -0.01818785
0000f0 00 7e bf 3c 7c 25 05 bd ed a8 ad bc 65 2b ca 3c
       0.023375511 -0.03250645 -0.021198714 0.024678895
000100 a1 0a 98 3c 2e 50 e7 3b b1 22 25 ba 23 f8 e5 3c
       0.018559756 0.0070591187 -0.000629942 0.028072422
000110 54 4f f6 ba 17 39 2c 3c 02 74 c3 3c 4c b2 a1 3c
       -0.0018791952 0.010511658 0.023859028 0.019738339
000120 5c 5f cf 3b 32 32 ae 3c 5e 86 ca bc 06 d1 91 ba
       0.0063285064 0.02126417 -0.024722274 -0.0011124916
000130 b8 7a 0a bd a2 3a be bc f2 a3 68 bc f4 20 85 bc
       -0.03380844 -0.023221318 -0.014199244 -0.016251065
000140 93 f6 19 bd a2 47 f5 bc 69 db d3 bb ad 30 c8 3c
       -0.037588667 -0.029941384 -0.0064653647 0.024437273
000150 64 5d c6 3c ea a2 a4 bc 76 bc eb bc 8f 9a 8e bc
       0.024214454 -0.020097215 -0.028776389 -0.017407684
000160 b2 07 21 3d a1 8d ef bc 22 ed e3 bc c9 16 88 3c
       0.03931398 -0.029242339 -0.027823035 0.016612427
000170 96 0b b9 3c c9 a1 dd 3c b1 3e c8 3c db 73 23 bd
       0.022588532 0.027054684 0.024443956 -0.03990541
000180 67 68 c1 bb b3 3d b4 3c f4 fd d2 bc ab 78 18 bd
       -0.0059023383 0.022002077 -0.02575586 -0.037224453
000190 b1 17 bb 3c c3 24 05 bd 0e 4c 04 bd de 32 e9 bb
       0.022838445 -0.03250576 -0.032299094 -0.0071166595
0001a0 b3 e9 b4 bc b3 3c c6 3a 0f 09 0a bd 4a 96 fd 3c
       -0.022084093 0.0015124291 -0.033700045 0.030955452
0001b0 33 2f 9a bb 9d 7b d3 bc 49 e7 65 bc 53 79 8a 3c
       -0.0047053336 -0.02581578 -0.014032193 0.016903555
0001c0 3e cc 31 bc fc 36 b1 3c d8 5d ff bc fb c7 ef bc
       -0.010851918 0.021632664 -0.031172678 -0.029270163
0001d0 90 be 38 bd 36 eb c1 39 8b 5d db 3c 9d 20 54 3c
       -0.04510361 0.00036987074 0.026778003 0.012947229
0001e0 27 34 7d bc 42 d0 8f 3c 1b cb 99 bc fe 0f 8d 3c
       -0.015454329 0.01755536 -0.018773606 0.01721954
0001f0 39 8e de 3c d3 8e 29 3c f5 50 27 bc 51 a5 98 3c
       0.027167426 0.010348993 -0.010212173 0.018633517
000200 02 8e c2 bc fe d0 57 3c 7e 52 ca bc 97 30 b1 bb
       -0.023749355 0.013172386 -0.024697538 -0.0054074037
000210 d7 c5 00 bd ec 29 90 bc dc 26 e1 bc 5c 5d d2 bc
       -0.031438675 -0.017598115 -0.02748435 -0.025679283
000220 7a 6a a9 3b 6f 45 b0 3c 82 ad 88 3b d9 09 66 3c
       0.0051701637 0.021517484 0.0041710744 0.014040434
000230 5c a8 05 3c f1 3a ee 3c 32 33 01 bc c3 0d 90 bc
       0.008157816 0.02908084 -0.007885741 -0.017584687
000240 7c 34 a6 b9 e9 ed 8f 3c d1 d6 dc bc 82 10 6c 3c
       -0.0003170109 0.0175695 -0.026957901 0.014408233
000250 d0 9c de 3c 73 52 dd 3c 87 d9 31 3a 78 ec 19 bb
       0.027174383 0.027016854 0.0006784428 -0.0023486894
000260 e9 5f 96 bc 9c b7 8d bc 49 11 69 bc 23 85 25 bd
       -0.01835628 -0.017299466 -0.0142253125 -0.040410172
000270 10 34 63 bc d0 33 14 3b 6e c8 94 3c 83 c3 d3 3b
       -0.013867393 0.002261389 0.018161979 0.006462516
000280 82 79 1d bd f3 d0 ba bc a0 31 d0 3b b9 2f 27 bc
       -0.038445957 -0.022804713 0.006353572 -0.010204249
000290 49 06 ab bc e1 43 ae 3c bb 20 d8 bc 08 6a ac 3c
       -0.02087702 0.021272602 -0.026382795 0.021046653
0002a0 5b 9e 49 bd d6 3f 1f ba d3 44 33 bc 66 a0 f0 bc
       -0.049223285 -0.0006074881 -0.010941702 -0.029373359
0002b0 b2 98 20 bd 3d 84 4e bd c2 c0 59 bc 87 00 30 3c
       -0.03920812 -0.05041908 -0.013290586 0.010742313
0002c0 de b8 f4 bc f7 7c a6 3b 79 8b da bc 67 f8 e3 ba
       -0.029873308 0.005080815 -0.026677834 -0.0017392755
0002d0 fa 7e 60 3b bb e2 6f 3c 5d 3f 56 ba 18 97 05 3c
       0.0034255371 0.014641459 -0.0008172894 0.008153699
0002e0 9d 9f fc 3b fa 81 19 3c 55 a9 8f 3c 30 43 1d 3c
       0.007709457 0.009369368 0.017536798 0.009598538
0002f0 eb f1 e9 bc 6d 7f c9 bc 8b f0 00 bd 18 68 1e bc
       -0.028557738 -0.024596894 -0.0314794 -0.009668373
000300 e9 eb df 3c 0d 0c c8 bb be d4 bb bc b4 1f 76 bb
       0.02733417 -0.006104952 -0.022928592 -0.0037555518
000310 97 87 14 bd de 89 2e 3c 18 be f0 bc ff 3f 8e bc
       -0.03626212 0.010652987 -0.029387519 -0.0173645
000320 b4 63 a3 3b 73 8e 5d 3b 3c 0c 34 bb 3b aa 1b bd
       0.004986251 0.003380683 -0.0027473113 -0.03800414
000330 ee 47 a0 bc 80 b1 09 3d 72 fa e1 bc 0d 95 f7 bb
       -0.019565549 0.033616543 -0.027585242 -0.00755561
000340 ea e8 21 bd 14 01 01 bc 11 d2 eb 3b 92 15 2d bb
       -0.039528765 -0.007873792 0.0071966727 -0.0026410562
000350 40 07 63 bb 1f ca fb 3b 1a 2c dc bc bd d7 12 bd
       -0.0034641773 0.007684007 -0.026876498 -0.035850275
000360 f8 f9 77 3c 7d 2b 25 3b 64 3c 19 bd cb a7 e6 bc
       0.015135281 0.0025202923 -0.03741111 -0.028156182
000370 e3 b1 f2 bc 72 a4 ec 3c 34 e8 ed bc 60 65 78 bc
       -0.029625839 0.028887007 -0.029041387 -0.015160888
000380 9e e1 13 bc 0e 4f e2 3c d0 c7 05 bd da 19 7b bc
       -0.009025959 0.027625587 -0.03266126 -0.015325988
000390 2e 1c 1a bd 9d b3 05 bd 97 08 79 bc b3 f6 5e 3c
       -0.03762453 -0.032641996 -0.015199802 0.013608622
0003a0 d5 32 f9 bc 7f 23 4a 3c da 83 dc 3b b5 8e 82 bc
       -0.030419746 0.0123375645 0.006729585 -0.015937189
0003b0 13 5d d6 3b 6c e2 a0 3c a4 af bf bb 72 81 91 bc
       0.006541857 0.019639216 -0.0058497954 -0.01776192
0003c0 53 c4 2f 3c ff 1a 07 bd a1 d6 13 bd 62 a7 db bc
       0.01072796 -0.03298473 -0.036093358 -0.026813213
0003d0 34 6e 1c 3c 0d b6 40 3c 97 dc ca bc 7d 4d 6c bc
       0.009547759 0.011762154 -0.024763389 -0.0144227715
0003e0 32 f9 a9 bb 3e 05 8c 3c 4a cd 0e bd 6b f3 0a bd
       -0.005187177 0.017092343 -0.034863748 -0.033923548
0003f0 32 d4 1e 3d 1c b3 7a 3c dd c8 b5 bb 20 f3 d8 3c
       0.038776584 0.015301492 -0.0055476264 0.026483119

fc1.bias f4 [120]
000000 b2 96 92 bc fb ce 4f 39 f6 25 18 bd 8d 5d 8f 3c
       -0.017894123 0.00019818165 -0.037145577 0.017500663
000010 9d 29 70 bd 60 24 a9 bc 39 ce 8f bc 96 0c d6 3c
       -0.058633436 -0.020647228 -0.01755439 0.026129048
000020 ee f0 ac 3c 18 38 cc 3d 10 a8 b9 3c 81 98 b0 bd
       0.021110978 0.099716365 0.022663146 -0.08622838
000030 b0 ab ad bc 53 8e 8a bc 8c e4 a7 bb 37 40 95 bd
       -0.021200031 -0.016913569 -0.0051236805 -0.07287639
000040 b7 5d 64 bd eb 86 0e 3c 59 98 6b bd c9 0d 92 3d
       -0.055753436 0.008699159 -0.057518337 0.071315356
000050 14 c8 67 bc f2 1c 49 bb bf 19 7d bd 9c ac 7b bd
       -0.014146823 -0.0030687419 -0.06179213 -0.06144391
000060 cd 2b 8f bc 7a 32 92 3c 1c 53 b4 bd 78 15 69 3d
       -0.01747694 0.017846335 -0.08804914 0.05690524
000070 fb ec 56 3c 6e a2 c3 bd 14 3c 0f be 67 69 f6 bc
       0.013118024 -0.095524654 -0.13987762 -0.030079557
000080 5c 01 51 3c a1 e1 22 3d ad da 15 3d d7 36 46 bd
       0.012756672 0.039765958 0.0365855 -0.048392143
000090 64 82 3c bd 86 68 f1 3c a8 fc 02 be 3f 71 51 ba
       -0.046022788 0.029468786 -0.12791693 -0.0007989592
0000a0 fd 3c 5a 3c 13 29 06 bd 0d fa d5 bd 77 68 46 3b
       0.013320205 -0.032754015 -0.10448084 0.0030274668
0000b0 bf 4f ab bd 17 ae 50 bd 01 1b 77 bd ee 13 58 bc
       -0.0836482 -0.050947275 -0.060328487 -0.013188345
0000c0 a4 d9 2c bc 09 28 e4 bd ff b8 22 bc c0 28 6a 3d
       -0.010549936 -0.111404486 -0.009931802 0.05716777
0000d0 08 7b 0e 3d 9f 2d 43 bd 53 94 cc 3c c0 a1 b2 bd
       0.0347853 -0.04765093 0.02497307 -0.087222576
0000e0 67 1b ca bd cd a4 f3 bd 81 4e 99 bc 9f 09 8e bd
       -0.09868508 -0.11896668 -0.018714191 -0.06935429
0000f0 3e 20 1e bd a6 00 64 3d d5 60 38 bd 52 a5 01 bd
       -0.038604967 0.05566468 -0.04501422 -0.031651802
000100 b5 13 0a bd 31 1b 2c 3d 4f ed 80 bd 0b 44 95 bd
       -0.0337102 0.04201812 -0.06295263 -0.07288369
000110 5b 51 5b bd 80 74 6a bc 61 30 5c bd 12 78 cd bc
       -0.053544383 -0.014310002 -0.053757075 -0.025081668
000120 e9 bb c6 bc b0 6e c9 38 e8 3d bd bb b6 2d 29 bc
       -0.024259524 9.605044e-05 -0.005775202 -0.01032584
000130 ec 34 51 3c a5 2a 4c 3d 4e 14 68 bd 08 3e 72 3c
       0.012768965 0.049845356 -0.05665999 0.014785297
000140 a9 7c 10 bc 3b b6 f3 3c 9d 55 6e bd 52 92 fa bb
       -0.008818784 0.02974998 -0.058187116 -0.0076468373
000150 bd 6e bf ba 84 09 7f 3c 75 92 fb 3c b3 9b 92 3c
       -0.0014605146 0.015566234 0.030709485 0.017896509
000160 b1 bc 48 3d 6a 76 6f bd 93 f3 a0 bd 47 c9 4e bd
       0.049008075 -0.058462538 -0.07858958 -0.05048492
000170 0e dc fd bc df d0 53 bd a5 5e d7 3c ce d2 a6 bd
       -0.03098872 -0.051712867 0.026290247 -0.081456766
000180 b3 9f 6a 3b 0c b6 f5 3a 20 41 92 bb d8 0f d1 bb
       0.0035800755 0.0018746271 -0.00446333 -0.0063800626
000190 53 68 69 3c f1 8c 08 be df 28 6b 3c 43 33 d0 bd
       0.014246064 -0.13335015 0.014353006 -0.101660274
0001a0 9d a0 29 3d 22 a1 6a bc ed eb c5 bc 7d 11 8d bd
       0.04141294 -0.014320644 -0.02416035 -0.06888101
0001b0 45 c9 ca bd 2f a5 ac bd 82 c0 6a 3b ae dd 06 3d
       -0.0990167 -0.08429944 0.003582031 0.032926254
0001c0 4a 35 e0 bc 31 04 83 39 4a de 9c bd 9a 2f 7b 3c
       -0.02736916 0.0002498939 -0.07659586 0.015331173
0001d0 c4 93 0b bc f5 10 1f 3b 6b 24 a5 bd d2 6d 15 bd
       -0.008519117 0.0024271582 -0.08063587 -0.036481686

fc2.weight f4 [84, 120]
000000 46 00 f9 bc bc 11 2c 3d 8d a7 df 3c 4f 7c 6e be
       -0.030395638 0.0420091 0.027301574 -0.23289607
000010 44 16 35 bd 65 e4 8c be c6 a9 d9 bc 4c af 58 bd
       -0.044210687 -0.27518 -0.026570212 -0.05290155
000020 f0 dd 43 3d 3a a8 19 bd 87 68 d5 bc c4 e2 e4 3c
       0.047819078 -0.03751395 -0.02605082 0.027940162
000030 64 de a6 3d e0 71 45 bb 0c 02 2d bb 90 05 00 bd
       0.081478864 -0.003012769 -0.0026398925 -0.031255305
000040 36 71 cc 3c a5 d8 8e bd 68 0d 25 be 5e f4 71 bd
       0.024956327 -0.069749154 -0.16118395 -0.059070937
000050 66 64 32 3e 69 7c 24 3d f6 da b4 bd 9f 5e d7 bd
       0.17421111 0.04015771 -0.08830826 -0.105160944
000060 f9 6c c7 bc 55 9e 99 3d ff 78 6f 3d 3d f7 68 be
       -0.024343954 0.075009026 0.058465 -0.22750564
000070 ca 17 77 be 2d e4 4f bc c8 ef 04 be 4c f3 50 be
       -0.24130169 -0.012688679 -0.12982094 -0.2040531
000080 de 1f 43 bd e4 6e 08 3e 6d 6c 35 3e 67 b5 83 3e
       -0.047637813 0.13323551 0.17717142 0.25724337
000090 30 10 3e be 0f af 8e bd 91 18 2d 3d 93 6c 1b 3d
       -0.18560863 -0.069669835 0.042259756 0.03794534
0000a0 64 fa 6a 3e 01 51 97 bd 49 5d 42 3d 00 de 9d 3a
       0.22947079 -0.07388497 0.047452245 0.001204431
0000b0 ee a0 7c bd 33 61 55 3c 2b 6f 71 bd 28 2a a2 3d
       -0.061676912 0.013023662 -0.05894391 0.07918197
0000c0 d6 d4 57 3d e4 de 04 bc 2c af ad 3d db 08 b9 bd
       0.05269321 -0.008109782 0.08480677 -0.09034892
0000d0 21 aa ab 3d e9 68 37 3e f4 b7 52 3d b0 05 39 be
       0.08382059 0.17911114 0.051444963 -0.18068576
0000e0 f0 85 f2 bd 08 22 89 bd f0 c2 73 3d 9a ad 90 bd
       -0.11841953 -0.06695944 0.05951208 -0.07064362
0000f0 29 be e8 bd f6 ff eb 3d 40 80 0a 3c 10 64 8f bc
       -0.11364395 0.1152343 0.008453429 -0.017503768
000100 e8 0d 91 bd 43 ff 41 be cc 5f 8a bd 30 46 7e bd
       -0.070827305 -0.18945031 -0.06756553 -0.062078655
000110 bb 16 81 bd 38 0b 28 3d 45 90 4b bd 6c b0 91 bd
       -0.063031636 0.041026324 -0.049698133 -0.07113728
000120 4a 85 ac 3d 00 c9 38 be d4 89 95 bd b4 08 66 be
       0.0842386 -0.18045425 -0.07301679 -0.22464257
000130 50 37 5a be a8 5c 8b bd 46 28 c4 bd 83 88 fe bb
       -0.21310163 -0.06804782 -0.09577994 -0.0077677383
000140 55 01 0e be 6e 7c 09 3d 69 e7 e1 3a c8 c8 f1 3d
       -0.13867696 0.03356593 0.0017235103 0.11805874
000150 dd 8d dc bd 13 d8 62 bd 7e 48 03 be 35 8e 51 3d
       -0.10769246 -0.055381846 -0.12820622 0.05116101
000160 46 96 52 be bd 4c 6c bd 2e 42 6c bd e4 8c 0d be
       -0.20565137 -0.05769037 -0.0576803 -0.13823277
000170 0e 1d 61 be fc 5f 4b 3d 7f f7 8c 3b 4b e1 96 3c
       -0.2198374 0.049652085 0.004301965 0.018417975
000180 fb e1 94 bd 20 ed 1a be 9e ad ce bc 4f db 9b 3d
       -0.07269665 -0.15129519 -0.025229272 0.07610189
000190 00 40 5e 3c a6 c8 43 bd a3 a0 b1 3c 87 8c 77 3d
       0.0135650635 -0.047798775 0.021683043 0.06043675
0001a0 c2 33 76 bd eb b9 02 bd 8b 4e bd bc 28 67 3f bd
       -0.060107954 -0.031915586 -0.023108741 -0.046729237
0001b0 95 78 96 3d cb 81 2f 3d 96 cd 10 be 56 99 35 bd
       0.07347218 0.04284839 -0.14140925 -0.044335686
0001c0 dc f8 9b bc 31 2d 1a be c5 50 eb 3c 64 ef a0 3c
       -0.019039564 -0.15056302 0.028725037 0.0196454
0001d0 34 46 d9 3c 70 c1 00 be 29 b2 78 bd 75 41 38 be
       0.026522733 -0.1257379 -0.06071678 -0.1799372
0001e0 74 d1 7e 3d 6d c2 9f bd 24 23 9b 3c cd d9 a4 bd
       0.06221147 -0.07800756 0.018937655 -0.08049355
0001f0 86 b8 f6 3c 06 eb c8 bd b0 0f 47 3c 7a 49 9d bd
       0.030117285 -0.09810452 0.012149736 -0.0768003
000200 ee 4a ca bb aa 26 3b bc 76 b0 e3 bd 49 44 9e bd
       -0.006173483 -0.011422792 -0.11117642 -0.07727868
000210 94 71 8d bd 1a 30 ae 3d 0c 50 87 bc bd 46 e6 bc
       -0.06906429 0.085052684 -0.016517662 -0.028109903
000220 6c 44 cc bd 4a 5b a6 bd c8 16 c8 bc a0 e7 e1 3c
       -0.09973988 -0.08122881 -0.024424925 0.027576268
000230 eb 30 62 bd 60 d0 3e bd b3 3c ca bd 81 47 9c bd
       -0.055222433 -0.04658544 -0.09874859 -0.07630826
000240 51 94 37 bd c1 fc 2e 3c 1f 89 fc bd 3e 79 ca 3c
       -0.04481918 0.010680378 -0.12330841 0.024716016
000250 b5 21 89 bd a6 51 84 bd f0 fb a4 bc b5 4f d1 bc
       -0.06695882 -0.06460886 -0.020139664 -0.025550703
000260 cc a3 cb bc fc 9b ad bd 96 2a 98 bd e6 33 ac bd
       -0.024858378 -0.08477017 -0.074299976 -0.08408336
000270 76 70 46 3c b2 55 1b bd d4 82 33 3d 86 44 c1 bd
       0.012111774 -0.037923522 0.04382594 -0.09436898
000280 c4 9d 4a 3c 90 e1 32 3c ac 61 9b 3d 74 e5 6f 3d
       0.012366716 0.010918036 0.07586989 0.058568433
000290 91 fa 1f 3a 2c 3c 7e bd 8d 75 83 bd d0 a4 9b bc
       0.0006102706 -0.062069103 -0.064189054 -0.018999487
0002a0 fe 0c a3 bd 8f 96 45 bc bc 85 0a 3d f8 83 3c bc
       -0.079614624 -0.012059822 0.033818945 -0.011506073
0002b0 8f 6f 5c bb 13 b5 e8 bd e9 ad 9d bd f6 54 d8 3a
       -0.003363583 -0.11362662 -0.07699186 0.0016504813
0002c0 b0 5b cf 3c 21 21 89 bd 00 f0 82 3d 47 40 cd bd
       0.025312275 -0.06695772 0.063934326 -0.100220256
0002d0 fd 10 d7 3c c4 09 cd bc f2 f1 df bd 10 24 72 3d
       0.026253218 -0.02502907 -0.10934819 0.059116423
0002e0 7c 05 86 3d 78 64 ed 3b 84 18 94 3c 18 16 cb 3c
       0.06544015 0.007244643 0.018078096 0.024790809
0002f0 2e 61 78 bc 64 ea 92 bd a0 44 0f 3d ae a5 96 bc
       -0.015159888 -0.07173613 0.034977555 -0.01838955
000300 88 c7 0c 3d 9d fa b1 bd 1a c1 b7 bd ce a2 0f bd
       0.034369975 -0.08690379 -0.08972378 -0.035067372
000310 c6 48 f3 bd 77 e8 f2 bd f2 bd b9 bc 4b 79 f0 bd
       -0.11879115 -0.118607454 -0.02267358 -0.11741885
000320 cb 09 b7 bd eb f2 3c 3d 14 f5 19 bd 86 12 80 3c
       -0.08937415 0.046130102 -0.03758724 0.015633833
000330 0c 99 a8 3c 26 68 71 bd 7e 39 88 3d 62 9b 1d 3d
       0.020580791 -0.058937214 0.06651591 0.038478263
000340 2d 29 ca bd 7e 48 9d bd 68 86 39 bc 3f cb d7 bc
       -0.09871135 -0.076798424 -0.011323549 -0.026342032
000350 9b 12 eb 3c f9 bf f6 bd 8c 55 b4 bd b4 70 95 3d
       0.028695395 -0.12048335 -0.08805379 0.07296887
000360 ce 98 94 3d 6a ac c6 bd 59 f1 91 bd 0a 0e 7b bd
       0.07255708 -0.09700854 -0.071261115 -0.061292686
000370 b0 99 74 bc 54 cc d1 bc 60 13 8f bd 58 ec 48 3d
       -0.01492922 -0.025610127 -0.06986117 0.04905352
000380 bc 8e 25 bd 66 42 01 3d 07 75 a0 bd 73 79 15 bd
       -0.040419325 0.031557463 -0.07834821 -0.036492776
000390 e4 6b e1 3c 8c 2a 04 3d d3 1c b1 bd 32 a9 78 bc
       0.027517267 0.03226714 -0.08648076 -0.015177058
0003a0 7f c2 76 bd a6 e1 0d 3d 1c ec 83 bc 31 bb a1 bd
       -0.06024408 0.034639023 -0.016103797 -0.07897032
0003b0 60 5d 5e 3d 20 7c 48 bd e1 ab aa bd 33 de 82 bc
       0.054288268 -0.0489465 -0.083335645 -0.015975093
0003c0 9e 29 02 bd 69 8d f1 3c 3c 26 33 3d 0e e1 48 3c
       -0.03177797 0.029486375 0.043737635 0.0122606885
0003d0 65 b6 61 3c 55 52 8b bd a7 26 44 3d ee 1b 23 3c
       0.013776396 -0.06802813 0.047888424 0.009955389
0003e0 6a ff 8d bc a4 34 c4 bd f0 60 2b be ad 37 2f bc
       -0.017333705 -0.09580353 -0.16736197 -0.0106944265
0003f0 b0 ea 4b 3d e9 b5 4c bd f9 b2 98 bd 94 0f d0 3d
       0.049784362 -0.04997817 -0.07456011 0.10159221

fc2.bias f4 [84]
000000 ec 60 01 bd 78 82 a6 bd d1 56 28 bd 94 af 30 3d
       -0.031586573 -0.08130354 -0.04109842 0.043136194
000010 0d 98 94 3c 28 f1 cd bb 67 bb a7 3c 02 6d b0 3d
       0.01813891 -0.0062848516 0.020475103 0.086145416
000020 6b 77 fe 3d 86 68 be bd 81 ab 55 bd 83 08 1f be
       0.12425121 -0.0929728 -0.052165512 -0.1553059
000030 7e 47 c1 bd e0 33 ff bc b0 fd f9 3d 17 40 29 bb
       -0.09437464 -0.031152666 0.1220659 -0.0025825554
000040 a5 3f dc bd 05 f2 ab 3d e8 ea 08 3e 63 fa c3 bb
       -0.10754327 0.08395771 0.1337086 -0.005980776
000050 a3 bb cf 3d aa 71 a9 bc f0 4d 43 bd 01 ec 7c bd
       0.10143211 -0.020684082 -0.04768175 -0.06174851
000060 b5 25 e0 bd 65 68 01 be 0e c2 1a be 3e ad 1d 3e
       -0.10944692 -0.1263748 -0.15113088 0.15398118
000070 a5 5d 0b 3e 8f 01 ec bd b8 f1 5b 3e c3 46 dd 3c
       0.13609941 -0.11523735 0.21478927 0.02701128
000080 62 a5 45 bd 0c 5d a3 bb 92 f5 f6 3c 5c e4 94 3c
       -0.048253424 -0.0049854573 0.030146394 0.018175296
000090 43 be 79 bd 0a e8 b7 bd 45 84 f7 bd ff be ff bd
       -0.060972463 -0.08979805 -0.12085775 -0.124876015
0000a0 29 05 e6 bd 43 20 b0 3d c6 bb 2c bd 93 ec 9e bd
       -0.11231453 0.085999034 -0.042171262 -0.07759967
0000b0 f1 3a 06 bc 7f a5 f4 bc 71 45 a3 3d 3b 72 be 3d
       -0.008192764 -0.029864071 0.07972229 0.092991315
0000c0 23 33 9a bd 88 0d f2 3d 1b f0 c7 3d ec 12 20 bd
       -0.07529285 0.11818987 0.09762593 -0.039080545
0000d0 af 39 dc 3b 23 ac 13 bd 29 74 71 bd 61 6b e6 3c
       0.0067207436 -0.036052834 -0.05894867 0.028127374
0000e0 34 ec 42 3d 38 c7 02 3e 8a f2 3f 3d fc 32 b9 3c
       0.047588542 0.12771308 0.046862163 0.022607319
0000f0 28 32 16 bd 28 b2 cc 3d 72 26 52 3b b8 ff 5f bd
       -0.036668926 0.09994918 0.0032066372 -0.05468723
000100 45 8d c5 3d 56 be c9 bc 2e fd d1 38 70 5a 64 bd
       0.09646086 -0.024626892 0.00010013055 -0.05575031
000110 1b d7 34 3d 41 58 f9 bd e0 b5 21 be 9e ee 28 bd
       0.044150453 -0.12175036 -0.15792036 -0.041243188
000120 75 e4 00 be 27 7a df bd 19 91 6b 3d 5e 89 d0 3d
       -0.1258715 -0.109119706 0.057511423 0.10182451
000130 8b c7 8a bd 87 af 0c 3c ba 6d 0f bd 28 a2 b6 3d
       -0.06776341 0.008586771 -0.035016753 0.089176476
000140 da 38 00 be e0 1a 01 3e 50 37 d0 bc 86 ec 8e bd
       -0.12521687 0.12607908 -0.025417 -0.06978707

fc3.weight f4 [10, 84]
000000 17 f0 23 be a2 fd db bd bc b2 45 bd ce c9 c6 3d
       -0.16009556 -0.10741736 -0.048266158 0.0970646
000010 5a d1 b6 bd 01 9a 63 be 85 3c 85 be cc db 60 bc
       -0.089266494 -0.22226717 -0.26022735 -0.013724279
000020 a4 04 02 be 72 31 a6 bd f5 94 0a be 23 89 42 bd
       -0.12697083 -0.081149 -0.13533385 -0.047494065
000030 51 bf 14 3e a8 97 20 be 4d 8d a8 3d 45 3e 54 be
       0.14526106 -0.15682852 0.08230076 -0.20726879
000040 58 bc 54 be 01 4f a4 be fe ef af be 18 d2 92 be
       -0.20774972 -0.32091525 -0.34362787 -0.28675914
000050 90 1b e8 3d 60 28 0b be 3a b9 bc 3d 7c 90 0e bd
       0.11333382 -0.1358962 0.09215017 -0.03480576
000060 b8 e3 9c bd 56 51 86 be bf ea 75 3d a2 a1 b9 bd
       -0.076606214 -0.2623393 0.060038324 -0.09064032
000070 9e 7c be bd 2d 98 a8 be 2d ea a1 3d 32 5f 6a bd
       -0.093011126 -0.329286 0.079059936 -0.05721969
000080 56 c9 46 be d0 0f 44 3e 6b 26 cd bb d5 f5 d3 ba
       -0.19412741 0.19146657 -0.0062606833 -0.0016171286
000090 43 6b 13 be a3 d8 7d bd 4c cd d1 bd a2 5e 2f 3d
       -0.14396386 -0.06197418 -0.102442354 0.04281486
0000a0 a9 bd 72 3c 15 06 82 3b cb 6a 4d be 6d de aa be
       0.014815726 0.00396801 -0.2006027 -0.33372822
0000b0 b7 20 52 bd 4a c7 d7 bd fa 76 d2 bd ac a1 be 3c
       -0.05130073 -0.10536058 -0.10276599 0.02327045
0000c0 7c 65 8a 39 50 8d c4 3d c8 8e 3c be ea 6c 14 be
       0.00026397023 0.09597266 -0.18413842 -0.14494672
0000d0 0a 43 a4 3d 51 5a fc bd dc 8d df bd 54 f2 01 3e
       0.08020599 -0.12321914 -0.109157294 0.12690097
0000e0 d8 ca 26 be 22 30 84 be 34 9e 50 bd e4 14 56 3e
       -0.16288316 -0.25817972 -0.050932124 0.20906407
0000f0 b8 cf 6a 3d 0b 35 bd bd d9 b5 28 bd b2 67 d0 bd
       0.057327002 -0.09238633 -0.04118905 -0.10176028
000100 70 c5 f7 bd 17 c3 4c be 55 c0 b8 3d 26 9a c8 bd
       -0.12098205 -0.19996296 0.090210594 -0.097950265
000110 5b 43 10 3e 06 a7 87 bd d1 6b 37 3d 4a 2b a4 3d
       0.14088194 -0.06623654 0.044780556 0.08016069
000120 68 67 45 3d 2d 6e c4 bd 81 d5 5b 3d 9f a9 55 be
       0.04819432 -0.09591327 0.05367041 -0.20865487
000130 35 56 03 be 1d bd 51 bc 21 18 89 3d fc ee 24 be
       -0.12825854 -0.012801436 0.06694055 -0.1610679
000140 ab 79 02 3e b4 50 30 be 8d af 57 be 61 66 ad 3d
       0.12741725 -0.17218286 -0.21063061 0.08466793
000150 1a 06 25 3e b3 1a a3 bd c3 ff 42 be e5 40 b5 bd
       0.16115609 -0.07964077 -0.19042878 -0.08850268
000160 b6 cd 7a ba b5 28 49 be ad 67 14 3e d4 af 4c bd
       -0.00095673965 -0.19644435 0.14492674 -0.04997237
000170 df 0d 65 3e 55 f1 f9 bd d4 fb d7 be b3 ed 7c bd
       0.22368573 -0.122042336 -0.42184317 -0.061750125
000180 90 c5 39 bd 10 a2 cb bd c1 e9 47 3e bb 2e 95 3d
       -0.045354426 -0.0994302 0.19522764 0.07284304
000190 f7 f2 af 3c a5 75 0b be 27 14 ba 3c d7 ee a4 3d
       0.02147816 -0.13619097 0.022714688 0.080533676
0001a0 f6 10 90 bd 78 cc 71 bd 58 0d 35 bd 89 10 78 bd
       -0.07034485 -0.059032887 -0.04420218 -0.060562644
0001b0 df 9e b4 be a7 db 52 be ca ee b5 bd a7 a0 9b be
       -0.3527746 -0.20591603 -0.08883436 -0.30396006
0001c0 79 7a 9b 3d f9 35 07 be f9 18 19 3e da 67 b8 bd
       0.07591719 -0.13204183 0.14950933 -0.09004183
0001d0 06 56 2c be e9 75 1d be 0a 73 ed bd 01 63 05 bd
       -0.1682969 -0.1537701 -0.115942076 -0.03256512
0001e0 aa d4 09 3e c8 a3 e2 bd a9 a4 c6 bd 20 56 c1 bc
       0.13460031 -0.11066395 -0.09699375 -0.023600638
0001f0 19 97 85 bd ab f3 44 3d fb 14 a2 be bf ec 83 3d
       -0.0652296 0.048083942 -0.31656632 0.0644164
000200 07 22 38 bd 42 b3 66 3b a5 14 36 be 24 57 f1 3b
       -0.044954326 0.003520206 -0.17781313 0.0073651243
000210 a7 88 9c 3d 88 94 04 be a8 05 fc 3d 9a 38 59 be
       0.07643252 -0.12947285 0.12305766 -0.21212998
000220 3e 73 43 be e1 a4 50 be b5 16 5e be b5 3c fa bd
       -0.1908693 -0.20375396 -0.2168835 -0.1221861
000230 4a 89 30 be 50 ff f7 3d 22 69 fa bc f4 8b b9 3d
       -0.17239872 0.12109244 -0.03056771 0.09059897
000240 e7 e4 ba be 51 3c 5a 3d 47 07 b3 bd 14 f7 62 be
       -0.36502764 0.05328018 -0.087416224 -0.22164565
000250 bb b8 24 3e ef ba bf be 9e 26 c6 3d 58 4c 90 3e
       0.16086094 -0.37447307 0.096753344 0.28183246
000260 3c 9e 09 be 3c a6 2a bd fc 22 94 bd 5d 25 bf be
       -0.13439268 -0.04166244 -0.07233235 -0.37333193
000270 25 33 a6 bd 03 39 bc bc e3 c6 07 3e 64 b2 be 3c
       -0.08115224 -0.022976404 0.13259463 0.023278423
000280 81 80 95 3d 6a 4b d6 bd ac 4e 0e be bd fe f5 3d
       0.07299901 -0.10463603 -0.13897198 0.12011478
000290 47 d5 07 bf 23 58 4f 3e e2 b1 97 be 82 c0 49 3d
       -0.5305981 0.20248465 -0.296279 0.049255855
0002a0 38 ab e1 bd 0e 79 d8 bd 33 4e c4 bd 20 ce 89 bd
       -0.110189855 -0.10569964 -0.09585228 -0.06728768
0002b0 82 6c 07 3e 04 29 83 3e 1e cc 32 be 75 4b 8b bc
       0.13224986 0.2561723 -0.17460677 -0.017003754
0002c0 d6 32 7a ba 40 5f d0 3c d9 51 26 bd 89 a6 05 be
       -0.00095443183 0.025436044 -0.0406054 -0.1305181
0002d0 22 90 2b be da 56 df 3d 6f ad 31 bd 97 39 4d 3c
       -0.16754201 0.109052375 -0.04337829 0.0125259375
0002e0 ef 20 78 3d b3 0f 27 3a 86 6a ce 3d b3 ed fa 3d
       0.060578283 0.0006372884 0.100789115 0.12252369
0002f0 a7 3e 0e be 97 fd 07 3e e9 fb 2c be 93 3a a3 3d
       -0.13891087 0.1328033 -0.16892971 0.079701565
000300 ef dd 7a bd 69 e4 82 bc af 55 e1 bd 49 fb db 3d
       -0.06124681 -0.015978055 -0.11002671 0.10741288
000310 e1 df 98 3c 0d 74 2b 3d 54 f4 8e bb 0a 5e c8 bd
       0.018661441 0.04185872 -0.0043626223 -0.097835615
000320 0e a7 a0 bd a5 b4 9a bd fe 30 fa 3d b2 58 02 bd
       -0.07844363 -0.075539865 0.12216376 -0.031822868
000330 1a 35 82 3d d8 33 44 be 6d 23 e0 bd b7 11 e6 3d
       0.063577846 -0.19160402 -0.10944257 0.112338476
000340 28 aa 39 be 94 20 3a 3d 93 09 23 be 96 51 53 be
       -0.18131316 0.045441225 -0.15921621 -0.20636591
000350 97 9e a1 3d a6 84 83 bc a8 4b ff bd 44 d4 39 be
       0.07891577 -0.016054463 -0.12465602 -0.18147379
000360 55 e7 e2 bd 92 11 97 bd 55 68 1b be be 41 40 be
       -0.11079279 -0.07376398 -0.15176518 -0.18775079
000370 fc b4 16 bd 29 67 19 be 95 66 e7 bd 7b 3e f5 bd
       -0.036793694 -0.14980759 -0.11298863 -0.11974808
000380 db 9c 85 bd 69 27 a4 3d fb 8d 48 be b2 dd b4 bd
       -0.065240584 0.080153294 -0.19585411 -0.088313475
000390 8e a2 b5 bb a9 83 18 3e 12 20 b3 be 6e b8 13 3d
       -0.0055430597 0.14893974 -0.34985405 0.036064558
0003a0 30 83 42 be 3f 77 10 bd 34 a2 2b bd a4 57 0d bd
       -0.18995357 -0.035269972 -0.041902736 -0.03450741
0003b0 3a d0 b9 3d 16 d2 82 bd bd 97 2c bd 21 05 22 be
       0.09072919 -0.06387727 -0.042136896 -0.15822269
0003c0 e1 4e a3 be 2f f9 18 be 0d 8e d6 3d 82 2a eb 3d
       -0.31896117 -0.14938806 0.10476313 0.11482717
0003d0 f1 97 af 3d 84 1c 26 3e ba 6e ce bd e3 0e 4b be
       0.085739024 0.16221815 -0.10079713 -0.19829898
0003e0 18 1b fa bc fb 3d b8 bd e0 cf e1 bc b9 e7 79 bc
       -0.030530497 -0.08996197 -0.027564943 -0.015253001
0003f0 f5 7f 5a 3d 09 81 58 bc 48 1e 9c bd d5 bd 9e 3d
       0.053344686 -0.013214358 -0.07622963 0.07751051

fc3.bias f4 [10]
000000 aa 05 63 bc 99 11 70 3d 5c 3e d9 3d b8 b2 ce bd
       -0.013856331 0.058610532 0.10607597 -0.10092682
000010 70 3c 2d 3d 91 a0 40 bd 67 df 8c bc 16 1f 08 be
       0.042293966 -0.047028128 -0.01719637 -0.13293108
000020 58 fa 7b 3e 12 4e 4a 3d
       0.24607217 0.04939086
