models/cnn_checkpoint.pth (torch, 451995 bytes, 10 tensors)

conv1.weight f4 [16, 1, 5, 5]
0	0xbda653af	-0.0812143
1	0xbdfb825f	-0.12280726
2	0x3da9785a	0.08274908
3	0xbe66858d	-0.22511883
4	0x3d8d53db	0.0690076
5	0xbd5d12b8	-0.05397293
6	0x3d847baf	0.06468903
7	0x3d3529fd	0.044229496
8	0xbdc7c3bf	-0.097541325
9	0x3d324ff9	0.0435333
10	0x3e80696c	0.2508043
11	0x3c1927d8	0.009347878
12	0x3d934cb6	0.07192366
13	0x3e9a1ad8	0.30098605
14	0x3d49084f	0.04908019
15	0xbd049c5f	-0.03237569
16	0x3dce8345	0.100836314
17	0xbe32bb30	-0.17454219
18	0x3e2272a1	0.1586404
19	0x3e362f20	0.17791414
20	0xbeb9fe99	-0.36327055
21	0xbea1fecd	-0.3163971
22	0xbe9060d2	-0.28198868
23	0x3c56d9b1	0.013113425
24	0xbda030f8	-0.0782184
25	0xbe8488dd	-0.25885668
26	0xbe3474cd	-0.17622681
27	0x3e14a734	0.14516908
28	0x3e4b197d	0.19833942
29	0x3d39b83c	0.045341715
30	0xbe10344d	-0.14082451
31	0xbdeca7f0	-0.11555469
32	0xbd0ae4d8	-0.03390965
33	0x3e276a4e	0.16349146
34	0x3db61a09	0.088916846
35	0xbe7a9045	-0.24469097
36	0xbec7686c	-0.38946855
37	0x3e051050	0.12994504
38	0x3e0725e3	0.13198046
39	0x3e3a37c2	0.18185332
40	0xbe850fa3	-0.25988492
41	0xbcd3c1ce	-0.02584925
42	0xbd32c18c	-0.043641612
43	0x3e57e004	0.21081549
44	0xbe2fee79	-0.17180814
45	0xbddb1130	-0.10696638
46	0xbdcbcaf1	-0.099508174
47	0x3d2802ca	0.041018285
48	0x3df1a825	0.11799649
49	0x3dba161c	0.09086248
50	0x3e580195	0.21094353
51	0x3d722934	0.059121326
52	0xbea913c1	-0.33022884
53	0x3d8c350d	0.06846056
54	0x3d6178d1	0.05504686
55	0xbdcacabc	-0.0990195
56	0x3e32689f	0.17422722
57	0x3c42cf56	0.011890253
58	0x3e245979	0.16049756
59	0x3db91460	0.09037089
60	0xbe4f5835	-0.20248492
61	0x3dae971c	0.085249156
62	0x3dcf5d80	0.101252556
63	0x3d447731	0.047965232
64	0xbd9c853f	-0.07642602
65	0x3c9a355b	0.01882427
66	0xbbc49d62	-0.006000207
67	0xbdf7a7d9	-0.12092561
68	0x3e601d32	0.21886137
69	0xbdb6f84e	-0.08934079
70	0x3df62080	0.12017918
71	0x3c97bf45	0.018523822
72	0xbb426630	-0.002966296
73	0x3caa4ea7	0.020789457
74	0xbe5ba654	-0.21450168
75	0x3eb3eb9e	0.351407
76	0x3e36e96e	0.17862484
77	0x3d87cd9b	0.06631013
78	0xbe24210b	-0.1602823
79	0xbe8444cf	-0.25833747
80	0x3e276ac7	0.16349326
81	0xbe65366e	-0.22384045
82	0xbee794d7	-0.45230743
83	0xbf02e5d6	-0.5113195
84	0xbb026909	-0.0019899032
85	0xbeb77dbb	-0.35838112
86	0xbeca72e8	-0.39540792
87	0xbed89bad	-0.4230627
88	0xbbff5b6a	-0.00779288
89	0x3dfe35e8	0.124126256
90	0xbed98b1d	-0.42488948
91	0xbe92a9d9	-0.28645208
92	0xbde3332a	-0.11093743
93	0x3e391832	0.18075636
94	0x3e5bc06b	0.2146012
95	0x3d89d5e7	0.06730252
96	0xbd3a2df9	-0.045454
97	0x3e9f9aa5	0.31172672
98	0x3e1aea11	0.15128352
99	0x3d597961	0.05309427
100	0x3e433815	0.19064362
101	0x3e40449a	0.1877617
102	0x3e7339b5	0.23752482
103	0x3db94685	0.09046654
104	0xbe70ddca	-0.23522106
105	0xbd262acb	-0.040568154
106	0x3cb658cf	0.022259144
107	0x3d94eca1	0.07271696
108	0x3ecb7ac4	0.397421
109	0xbdaab71a	-0.08335705
110	0xbe424ae8	-0.18973887
111	0xbe4bdafb	-0.19907753
112	0x3d9c14b2	0.07621135
113	0x3e838914	0.2569052
114	0x3e84c65d	0.2593259
115	0xbe5c1dea	-0.21495786
116	0xbe1cb234	-0.15302354
117	0xbed90014	-0.42382872
118	0x3cb420f7	0.021988375
119	0x3dad5732	0.08463897
120	0xbc9a851b	-0.018862298
121	0xbe9a0cdf	-0.30087945
122	0xbea71f53	-0.32641086
123	0xbe1a5b0d	-0.15073796
124	0x3d046a31	0.032327835
125	0xbe024eee	-0.12725422
126	0x3d1e7db9	0.038694117
127	0xbe0c49a2	-0.13699964
128	0x3e56aea2	0.20965055
129	0x3e2461e9	0.16052975
130	0x3e745de2	0.23863938
131	0x3da89949	0.08232362
132	0xbde47f8e	-0.111571416
133	0x3dbe8312	0.093023434
134	0x3e4475bd	0.19185539
135	0x3ad98b6c	0.0016597337
136	0x3e3f239c	0.18665928
137	0xbd2c5dbf	-0.04208159
138	0x3d977e74	0.07397166
139	0x3d9c5f9a	0.07635422
140	0xbdfcd8d0	-0.12346041
141	0x3d8fe33b	0.07025763
142	0x3cde937a	0.027169932
143	0xbe311b1f	-0.17295502
144	0xbe1c2dbd	-0.15251823
145	0xbf217d55	-0.63081867
146	0xbf34c217	-0.7060866
147	0xbf2f866e	-0.685645
148	0xbed29bba	-0.41134435
149	0xbeb06f25	-0.34459797
150	0xbdc7bb0b	-0.097524725
151	0x3e39f30f	0.18159126
152	0xbe2eedf0	-0.17082953
153	0x3d7bc97d	0.06147145
154	0xbd00bb94	-0.03142889
155	0x3de2bbee	0.11071001
156	0x3e668d26	0.22514781
157	0x3d4129c0	0.047158957
158	0x3e385a93	0.18003301
159	0x3ec80381	0.39065173
160	0x3e3ce474	0.18446523
161	0x3e7c1993	0.24619131
162	0x3ec143ed	0.37747136
163	0x3ea2d73f	0.31804845
164	0xbc98f321	-0.01867062
165	0xbb998b53	-0.004685798
166	0x3d709f30	0.058745563
167	0xbd4e682d	-0.05039232
168	0xbd0148f5	-0.031563718
169	0xbe814633	-0.2524887
170	0x3e38abbc	0.18034261
171	0xbe800e39	-0.2501085
172	0xbec3dcb2	-0.38254315
173	0xbeb6144a	-0.35562354
174	0xbe96e8ab	-0.29474387
175	0x3daae6d6	0.0834481
176	0xbe18c9df	-0.14920758
177	0xbe27af36	-0.16375431
178	0x3d8a3e8c	0.06750211
179	0xbe996568	-0.2996018
180	0xbe2908c6	-0.16507253
181	0x3e1d1c71	0.15342881
182	0x3e292eec	0.16521806
183	0x3cd7c8cd	0.026340866
184	0xbca73432	-0.02041063
185	0x3d1d5a91	0.03841645
186	0xbc7072fe	-0.014675854
187	0x3de281fb	0.11059948
188	0xbb9f273c	-0.004856972
189	0xbe0d53b7	-0.13801466
190	0x3e5822e3	0.21107058
191	0xbcb6c592	-0.022311006
192	0xbe9381a0	-0.28809834
193	0x3da3dd9e	0.080012545
194	0x3dc49d26	0.09600286
195	0xbd4a193f	-0.049340483
196	0xbc87a41d	-0.016557747
197	0x3de08918	0.109636486
198	0x3cce20a2	0.025162045
199	0x3dd2b5a0	0.102885485
200	0xbc25f3e6	-0.010128951
201	0xbe685ccd	-0.2269165
202	0xbe6ee36d	-0.23328944
203	0xbe972263	-0.29518422
204	0x3dca6f69	0.09884531
205	0xbe9d5fa4	-0.3073703
206	0xbe8ce7e8	-0.2752068
207	0x3dc26c0a	0.09493263
208	0xbc6c7dec	-0.014434319
209	0xbe0ab771	-0.1354654
210	0x3d080f2c	0.033217594
211	0x3d07d305	0.03316023
212	0x3cd1d367	0.0256135
213	0x3e19c9de	0.15018412
214	0x3e57b5cf	0.21065448
215	0xbd92a8f8	-0.071611345
216	0x3eb3fa9d	0.3515214
217	0x3e8d58d5	0.27606836
218	0x3e2baf6a	0.16766134
219	0xbe3b9413	-0.18318205
220	0x3e789dab	0.24278896
221	0xbd279636	-0.040914737
222	0x3e04a287	0.12952624
223	0xbdd70515	-0.10499016
224	0x3dcda071	0.100403674
225	0xbdea0450	-0.11426604
226	0x3c9d263e	0.019183274
227	0xbd9861a5	-0.07440499
228	0x3d3f4bb7	0.046703067
229	0xbe527052	-0.2055066
230	0x3d3e77ab	0.046500843
231	0xbe31591d	-0.1731915
232	0x3c90741e	0.017633494
233	0x3ddff2da	0.10934992
234	0x3d998e6c	0.07497868
235	0xbe15752a	-0.14595476
236	0x3dd7a031	0.10528601
237	0x3e3210be	0.17389199
238	0x3e616212	0.22010067
239	0xbe86a29c	-0.26295936
240	0xbe673348	-0.22578156
241	0x3def3355	0.11679713
242	0xbd32f3bb	-0.04368947
243	0x3c44f8af	0.012022181
244	0xbe61e497	-0.22059856
245	0xbe5448b5	-0.2073086
246	0xbe289d60	-0.16466284
247	0x3d908847	0.07057243
248	0x3e7f8ba5	0.24955614
249	0xbe5ffbb6	-0.21873364
250	0xbe3e9ed7	-0.1861528
251	0xbe242e40	-0.16033268
252	0x3e32a61b	0.17446177
253	0x3dfc4f63	0.12319829
254	0xbd4e449f	-0.05035841
255	0xbcc337bd	-0.023830289

conv1.bias f4 [16]
0	0xbdc04613	-0.093883656
1	0xbe98bab2	-0.29829937
2	0xbee638e1	-0.4496527
3	0xbe0bb07b	-0.1364154
4	0xbdeadab2	-0.11467494
5	0x3cced072	0.025245879
6	0xbdb37477	-0.08762448
7	0xbec0cfc8	-0.37658525
8	0xbe3100b2	-0.17285421
9	0xbe6c4efd	-0.23077007
10	0xbec8b297	-0.39198753
11	0xbeb83330	-0.35976553
12	0xbd54c103	-0.051941883
13	0xbe5e34c7	-0.2169982
14	0xbe8e7880	-0.2782631
15	0xbed3efcb	-0.41393885

conv2.weight f4 [32, 16, 3, 3]
0	0xbc2e9660	-0.010655969
1	0x3d0ae43a	0.03390906
2	0x3dd274c5	0.10276178
3	0xbcad36f9	-0.021144377
4	0xbbba7179	-0.0056897965
5	0x3db791bb	0.08963343
6	0x3ab23b0d	0.0013597921
7	0xbc8e5f25	-0.017379353
8	0x3e58ab49	0.2115909
9	0xbdc64669	-0.096813984
10	0xbe2bbb25	-0.16770609
11	0xbe2aff6c	-0.16698998
12	0xbdb86b26	-0.09004812
13	0xbee481aa	-0.44630176
14	0xbe4a16b2	-0.1973522
15	0xbce8dc27	-0.02842529
16	0xbe855c8a	-0.26047164
17	0x3db88f29	0.09011681
18	0x3e0de4f4	0.1385687
19	0x3e0268af	0.12735246
20	0x3e1b8eba	0.15191165
21	0x3da4149c	0.080117434
22	0x3d168ef4	0.036757424
23	0x3dce5108	0.10074049
24	0x3d0040e8	0.0313119
25	0x3d548ff5	0.0518951
26	0x3d806a55	0.06270281
27	0xbe9aab8f	-0.30209014
28	0xbf01df34	-0.50731206
29	0xbeaf84d3	-0.34281024
30	0xbe9385f5	-0.2881314
31	0xbe1d6edc	-0.15374321
32	0xbe75d9fc	-0.24008936
33	0xbf1563b7	-0.5835528
34	0xbe756a0b	-0.23966233
35	0xbe01e12a	-0.1268355
36	0xbe56eaa6	-0.20987949
37	0xbcbc2ec6	-0.022971522
38	0x3d05460a	0.032537498
39	0xbd2262a4	-0.039644852
40	0x3d7fad24	0.06242098
41	0x3e78e930	0.24307704
42	0x3c75de39	0.015006595
43	0x3e42c28b	0.19019525
44	0x3e6e9dd5	0.23302396
45	0xbeac6d7c	-0.3367728
46	0xbdccc999	-0.09999389
47	0xbe016199	-0.12634887
48	0xbe6e455e	-0.23268649
49	0xbd2abc19	-0.04168329
50	0xbd2c8699	-0.04212055
51	0xbe41776c	-0.18893212
52	0x3d4cb5e8	0.049978167
53	0x3d619373	0.05507226
54	0x3e21f1d7	0.15814911
55	0x3e030097	0.12793194
56	0x3b7d2e45	0.0038632315
57	0x3dd16759	0.1022479
58	0x3e1ff717	0.15621601
59	0x3d6447a8	0.0557324
60	0x3df02a58	0.117268264
61	0x3e2828b8	0.16421783
62	0x3dd838fd	0.10557745
63	0x3c887b80	0.016660452
64	0x3e59a659	0.21254863
65	0x3cf72856	0.0301706
66	0x3c8b9daf	0.017042963
67	0x3d064217	0.032777872
68	0x3d7beb71	0.06150383
69	0xbd66e550	-0.056371033
70	0xbdea3bb4	-0.11437169
71	0xbe03f204	-0.1288529
72	0x3d2e049a	0.042484857
73	0x3c7a0804	0.0152607
74	0xbdaafd82	-0.08349134
75	0xbdd7a4f3	-0.105295084
76	0xbeaeb708	-0.34124017
77	0xbe6615ac	-0.22469205
78	0xbea91632	-0.33024746
79	0xbea66113	-0.32495937
80	0xbe9dfb71	-0.30855897
81	0x3c4b5694	0.012410779
82	0xbd2a4b59	-0.041575763
83	0xbda53453	-0.08066621
84	0xbd886d12	-0.066614285
85	0xbd10172d	-0.035178352
86	0x3dfdff77	0.12402242
87	0x3d9a6f8f	0.07540809
88	0x3e17e7d9	0.14834537
89	0x3deda55d	0.11603806
90	0xbe08adee	-0.13347599
91	0x3c53c38d	0.012925041
92	0x3e1408c1	0.14456464
93	0x3b7cbec5	0.0038565856
94	0xbdc4638b	-0.09589299
95	0xbdf9837d	-0.121832825
96	0x3decf23b	0.11569639
97	0xbe03d2fb	-0.12873451
98	0x3cf2b545	0.029627452
99	0xbaf45aa3	-0.0018642735
100	0x3d8468f8	0.06465334
101	0xbd7dc98b	-0.061959784
102	0xbdd56d7b	-0.10421272
103	0x3cbe65f3	0.023241973
104	0x3d8a3164	0.06747702
105	0xbbdbaf3d	-0.0067042396
106	0x3d6461d2	0.05575735
107	0x3e1c128b	0.15241449
108	0xbb2abdd8	-0.0026053097
109	0xbc0673d8	-0.00820633
110	0xbdaab554	-0.08335367
111	0x3c96e169	0.01841803
112	0x3d828688	0.06373316
113	0x3b8215cf	0.003969885
114	0x3e4dfb3a	0.20115367
115	0x3e20a3ca	0.1568748
116	0x3dd34ddb	0.10317584
117	0xbd84e757	-0.06489437
118	0x3e879d00	0.2648697
119	0x3e5aaefb	0.21355812
120	0xbe6451b8	-0.22296798
121	0xbe073f58	-0.13207757
122	0xbd518159	-0.051148746
123	0xbe4b086b	-0.1982743
124	0xbd0a2e7b	-0.033735733
125	0x3d91f6a7	0.07127123
126	0xbe85c1ba	-0.26124364
127	0xbe4da904	-0.20084006
128	0x3e063cb6	0.13109097
129	0x3b0940a2	0.0020943065
130	0xbc1ca75b	-0.009561385
131	0xbcb93eb0	-0.0226129
132	0x3e797ddb	0.24364416
133	0x3da91f0f	0.08257877
134	0xbe42bada	-0.1901659
135	0x3c2be4f0	0.010491595
136	0x3e119fc2	0.14221099
137	0xbbd114d8	-0.0063806586
138	0xbd1be712	-0.038062163
139	0xbd620178	-0.055177182
140	0xbe2f2262	-0.1710296
141	0xbd2a19e8	-0.041528612
142	0xbddae082	-0.10687353
143	0xbd93ef3b	-0.07223364
144	0x3e39d5fd	0.18148036
145	0x3cd8d0e5	0.026466796
146	0x3de5a452	0.11212982
147	0xbd5900f7	-0.052979436
148	0xbc9687d3	-0.018375313
149	0xbe07d475	-0.1326464
150	0xbe061afd	-0.13096233
151	0xbd2a21d8	-0.041536182
152	0xbd14d90b	-0.0363398
153	0xbca13a7d	-0.01968121
154	0xbd99fd02	-0.075189605
155	0xbe05d29c	-0.13068622
156	0x3e269ee8	0.16271555
157	0xbe04f23a	-0.12983027
158	0xbe2abc9b	-0.1667351
159	0x3e2c75f2	0.16841868
160	0xbd869b68	-0.0657261
161	0xbe198a0b	-0.14994065
162	0x3d7e20c8	0.06204298
163	0x3d59418f	0.053041037
164	0x3dad8b40	0.084738255
165	0xbd92f07b	-0.07174774
166	0x3c1672a5	0.009182607
167	0xbdf31d4f	-0.118708245
168	0xbe13c8e5	-0.14432104
169	0xbe833847	-0.25628874
170	0xbd23a7b2	-0.03995485
171	0xbd24c8a3	-0.040230405
172	0xbb8187a6	-0.003952938
173	0xbd8bbad4	-0.06822744
174	0xbd917116	-0.071016476
175	0x3e03d6a2	0.12874845
176	0x3d0ea0bf	0.03482127
177	0x3d65d98e	0.05611568
178	0x3dedc8f8	0.11610597
179	0x3d96585d	0.07341073
180	0x3e8d733c	0.2762698
181	0xbd75dc59	-0.060024593
182	0x3d37ef78	0.04490611
183	0x3d92492d	0.071428634
184	0x3d0b629d	0.03402959
185	0x3ca74426	0.020418238
186	0xbe9c7afe	-0.30562586
187	0xbdc6a371	-0.09699143
188	0xbe4894c6	-0.19588003
189	0x3dba7efd	0.09106252
190	0x3e3d3841	0.1847849
191	0x3d62e498	0.055393785
192	0xbc547c8c	-0.012969147
193	0x3dc3aa05	0.09553913
194	0xbc6102bf	-0.013733565
195	0xbdef3321	-0.11679674
196	0xbe5562a1	-0.20838405
197	0xbdb87ed4	-0.090085655
198	0x3dccc2c2	0.099980846
199	0x3e443697	0.1916145
200	0x3e2a95dc	0.1665873
201	0xbdbbdb17	-0.091726474
202	0x3d934232	0.0719036
203	0xbdeb3e88	-0.11486536
204	0xbe841096	-0.25793904
205	0xbe1bbde9	-0.15209164
206	0xbdef952e	-0.11698376
207	0x3dc4dea8	0.09612781
208	0x3bc959fc	0.00614476
209	0x3dac8e92	0.08425631
210	0xbe2cd88d	-0.16879483
211	0xbe49ab08	-0.1969415
212	0xbe13c5f5	-0.14430983
213	0xbc30d1ae	-0.010792179
214	0xbe4a98fa	-0.19784918
215	0xbda6e4a1	-0.08149076
216	0xbd0a947f	-0.033833023
217	0x3cea7ff6	0.02862547
218	0x3dba759a	0.09104462
219	0xbe6ffa97	-0.23435436
220	0xbe8a76ed	-0.27043858
221	0xbcfd0ea7	-0.030890776
222	0x3c85d65c	0.016337566
223	0x3de60b01	0.112325676
224	0xba0b335b	-0.0005310082
225	0x3d0e1203	0.034685146
226	0x3e662603	0.22475438
227	0x3dc0a5e9	0.09406645
228	0xbd87c6fa	-0.06629749
229	0x3c9c7071	0.019096585
230	0xbcb15d9e	-0.021651085
231	0xbe02e46d	-0.1278245
232	0x3d00f575	0.031484086
233	0xbda90ecb	-0.08254775
234	0xbe35faf0	-0.17771506
235	0xbc40d6de	-0.011769978
236	0xbd1805e9	-0.03711501
237	0xbe2aa2f9	-0.16663732
238	0xbc376924	-0.011194501
239	0xbda3f3d7	-0.08005493
240	0xbd0e9361	-0.03480852
241	0x3dec7b73	0.115469836
242	0x3cfafb7c	0.030637495
243	0x3dbaadf3	0.091152094
244	0xbbecd93a	-0.007228044
245	0x3d12b471	0.035816614
246	0x3dc6beb5	0.09704343
247	0x3d5fc821	0.054634217
248	0x3e03c203	0.12866978
249	0xbe84fbb5	-0.25973287
250	0xbdd32080	-0.10308933
251	0xbdd1801c	-0.10229513
252	0xbe046d94	-0.12932426
253	0xbd307e34	-0.043089107
254	0x3cf01d40	0.029310822
255	0xbc56c9b8	-0.013109617

conv2.bias f4 [32]
0	0xbdc48407	-0.09595495
1	0xbe1784b0	-0.1479671
2	0xbdf9df7e	-0.12200831
3	0xbdf00a53	-0.11720719
4	0xbd8714c5	-0.06595758
5	0x3c3aa9ab	0.011392991
6	0xbba4b23d	-0.0050261305
7	0x3c32ba66	0.010908699
8	0x3c64150d	0.0139210345
9	0xbd289788	-0.041160136
10	0xbdbfd1ec	-0.09366211
11	0xbd425d2e	-0.047452144
12	0x3bbd88bb	0.005784122
13	0x3cde9479	0.027170407
14	0xbd197092	-0.03746087
15	0xbdbb2874	-0.09138575
16	0x3befe90a	0.0073214816
17	0xbd90918d	-0.070590116
18	0xbc833dff	-0.016020773
19	0xbdda038a	-0.10645206
20	0xbdb7fb65	-0.089834966
21	0xbd9762cd	-0.07391892
22	0xbba04384	-0.004890861
23	0xbd782be3	-0.06058873
24	0xbddab844	-0.10679677
25	0xbcfc2f87	-0.030784382
26	0x3d9362bd	0.07196567
27	0xbd835bd7	-0.064140014
28	0x3d2fb23c	0.042894587
29	0xbd5bd353	-0.05366833
30	0xbe076187	-0.13220797
31	0xbe37fbca	-0.17967144

fc1.weight f4 [120, 800]
0	0x3b4dcc1e	0.003140218
1	0xbe7a63f5	-0.24452193
2	0xbe861c42	-0.26193434
3	0xbd1fc23b	-0.039003592
4	0xbe14d7f7	-0.14535509
5	0x3c81e646	0.015856873
6	0xbea588fd	-0.32331076
7	0xbe1b680e	-0.15176412
8	0x3d1d5ded	0.038419653
9	0xbd60cec3	-0.054884683
10	0x3e24e544	0.16103083
11	0x3c9f637c	0.019456618
12	0xbd0f6dd5	-0.035016853
13	0xbcc68adb	-0.024236133
14	0xbdd82f17	-0.10555857
15	0x3e2b122f	0.16706155
16	0x3d706bba	0.058696486
17	0x3e044833	0.12918167
18	0x3e827fdf	0.25488183
19	0x3e503a85	0.20334823
20	0xbe1b8c90	-0.15190339
21	0xbccb5f76	-0.024825793
22	0xbd5e0792	-0.05420644
23	0x3dc4eab7	0.09615081
24	0x3d1a8d1a	0.03773222
25	0x3e27abf9	0.16374196
26	0x3d2efbfb	0.042720776
27	0xbc0f87ea	-0.008760432
28	0xbcd3c4b9	-0.02585064
29	0xbe5dd883	-0.21664624
30	0x3eb2f743	0.3495427
31	0x3dd7417c	0.10510537
32	0xbe0a40fc	-0.13501352
33	0xbe92c371	-0.28664735
34	0xbe16dd96	-0.14732966
35	0x3e5d553c	0.21614546
36	0x3dd2ca4f	0.102924936
37	0x3cee2914	0.029072322
38	0xbd871db9	-0.06597466
39	0xbe0fd2e7	-0.14045297
40	0xbcb7f2bb	-0.02245461
41	0xb944184b	-0.00018701066
42	0x3d92f858	0.07176274
43	0x3e2beebb	0.16790287
44	0x3dba6a48	0.09102303
45	0xbdb6abe9	-0.08919508
46	0xbd1159a2	-0.03548587
47	0xbe29b080	-0.16571236
48	0xbe26c643	-0.16286568
49	0xbda2573f	-0.07926797
50	0x3ed35e55	0.41282907
51	0x3dae4fbb	0.08511301
52	0xbe8152e0	-0.2525854
53	0xbe8273f9	-0.25479105
54	0xbe858881	-0.26080707
55	0x3e8162fe	0.25270838
56	0x3de06e76	0.10958569
57	0xbd590736	-0.052985393
58	0x3bb5122a	0.005525847
59	0xbe5807de	-0.21096751
60	0x3dca384a	0.098740175
61	0x3d12aa2b	0.035806816
62	0x3cdb8275	0.026795605
63	0xbd0e7006	-0.034774803
64	0x3ae32d97	0.0017332312
65	0x3dafba60	0.0858047
66	0x3df2539b	0.11832353
67	0x3d98d86b	0.074631535
68	0x3d8632a8	0.06552631
69	0x3e5f6ed1	0.21819617
70	0xbd8c6f7b	-0.06857201
71	0xbe0e973c	-0.13924879
72	0xbde58278	-0.112065256
73	0x3da3274d	0.079664804
74	0x3d97056d	0.07374082
75	0xbc2efd12	-0.010680454
76	0x3c720f44	0.014774147
77	0xbcf2cb7f	-0.02963805
78	0x3d132777	0.03592631
79	0x3cd47c6c	0.025938235
80	0x3c989128	0.018623903
81	0x3cd86f66	0.026420306
82	0xbd253c2c	-0.040340587
83	0xbd213cbb	-0.039364558
84	0xbc9cdf20	-0.019149363
85	0x3c044d58	0.008075081
86	0x3c8b33d6	0.01699249
87	0xbcbc57a2	-0.022991005
88	0x3c4889d1	0.012239889
89	0x3ccff3b4	0.025384761
90	0xbc562b62	-0.013071867
91	0x3b89cdc3	0.004205437
92	0xbd53b77a	-0.05168865
93	0x3d109d3d	0.035306204
94	0x3cfc8bbe	0.030828353
95	0xbcb6ec00	-0.02232933
96	0xbc75bfe4	-0.014999364
97	0xbbeddb35	-0.0072587975
98	0x3cebad16	0.028769057
99	0xbca9e928	-0.02074106
100	0x3e601002	0.21881106
101	0x3e6db8a8	0.23214972
102	0xbe7f5f3d	-0.24938674
103	0xbeb89284	-0.36049283
104	0x3d0ac78f	0.03388172
105	0x3e2d1807	0.16903697
106	0x3d5294cc	0.051411435
107	0xbe1bdfcf	-0.15222095
108	0xbe8c73ed	-0.27432194
109	0x3e099d59	0.1343893
110	0x3e01811f	0.12646912
111	0x3e29a703	0.16567616
112	0x3d989ce4	0.074517995
113	0xbd1f828a	-0.03894285
114	0x3c9a083a	0.01880275
115	0x3e5de8f6	0.21670899
116	0x3e6eb004	0.23309332
117	0x3dc45c8f	0.09587967
118	0xbc0bd68b	-0.008535038
119	0xbd8718f1	-0.06596554
120	0xbdcebc63	-0.10094526
121	0xbd976b08	-0.073934615
122	0xbdb3a216	-0.0877115
123	0xbce4d688	-0.027934328
124	0x3c3af5a8	0.011411108
125	0xbd937fcf	-0.07202112
126	0x3d010620	0.031499982
127	0x3d1997d2	0.037498303
128	0x3e38710f	0.18011878
129	0x3e7fe467	0.24989472
130	0xbdd87c2f	-0.10570561
131	0xbc8d13e2	-0.017221395
132	0x3d37c64f	0.044866856
133	0x3e370291	0.17872073
134	0x3e0bdb63	0.13657908
135	0xbdc13505	-0.09433941
136	0xbddd9e7d	-0.10821245
137	0xbe5de0e8	-0.21667826
138	0x3e0b5a20	0.13608599
139	0x3dd18dec	0.102321476
140	0x3d9f335a	0.077734664
141	0x3d1df55e	0.03856408
142	0x3c0cd9cb	0.008596848
143	0x3ccbd0ab	0.024879774
144	0x3b1449d8	0.0022627022
145	0x3df75809	0.12077338
146	0x3d9420f3	0.07232847
147	0x3e181d7c	0.14854997
148	0x3dbe970a	0.09306152
149	0xbe0577cf	-0.13033985
150	0xbc84d93d	-0.016216869
151	0xbe011448	-0.12605393
152	0x3d927170	0.07150543
153	0x3e783571	0.24239136
154	0xbc02b634	-0.007978011
155	0x3bd1fc21	0.00640823
156	0xbe222608	-0.1583482
157	0xbdaa2906	-0.08308606
158	0x3e537d53	0.20653276
159	0x3e4f9efc	0.20275491
160	0xbcad258b	-0.021136066
161	0xbce081ab	-0.02740558
162	0x3dfbfc91	0.123040326
163	0x3d9d0f33	0.07668915
164	0xbd6ccbed	-0.057811666
165	0xbdb2ed65	-0.08736686
166	0xbe564c6b	-0.20927589
167	0xbdd35f57	-0.10320919
168	0xbdbacd66	-0.09121208
169	0xbd4d7fb4	-0.050170615
170	0x3d9324dd	0.071847655
171	0x3d209666	0.03920593
172	0x3dd2e33c	0.10297248
173	0x3e0b6e4d	0.13616295
174	0xbe207e06	-0.15673074
175	0xbdc8e87a	-0.098099664
176	0xbe0f8ae9	-0.14017834
177	0xbd8f43eb	-0.06995376
178	0x3ec10be9	0.377044
179	0x3e20a4a5	0.15687807
180	0xbe481218	-0.19538152
181	0xbe6b9d96	-0.23009333
182	0x3e8b348f	0.27188537
183	0x3e6de92b	0.23233478
184	0x3d895999	0.067065425
185	0xbdfd1354	-0.12357202
186	0xbdc05991	-0.093920834
187	0x3ddfee3c	0.109341115
188	0xbd330b9d	-0.043712247
189	0xbe532f07	-0.20623408
190	0xbe0c7a17	-0.13718449
191	0xbcdac533	-0.02670536
192	0xbe026a1c	-0.1273579
193	0xbe141adf	-0.14463376
194	0xbe10a4e4	-0.14125401
195	0xbdb7bc97	-0.089715175
196	0x3de20034	0.11035195
197	0x3d275870	0.040855825
198	0xbda8a6c2	-0.082349315
199	0xbd6cf9a6	-0.05785527
200	0xbde8e032	-0.11370887
201	0x3daabab7	0.08336394
202	0x3d362a63	0.044474017
203	0x3da4d9f1	0.080493815
204	0xbcfacc75	-0.03061507
205	0xbdc0a0b9	-0.094056554
206	0xbe896dd1	-0.26841596
207	0xbd38ab39	-0.045085166
208	0x3da76211	0.081730016
209	0x3e425d7a	0.18980971
210	0xbe87a0ad	-0.26489773
211	0xbe742554	-0.23842365
212	0xbe0a2e33	-0.13494186
213	0x3e5206e2	0.20510438
214	0xbc1be2b7	-0.009514502
215	0xbd98e896	-0.07466237
216	0x3d89032d	0.06690059
217	0xbe5450d1	-0.20733954
218	0xbc7eb65d	-0.0155464085
219	0x3d680045	0.056640882
220	0x3d3d3157	0.046189632
221	0x3e2f4c24	0.17118889
222	0x3c73d3e5	0.014882063
223	0x3d9327cc	0.07185325
224	0x3d46b7f7	0.048515286
225	0x3dab9f47	0.08379989
226	0x3db56d7c	0.08858773
227	0x3c94a7d0	0.018146425
228	0xbd73c6e6	-0.059515856
229	0x3d71fd9f	0.059079763
230	0x3dd9adf1	0.1062888
231	0x3c9b035b	0.018922498
232	0xbdc9ce10	-0.098537564
233	0xbd49d2a4	-0.04927315
234	0xbdcd75db	-0.10032245
235	0x3d8b89b1	0.06813372
236	0x3d3ac2c0	0.045595884
237	0x3d9117fb	0.07084652
238	0xbe2c7c98	-0.16844404
239	0xbe0e767e	-0.13912389
240	0x3c1a4386	0.009415513
241	0x3dcc8b60	0.09987521
242	0x3d9c68d1	0.0763718
243	0x3d55d792	0.052207537
244	0xbdd6f4eb	-0.10495933
245	0xbd669e55	-0.05630334
246	0x3d2b9837	0.04189321
247	0xbd041842	-0.032249697
248	0xbe19d035	-0.15020831
249	0xbe21e05a	-0.1580824
250	0x3e11ac8a	0.14225975
251	0x3d0e68e7	0.03476801
252	0xbe03249c	-0.12806934
253	0x3c5ae0f9	0.013359302
254	0xbd400cdd	-0.046887267
255	0x3cef4a37	0.029210193

fc1.bias f4 [120]
0	0xbc3777b0	-0.011197969
1	0xbdef521c	-0.11685583
2	0xbda4dd43	-0.08050015
3	0x3bf2576e	0.0073956763
4	0xbd0101b2	-0.031495757
5	0xbc4e5374	-0.012593139
6	0xbd1f377a	-0.038871266
7	0xbb2604bc	-0.0025332412
8	0xbd07fddf	-0.033201095
9	0xbbdc767f	-0.006727993
10	0x3cb0a1be	0.0215615
11	0x3ae77bab	0.0017660757
12	0x3bcc2ff2	0.0062313015
13	0xbc9bea90	-0.019032747
14	0x3cb0c62e	0.021578874
15	0xba23919a	-0.0006239653
16	0xbc576c13	-0.0131483255
17	0xbdda6a0e	-0.106647596
18	0xbdca2a36	-0.09871332
19	0x3d883093	0.0664989
20	0xbd003cf4	-0.03130813
21	0xbbc1ab9f	-0.0059103514
22	0xbcb19d12	-0.021681342
23	0xbd975a48	-0.07390267
24	0xbcf7f19e	-0.03026658
25	0xbda06e6d	-0.07833562
26	0x3d136229	0.035982285
27	0xbc6745c4	-0.0141157545
28	0xbcc37b3f	-0.02386248
29	0xbcf80490	-0.030275613
30	0x3c496714	0.012292642
31	0xbcce9c06	-0.025220882
32	0xbd200700	-0.039069176
33	0xbc0b9fce	-0.008521987
34	0xbbb3cb2e	-0.0054868674
35	0x3ca41983	0.020031696
36	0xbd54bed3	-0.051939797
37	0xbba208a4	-0.0049448777
38	0x3bab4baf	0.005227528
39	0x3ced4357	0.028962774
40	0xbd06ddde	-0.032926433
41	0x3cec46af	0.028842298
42	0x3b8f4c42	0.0043731043
43	0xbd219680	-0.03945017
44	0xbd435379	-0.047687028
45	0xbd2d118d	-0.042253066
46	0xbc8c5aed	-0.0171332
47	0xbcf09b00	-0.029370785
48	0xbd16a305	-0.03677656
49	0x3cf81ed6	0.030288141
50	0xbcefb177	-0.029259427
51	0xbcebb73c	-0.028773896
52	0xbcf9624a	-0.030442376
53	0x3cb0ce9c	0.021582894
54	0x3aa2e790	0.001242863
55	0xbcc02a13	-0.023457563
56	0x3c24d772	0.010061132
57	0xbe59f035	-0.21283038
58	0xbd21749b	-0.039417844
59	0xbdacc563	-0.08436086
60	0xbd11fb0f	-0.03563982
61	0xbc49be01	-0.012313367
62	0x3daa05bd	0.08301876
63	0xbd68a411	-0.05679709
64	0xbd4b4366	-0.049624823
65	0xbcdf2345	-0.027238498
66	0x3cb746a9	0.02237256
67	0xbcd376a0	-0.0258134
68	0xbc5c3778	-0.013440959
69	0x3cf9b29a	0.030480672
70	0x3d24bec4	0.04022099
71	0xbcd39fd6	-0.025833052
72	0x3c23edd9	0.010005438
73	0xbd8d8f06	-0.06912045
74	0xbd35ba0c	-0.04436688
75	0xbd411c62	-0.04714621
76	0xbc17f026	-0.009273564
77	0xbacd24b3	-0.0015651196
78	0xbd11e91a	-0.035622694
79	0x3c2ce9a2	0.010553749
80	0xbd562b7f	-0.052287575
81	0x3bd3b5b9	0.006460872
82	0xbc7c12b7	-0.015385321
83	0xbc37dc87	-0.011222011
84	0x3cbf59a3	0.023358172
85	0x3dbebd86	0.093134925
86	0x3b83fc0e	0.00402785
87	0xbd62d29f	-0.055376645
88	0xbd13f7c2	-0.036124952
89	0x3d1b4a32	0.037912555
90	0xbd9776d8	-0.073957145
91	0xbc3f18cd	-0.011663628
92	0x3a7a4b89	0.0009547999
93	0xbd0605d3	-0.0327204
94	0xbba9123a	-0.0051596435
95	0xbb95aa89	-0.0045674485
96	0x3caa7043	0.020805484
97	0x3cbb5176	0.022865992
98	0x3bcd48d2	0.0062647844
99	0xbd60d349	-0.054888997
100	0xbda98aa0	-0.08278394
101	0x3ca2f881	0.019893887
102	0xbc56f178	-0.013119094
103	0xbd39bbc7	-0.045345094
104	0xbcaa23a9	-0.020768957
105	0x3cea3753	0.028590834
106	0xbd991530	-0.07474744
107	0x3b93649a	0.0044980766
108	0xbd88a84f	-0.06672727
109	0xbbfeb3f8	-0.007772919
110	0xbd08d20a	-0.033403434
111	0x3da1a291	0.07892335
112	0x3d69a661	0.057043437
113	0x3c4a396f	0.012342795
114	0x3c0224dc	0.007943358
115	0xbd1c9909	-0.038231883
116	0xbc44298f	-0.011972799
117	0x3bed929d	0.0072501437
118	0xbd05d0f4	-0.032669976
119	0xbcf65390	-0.030069143

fc2.weight f4 [84, 120]
0	0xbdf8d65e	-0.12150262
1	0x3d6e1b57	0.058131542
2	0xbd2ab81b	-0.041679483
3	0x3c5baafc	0.013407465
4	0xbce15b39	-0.027509319
5	0x3e42f9f1	0.19040658
6	0xbd94cea6	-0.072659776
7	0x3d20641d	0.039157975
8	0x3c9acf60	0.018897712
9	0x3e371c8a	0.1788198
10	0xbea5bbd6	-0.3236987
11	0x3cdae9e6	0.02672286
12	0x3d02d38b	0.031940024
13	0xbd46b2dd	-0.04851042
14	0xbd26dc0f	-0.040737208
15	0x3d98c7ba	0.0745997
16	0xbdb9fa68	-0.09080964
17	0xbdccd6d8	-0.10001916
18	0xbe17eebf	-0.14837168
19	0x3bc65a64	0.006053256
20	0x3d8a1aa1	0.0674336
21	0x3ae01340	0.0017095581
22	0x3dc7172b	0.09721216
23	0xbc4c1e06	-0.01245833
24	0x3d99213d	0.07477043
25	0x3d27952a	0.04091374
26	0xbd8e3462	-0.06943585
27	0xbd09ee75	-0.033674676
28	0xbe1c8966	-0.15286788
29	0xbeac324f	-0.33632132
30	0xbcb2e21a	-0.02183633
31	0x3d8ade44	0.06780675
32	0xbd9b66c4	-0.0758796
33	0x3d50fc86	0.051022075
34	0x3c072093	0.008247512
35	0xbe12ecc6	-0.14348134
36	0xbcc4808b	-0.023987075
37	0xbdaa9ee0	-0.08331084
38	0xb9eb2d6f	-0.00044856544
39	0xbdd904c0	-0.10596609
40	0x3d1e6081	0.038666252
41	0xbe10acb9	-0.14128388
42	0xbd6ce2d3	-0.057833504
43	0xbd95120c	-0.07278833
44	0x3dba7870	0.09105003
45	0xbec0027f	-0.37501904
46	0x3c3aca8a	0.011400828
47	0x3dae5ad8	0.08513421
48	0xbe3dc2a8	-0.18531287
49	0x3cc3a56c	0.02388259
50	0x3e47917e	0.19489095
51	0xbc863496	-0.016382497
52	0x3d81862e	0.06324421
53	0xbca15e8e	-0.019698408
54	0x3e4428ca	0.19156185
55	0x3dabdc63	0.08391645
56	0xbd848258	-0.064701736
57	0x3d4053c0	0.04695487
58	0x3d9bf0a3	0.07614257
59	0x3d0fcd23	0.035107743
60	0x3d73a1c4	0.059480444
61	0xbd009400	-0.031391144
62	0x3d9a2f4e	0.07528554
63	0x3ddc2b52	0.1075045
64	0x3e211b7b	0.15733139
65	0xbe248f72	-0.16070345
66	0x3d1d550a	0.038411178
67	0xbd8df9b7	-0.06932395
68	0x3e5ad678	0.21370876
69	0xbe15da47	-0.14634047
70	0x3de1ee62	0.11031796
71	0xbcbcadae	-0.023032036
72	0x3dc92b38	0.098226964
73	0xbb9a483a	-0.004708317
74	0xbe439506	-0.19099817
75	0xbe20a108	-0.15686429
76	0x3d8e5ac1	0.06950904
77	0x3d8b7779	0.06809897
78	0x3d3a2b39	0.045451377
79	0x3dd67cf1	0.104730494
80	0x3c5fb685	0.013654356
81	0x3b860e2d	0.0040910454
82	0x3ac39995	0.001492309
83	0xbda28b3e	-0.079367146
84	0xbdcc763e	-0.099834904
85	0x3e5ad2ce	0.21369478
86	0xbd977f41	-0.07397319
87	0xbd8a514c	-0.067537874
88	0xbd900c79	-0.07033629
89	0xbe1223d9	-0.14271487
90	0xbb8bf3b4	-0.004270995
91	0x3e13f623	0.14449362
92	0x3d909346	0.0705934
93	0x3d62f127	0.055405762
94	0xbdec5e16	-0.11541383
95	0x3d14b540	0.036305666
96	0x3c6b61b0	0.014366552
97	0xbb8d26da	-0.00430761
98	0x3caee3a2	0.021348778
99	0xbcd12fe8	-0.025535539
100	0xbc13f53c	-0.009030636
101	0x3d86db43	0.065847896
102	0x3cf7fb79	0.030271279
103	0xbe056f31	-0.13030697
104	0x3cf70608	0.030154243
105	0xbe8724b7	-0.263952
106	0x3d8afe86	0.06786828
107	0x3c8ddbd1	0.01731673
108	0xbdbe95ff	-0.09305953
109	0x3d954f77	0.07290547
110	0x3da1e853	0.079056405
111	0xbe3c1450	-0.18367124
112	0x3d9fb78c	0.07798681
113	0x3d01b666	0.03166809
114	0x3d75fa20	0.06005299
115	0xbd02c42b	-0.03192536
116	0xbd13bcd0	-0.036068738
117	0x3da3a988	0.0799132
118	0xbdae3416	-0.08506028
119	0xbd72b7a0	-0.05925715
120	0xbe174c6f	-0.14775251
121	0x3d94444a	0.072395876
122	0x3c4c6cb6	0.012477091
123	0xbd8ae2e7	-0.067815594
124	0xbdb79afd	-0.089651085
125	0x3d3bc9ce	0.045846753
126	0xbb6dfd60	-0.0036314353
127	0xbd578cb1	-0.05262441
128	0xbdfcb58a	-0.12339313
129	0xbcb25f50	-0.021773964
130	0xbd90ca1b	-0.070697986
131	0x3d898a70	0.06715858
132	0x3d1c61bc	0.038179144
133	0x3cf70e18	0.030158088
134	0xba6af200	-0.00089624524
135	0xbdc647f2	-0.09681691
136	0xbe2e7005	-0.1703492
137	0xbe4a1e08	-0.19738019
138	0xbe387ed8	-0.18017137
139	0xbd769b9b	-0.06020699
140	0x3d48156c	0.048848554
141	0xbdcb9df0	-0.099422336
142	0x3dd2a4bb	0.10285326
143	0x3e191317	0.14948688
144	0xbddd77bb	-0.108138524
145	0xbcf339d6	-0.029690664
146	0xbd06d0c9	-0.032913957
147	0x3d76e886	0.060280345
148	0xbdc48374	-0.09595385
149	0xbe1a310d	-0.15057774
150	0x3cd08701	0.025455
151	0x3d9feb35	0.07808534
152	0xbde2181b	-0.11039754
153	0xbdb7aee9	-0.08968908
154	0xbdfb7fb0	-0.12280214
155	0xbcbf7a96	-0.023373883
156	0xbd7a6c98	-0.06113872
157	0x3c8ec22d	0.017426575
158	0xbdaceb2e	-0.084432945
159	0xbe25c070	-0.1618669
160	0x3db687e4	0.08912638
161	0x3e012f5d	0.12615724
162	0x3d20b5b4	0.039235786
163	0xbd9f5b65	-0.07781104
164	0x3d2d4407	0.042301204
165	0xbe0b8d2c	-0.13628072
166	0xbd27cd72	-0.040967412
167	0x3df19992	0.11796869
168	0x3da3b91f	0.079942934
169	0x3dc7e990	0.097613454
170	0x3dd963e6	0.10614757
171	0x3d0e43c9	0.034732614
172	0xbc7ff01b	-0.01562121
173	0x3d361403	0.04445268
174	0xbc1dbece	-0.009628011
175	0x3da0b178	0.078463495
176	0xbe4887c2	-0.19583037
177	0xbd2d54c5	-0.04231717
178	0xbd22b8cf	-0.03972703
179	0x3b8c69c2	0.0042850683
180	0xbd8f0e48	-0.06985146
181	0xbdc60089	-0.09668071
182	0xbd74f906	-0.0598078
183	0x3c238ccf	0.009982302
184	0xbc187450	-0.009305075
185	0x3d5c296d	0.053750444
186	0xbdc0b22e	-0.09408985
187	0xbd88f96f	-0.06688201
188	0xbe1f394d	-0.15549202
189	0xbe3544fa	-0.17702094
190	0xbe06d5c7	-0.13167487
191	0xbda07afd	-0.07835958
192	0xbda8046b	-0.08203968
193	0xbdde8ac2	-0.1086631
194	0xbdb7040f	-0.08936321
195	0xbdcbb690	-0.099469304
196	0x3dc6bfc6	0.09704547
197	0xbda79afe	-0.08183859
198	0x3bc30d10	0.005952485
199	0xbc168217	-0.009186289
200	0xbe0d2115	-0.13782151
201	0xbd03eb6d	-0.03220694
202	0xbde3bd48	-0.11120087
203	0x3d03c939	0.032174323
204	0xbd6462a8	-0.05575815
205	0xbdecd401	-0.11563874
206	0xbdad9d6f	-0.08477294
207	0xbcc3f613	-0.023921048
208	0x3d66663e	0.05624985
209	0xbe41c1ce	-0.18921587
210	0x3d47279c	0.04862176
211	0xbcd8261c	-0.02638536
212	0xbd8b50dc	-0.06802532
213	0x3d83d3f7	0.064369135
214	0x3bab32d5	0.0052245655
215	0xbde35643	-0.111004375
216	0xbd8ad78b	-0.06779393
217	0xbe041d91	-0.12901904
218	0xbb86c997	-0.004113387
219	0xbdb0c80e	-0.086319074
220	0x3b3b919a	0.002862072
221	0x3c976756	0.018481892
222	0x3e3511e0	0.176826
223	0xbd63219a	-0.055451967
224	0xbd618b9b	-0.05506478
225	0xbd1ccb2d	-0.0382797
226	0x3e81ef2e	0.25377792
227	0x3d14cb98	0.036326975
228	0x3c7f1a38	0.015570216
229	0x3ccab5dd	0.024744922
230	0x3d13e33e	0.036105387
231	0xbdcaa514	-0.098947674
232	0xbe6b534b	-0.22980992
233	0x3cd9e433	0.026598072
234	0x3d85802f	0.0651859
235	0xbd55f2a0	-0.05223334
236	0xbd7aaf62	-0.061202414
237	0xbe7d4ec7	-0.24737082
238	0x3d48db42	0.049037226
239	0xbddd1be5	-0.10796336
240	0x3c0b68c7	0.008508868
241	0x3d671392	0.056415148
242	0x3c8cb379	0.017175423
243	0x3d447e5a	0.04797206
244	0xbcc4594f	-0.023968367
245	0xbd86f912	-0.06590475
246	0xbd346696	-0.044043146
247	0xbe03757d	-0.12837787
248	0xbdbacace	-0.09120713
249	0x3cf59462	0.029977981
250	0x3e07e98c	0.13272685
251	0x3d800728	0.06251365
252	0x3d54ead2	0.051981755
253	0xbd9cbc9a	-0.076531604
254	0x3aa7b8d6	0.0012796174
255	0xbd6cfdc9	-0.057859216

fc2.bias f4 [84]
0	0x3d810e3c	0.06301543
1	0xbe1eb12a	-0.1549727
2	0xbd761b7b	-0.0600848
3	0xbda729f2	-0.08162297
4	0xbd90e5d1	-0.07075084
5	0x3c0cbc39	0.008589798
6	0xbce802bf	-0.028321622
7	0x3c1f08fd	0.009706733
8	0x3d84074e	0.06446706
9	0xbdf31e2b	-0.118709885
10	0xbc24444d	-0.01002605
11	0x3d8a0cc4	0.06740716
12	0xbcb7acf8	-0.022421345
13	0x3d4d5f97	0.05013999
14	0xbd5cd240	-0.053911448
15	0xbe009553	-0.12556963
16	0x3dddfe8d	0.10839567
17	0x3c8a759a	0.01690178
18	0xbccc3aa7	-0.024930311
19	0x3b9247b1	0.0044641127
20	0x3d7810b5	0.060562808
21	0xbdd0b283	-0.101902984
22	0xba6454be	-0.00087101373
23	0xbdde30e1	-0.10849167
24	0xbda5e50d	-0.081003286
25	0xbde2ba11	-0.110706456
26	0x3ddc1f61	0.107481726
27	0x3dc2c07c	0.0950937
28	0x3c077b1e	0.0082690995
29	0x3e190f1d	0.14947172
30	0xbc063b8a	-0.008192906
31	0x3d90ca40	0.07069826
32	0xbd26954b	-0.04066972
33	0x3d15c53c	0.03656505
34	0xbdf8d61b	-0.121502124
35	0x3de94cdb	0.11391612
36	0x3da21f61	0.07916141
37	0x3c9aae99	0.018882083
38	0xbdb45b9f	-0.08806538
39	0x3cd77406	0.026300441
40	0x3d03db1f	0.032191392
41	0x394cd101	0.00019532816
42	0x3d0fe789	0.03513292
43	0x3d94a821	0.072586305
44	0xbd32d31a	-0.043658353
45	0x3d826ac4	0.0636802
46	0xbe2b5130	-0.1673019
47	0xbe11dfd4	-0.1424554
48	0xbd8e172c	-0.069380134
49	0x3df0ccf9	0.117578454
50	0xbceece8b	-0.029151222
51	0xbe0f5f74	-0.14001256
52	0x3d3e12e7	0.046404745
53	0xbe2afbaf	-0.16697572
54	0xbd1427c9	-0.036170755
55	0xbc3b3497	-0.011426113
56	0xbbe89639	-0.007097986
57	0x3dc5aa89	0.096516676
58	0xbc4fec9c	-0.012690689
59	0x3d0cf6e7	0.034415152
60	0xbce4825e	-0.027894195
61	0xbd44f496	-0.048084818
62	0x3e13e47f	0.14442633
63	0xbda98ff7	-0.08279412
64	0xbdb08110	-0.08618367
65	0xbd8d7d2e	-0.06908642
66	0xbdd2b08b	-0.10287579
67	0x3d265a59	0.040613506
68	0xbddf8bf3	-0.10915365
69	0x3d558ace	0.052134328
70	0xbd9e4f08	-0.07729918
71	0xbcbbc56c	-0.022921287
72	0xbd4efd03	-0.05053426
73	0xbcf5adfc	-0.029990189
74	0xbe1b44ff	-0.15163039
75	0xbe0da51a	-0.13832512
76	0x3c3924fd	0.011300323
77	0xbd2a069f	-0.04151022
78	0xbcd0da48	-0.02549471
79	0xbdad3242	-0.084568515
80	0x3bb26e87	0.005445305
81	0xbd077a5f	-0.033075687
82	0xbcc7d485	-0.02439333
83	0x3e070257	0.13184486

fc3.weight f4 [10, 84]
0	0xbe84242f	-0.25808856
1	0xbc02d56b	-0.007985453
2	0x3dc288bb	0.094987355
3	0xbe1e41f5	-0.15454848
4	0x3be57521	0.0070024882
5	0x3d847183	0.06466963
6	0xbd96d295	-0.07364384
7	0xbc2f0660	-0.010682672
8	0xbddac086	-0.10681252
9	0x3e3ccd08	0.18437588
10	0xbefd5735	-0.49480596
11	0xbe6411c9	-0.2227241
12	0x3e20275c	0.15640014
13	0xbe6f1876	-0.23349175
14	0x3d2ac817	0.041694727
15	0xbe62e210	-0.22156549
16	0x3e1279ee	0.14304325
17	0xbd83f0f1	-0.0644244
18	0xbe45751e	-0.19282958
19	0x3d98c142	0.07458736
20	0x3c090385	0.0083626555
21	0xbdd0ea28	-0.10200912
22	0xbe450db6	-0.19243512
23	0xbe188085	-0.14892776
24	0x3da7eb43	0.081991695
25	0xbdddd1ab	-0.108310066
26	0x3d662b0f	0.056193408
27	0xbe1c16f0	-0.15243125
28	0x3d1c1fb6	0.03811618
29	0xbe0799df	-0.13242291
30	0xbe0805ca	-0.13283458
31	0xbd31cee1	-0.043410186
32	0xbd91853f	-0.07105493
33	0x3dd84a49	0.10561044
34	0x3e125e99	0.14293899
35	0xbe8e60b4	-0.27808154
36	0xbea6926c	-0.32533586
37	0x3e146052	0.14489868
38	0xbd98e5d6	-0.07465713
39	0xbe6f45c8	-0.23366463
40	0xbd1c1060	-0.038101554
41	0x3daac396	0.08338086
42	0x3dac1064	0.08401564
43	0x3e077178	0.13226879
44	0xbe39574c	-0.18099707
45	0xbe78cd62	-0.24297097
46	0x3ca17d74	0.019713141
47	0xbbd6be8c	-0.0065534767
48	0xbd47c579	-0.04877231
49	0xbe19754a	-0.14986148
50	0xbe0f4562	-0.13991311
51	0xbc0bc587	-0.008530981
52	0x3d9a608b	0.07537945
53	0xbe1b15ac	-0.15144986
54	0xbe62fa4b	-0.22165792
55	0xbeb99cb8	-0.3625238
56	0x3dca8f72	0.09890641
57	0x3cc5af9b	0.024131587
58	0xbdf18451	-0.117928155
59	0xbe06ea64	-0.1317535
60	0xbda9c42e	-0.082893714
61	0x3cf5ae10	0.029990226
62	0xbecd9a98	-0.40157008
63	0x3d85ac57	0.06527012
64	0xbcb8df0e	-0.022567298
65	0x3dd97e33	0.10619774
66	0xbe5015d0	-0.20320821
67	0xbd21e46f	-0.039524492
68	0xbcce298c	-0.025166295
69	0xbea1acae	-0.31577057
70	0x3e2b3fdb	0.16723578
71	0xbdb92d7a	-0.09041877
72	0xbe07ba13	-0.13254575
73	0x3adb231a	0.0016718835
74	0x3c5ddca9	0.013541379
75	0xbcd3f518	-0.025873706
76	0xbee926a9	-0.45537308
77	0xbde993d7	-0.11405151
78	0xbe9d1896	-0.3068282
79	0xbd8c0d08	-0.06838423
80	0x3d6402a3	0.055666577
81	0xbe0e25d2	-0.13881615
82	0x3d93938a	0.07205875
83	0x3cd3abdb	0.025838783
84	0xbe2f950f	-0.17146705
85	0xbda398f1	-0.07988156
86	0xbddae712	-0.106886044
87	0xbe859675	-0.26091352
88	0xbe8500d6	-0.259772
89	0xbd38d1de	-0.04512202
90	0xbe529935	-0.20566256
91	0x3db9d7d0	0.09074366
92	0xbdf8eb32	-0.12154235
93	0x3dd35567	0.103190236
94	0xbe2625a4	-0.16225296
95	0x3df5e363	0.12006261
96	0xbdcc2852	-0.09968628
97	0xbde32f17	-0.11092966
98	0xbc012f23	-0.007884773
99	0xbe18b107	-0.1491128
100	0xbe894e93	-0.2681776
101	0x3d28cd90	0.041211665
102	0x3e3bdc6e	0.18345806
103	0x3dd47da7	0.10375529
104	0x3d74d44e	0.059772782
105	0xbd9f5533	-0.07779922
106	0xbe643c30	-0.22288585
107	0xbe22b209	-0.15888228
108	0x3d47a43d	0.048740614
109	0xbe057743	-0.13033776
110	0x3a8c60ee	0.001071004
111	0x3d2a4629	0.041570816
112	0xbf429c20	-0.7601948
113	0x3e1e7bdd	0.15476938
114	0xbdc8f853	-0.09812989
115	0x3df4464b	0.1192747
116	0xbcd2bc72	-0.025724623
117	0xbdf54666	-0.11976318
118	0xbc936b7e	-0.017995592
119	0xbe3f1f93	-0.18664388
120	0x3e446e2a	0.19182649
121	0x3e09d4c1	0.13460065
122	0xbd8f02a6	-0.06982927
123	0x3d921642	0.071331516
124	0xbea32d16	-0.31870335
125	0xbe29db4e	-0.16587564
126	0x3d9a430c	0.075323194
127	0xbe4d4d59	-0.20049037
128	0xbd11aa6f	-0.03556293
129	0xbe951273	-0.29115638
130	0xbd7267e8	-0.059181124
131	0xbe368d8b	-0.17827432
132	0xbdfefc71	-0.12450493
133	0x3e01d50d	0.12678929
134	0x3c21c174	0.009872783
135	0xbe945b54	-0.28975928
136	0xbe2c575b	-0.16830198
137	0xbdcd14cf	-0.100137345
138	0x3dd0b93d	0.101915814
139	0xbd45f7c6	-0.048332
140	0xbe0c7c5f	-0.13719319
141	0xbd3db025	-0.046310563
142	0x3d03d80c	0.03218846
143	0xbdfddbba	-0.12395425
144	0xbd4097b6	-0.047019683
145	0xbe804c52	-0.25058228
146	0x3dd1ee6f	0.10250556
147	0xbe341d35	-0.17589267
148	0xbe138438	-0.14405906
149	0xbe2b2449	-0.1671306
150	0x3c68ec59	0.014216506
151	0xbe8c4c8c	-0.2740215
152	0xbe6044b5	-0.2190121
153	0x3dbd550c	0.09244737
154	0xbe461bbd	-0.19346519
155	0xbdcc1b8a	-0.0996619
156	0xbe4a9d47	-0.19786559
157	0xbe99682b	-0.29962286
158	0xbec6850c	-0.38773382
159	0x3c886ffa	0.016654957
160	0xbde0cc2d	-0.109764434
161	0xbd7fd7e1	-0.062461738
162	0x3d85ad41	0.06527186
163	0xbe99445c	-0.29934967
164	0xbe08f804	-0.1337586
165	0x3e1609d4	0.14652187
166	0x3da89bdc	0.08232853
167	0xbe0a1e3f	-0.134881
168	0xbdfe7346	-0.124243304
169	0xbe1e9acd	-0.1548874
170	0x3d323095	0.043503363
171	0xbe522964	-0.20523602
172	0xbd0625c9	-0.03275088
173	0x3dbcbf2c	0.09216151
174	0x3cc0166b	0.02344819
175	0x3d4d91ad	0.050187755
176	0xbcf9031f	-0.030396996
177	0x3d5d16f4	0.053976968
178	0xbe29d030	-0.16583323
179	0x3c0c2554	0.008553822
180	0xbccef71d	-0.025264317
181	0xbbd23caf	-0.0064159255
182	0xbcc5ffe2	-0.024169866
183	0xbdeed99f	-0.11662602
184	0x3bae7ca0	0.005324915
185	0xbe18caaf	-0.14921068
186	0x3db4f7da	0.088363364
187	0xbe402e45	-0.1876765
188	0x3e0a1f71	0.13488556
189	0x3dc0f013	0.094207905
190	0xbd19ecb9	-0.037579272
191	0xbe0f34c7	-0.13984977
192	0x3dbdc3d7	0.09265869
193	0xbce1f54e	-0.02758279
194	0x3e056b85	0.13029297
195	0xbc94c3af	-0.018159715
196	0xbf0076db	-0.5018136
197	0xbe5199ac	-0.20468777
198	0xbd09153b	-0.033467513
199	0xbdad547c	-0.0846338
200	0x3c047eb7	0.008086852
201	0xbe5d9d42	-0.2164202
202	0xbe64789c	-0.22311634
203	0xbc53483a	-0.012895638
204	0xbdbbc419	-0.09168262
205	0x3d1faf49	0.038985524
206	0x3e0be94a	0.13663211
207	0xbe8a45e9	-0.27006462
208	0x3e2729a1	0.16324474
209	0xbe64e2d6	-0.22352156
210	0xbe18d5cd	-0.14925309
211	0xbd5caec0	-0.053877592
212	0x3dbdaf6f	0.09261977
213	0xbdb6eaee	-0.08931528
214	0xbe61763c	-0.22017759
215	0x3d0be470	0.0341534
216	0x3dadbae4	0.08482912
217	0xbe869ecc	-0.26293027
218	0xbbe99b8c	-0.0071291383
219	0xbde8c99e	-0.113665804
220	0xbe2dec27	-0.16984616
221	0x3d4237c2	0.047416456
222	0x3dcefd84	0.10106948
223	0x3e0c00bf	0.1367216
224	0xbc82777a	-0.015926111
225	0x3da24e29	0.07925064
226	0xbe9736e3	-0.29534063
227	0x3e178ed9	0.14800586
228	0xbe418cd6	-0.18901381
229	0x3e453b60	0.19260931
230	0xba5bf02e	-0.00083899766
231	0x3d2456a0	0.040121675
232	0xbe3203b5	-0.17384227
233	0xbe116c84	-0.14201552
234	0x3d546dcf	0.051862534
235	0xbe1d76e7	-0.15377389
236	0xbd84701f	-0.06466698
237	0xbea01c9d	-0.3127183
238	0x3e1a2f59	0.15057124
239	0xbe69e8e4	-0.22842747
240	0x3dcf4be8	0.101219
241	0xbe4b4ece	-0.1985428
242	0xbe057bc4	-0.13035494
243	0xbc25a997	-0.010111234
244	0xbe32bbe8	-0.17454493
245	0xbf12f899	-0.5741058
246	0x3db91de4	0.09038904
247	0xbd1f75e1	-0.038930777
248	0xbe8f619f	-0.28004166
249	0x3df7f038	0.12106365
250	0x3e0db5e7	0.13838921
251	0xbdfcf692	-0.12351717
252	0xbe36b787	-0.17843448
253	0xbe06cb94	-0.13163596
254	0xbe6bf1c4	-0.23041445
255	0x3e0d4ef5	0.13799651

fc3.bias f4 [10]
0	0x3d605540	0.0547688
1	0x3d47278e	0.048621707
2	0xbdbbea76	-0.09175579
3	0x3d562582	0.052281864
4	0xbd9783de	-0.073981985
5	0xbd1634c5	-0.03667142
6	0xbd07eaa8	-0.03318277
7	0xbd314e40	-0.043287516
8	0x3e000d96	0.12505183
9	0x3db100f8	0.08642763
