models/cnn_checkpoint.pth (torch, 451527 bytes, 10 tensors)

conv1.weight f4 [16, 1, 5, 5]
000000 fa 6a c9 bd 9a 35 72 3c ea 4d ca bd 7d 68 fd 3d
       -0.09834857 0.014783287 -0.09878142 0.12373445
000010 fb 74 2c 3e f7 3a ba bd e8 f7 3b 3e c0 8f b3 bc
       0.168415 -0.09093278 0.18356287 -0.021919131
000020 33 e8 30 bc 30 d5 dd bd c7 54 17 3e 43 68 2e be
       -0.010797548 -0.10831678 0.14778434 -0.1703196
000030 d7 6f 2b 3e 9a 19 22 39 73 4e 67 bd d2 2c 3b 3e
       0.16741882 0.00015459061 -0.0564713 0.18278816
000040 cd ee 74 3d 67 26 09 3c a0 58 5f 3d 8d e0 8b bc
       0.05979805 0.008370972 0.05452788 -0.017074848
000050 4d 20 74 bd e7 ef 12 bd 90 87 cf 3d 70 bf f6 bd
       -0.059601117 -0.03587332 0.10133278 -0.120482326
000060 e7 2d c9 3d 27 e3 7d bd a0 d9 a0 bd 3d b9 e7 bd
       0.09823208 -0.061984207 -0.07854009 -0.11314628
000070 2d 83 44 bd 6f c4 26 3e 33 78 9f 3b cd 01 9b bb
       -0.04797666 0.16285871 0.004866624 -0.0047304393
000080 3f 5e 36 3e fa d7 ec 3d 2d b9 4c 3d 6d e9 34 3d
       0.1780939 0.11564632 0.049981285 0.044167925
000090 cb 30 37 3e df 81 30 be da 47 34 3d 27 96 41 be
       0.17889707 -0.17237042 0.044013835 -0.18904935
0000a0 dd fa 87 bd fb 79 31 3e ba 61 7d 3d a3 54 c3 3d
       -0.06639645 0.17331688 0.061860777 0.095376275
0000b0 55 35 45 be 7a bd 48 3e 07 4a 37 be 00 15 f3 3c
       -0.19258626 0.1960353 -0.17899333 0.0296731
0000c0 00 68 29 bc 85 9f 20 be 87 7a 37 bd 73 76 08 3d
       -0.010339737 -0.15685852 -0.044794586 0.033316087
0000d0 f2 51 49 3e d7 19 f3 3d af e1 12 3e ed 59 0b bd
       0.19660166 0.11870163 0.14343904 -0.034021307
0000e0 bd 4c e5 bd ab 35 19 be d3 6f 46 3e 47 0e 10 3d
       -0.11196277 -0.14961879 0.19378595 0.035169866
0000f0 27 1a 7e bd cd 22 e9 3c 40 de 0d 3d 97 b7 f6 3d
       -0.06203666 0.028458977 0.034635782 0.12046736
000100 40 ef 26 3d 1d e2 09 be 5a b9 49 be ed 52 0c 3e
       0.04075551 -0.13465162 -0.19699612 0.13703509
000110 07 14 06 3e da 15 09 3d 4a 61 c4 3d 13 6f 8b 3d
       0.13093577 0.033468105 0.09588869 0.06808295
000120 1d 4c f7 bd 8b 28 41 3e 2a 5a f8 3d 67 52 84 3c
       -0.12075064 0.18863122 0.121265724 0.016152574
000130 27 00 3b bd aa 77 25 be 60 68 23 bd 03 76 a7 bd
       -0.045654442 -0.1615893 -0.03989446 -0.08176806
000140 e3 22 47 3e 1a bf 7e bc 92 f5 21 3e cd 98 84 3b
       0.19446902 -0.015548492 0.15816334 0.0040465356
000150 da e5 df bc 40 89 b2 bc 9a 46 aa bc 28 e3 0d 3e
       -0.027331281 -0.021793962 -0.020785619 0.13856184
000160 5a 76 f9 bc e7 ce 8b bd cd d9 8a bb cd 18 17 bd
       -0.030451942 -0.06826573 -0.0042373897 -0.036888886
000170 97 1f d4 3d 10 c4 bb bd cd ed a6 3c f3 5d f9 3d
       0.10357588 -0.09168255 0.020377064 0.121761225
000180 6d 6d 52 bd 57 2c 29 be d2 9e 2b be 6d 37 f9 bd
       -0.051373888 -0.1652082 -0.16759804 -0.12168775
000190 c3 5a d6 bd 33 9e 3a bd 52 47 31 be 7a 47 1e bd
       -0.1046653 -0.045561027 -0.17312363 -0.038642384
0001a0 e8 58 43 be a7 1f 10 be 67 fb da bd 8d 66 88 3c
       -0.19076884 -0.14074574 -0.106924824 0.016650463
0001b0 5d 8d aa bd 5a 1d cd 3c 23 1a b5 bd 3d ef b6 3d
       -0.08327744 0.02503841 -0.08842876 0.0893235
0001c0 50 ef 14 be 0a 3e db 3d 80 a1 35 be 80 11 50 bc
       -0.14544415 0.107051924 -0.17737389 -0.012699485
0001d0 ad 65 0e 3d db ce 2b be ff 34 28 3e 67 cc 60 bc
       0.034764934 -0.16778128 0.16426466 -0.013720608
0001e0 a7 50 9b 3d cd 4a b5 bc 27 56 ee bc 33 a2 66 bd
       0.075837426 -0.022130394 -0.029093815 -0.05630703
0001f0 da 96 75 3d e0 bb f7 bd 4d 93 1e bc e8 62 25 be
       0.059958316 -0.12096381 -0.009678674 -0.16151011
000200 53 0b 9a 3d 97 f0 0d 3e da bd ef 3c da e3 eb bd
       0.07521691 0.13861309 0.029265333 -0.115180686
000210 d3 65 67 3d 9a 59 2f bc 33 13 ab 3a 83 f5 40 3e
       0.05649359 -0.010702515 0.0013051986 0.18843655
000220 00 5f d5 3d d3 41 aa bd 27 b4 b7 3c 72 1b 43 be
       0.104185104 -0.08313336 0.02242477 -0.19053438
000230 9a 8a cd bd 1a 2c 45 3d 9a e8 94 3d 2d 6d 91 3d
       -0.10036202 0.04813776 0.07270928 0.07100902
000240 d3 f9 05 3d cd ad fd 3c 92 89 16 be 1a fb a0 bd
       0.032708954 0.030966664 -0.14700916 -0.07860394
000250 b5 a3 24 be d0 32 dc 3d e7 cc 41 be 67 1e 2a ba
       -0.16078074 0.10751879 -0.1892582 -0.00064895157
000260 d3 63 a7 3d e0 8e 64 bd 8d 91 31 3d 33 ef de 3a
       0.08173337 -0.05580032 0.0433517 0.0017008543
000270 f8 1e 22 3e 3b 38 23 3e a0 eb 38 bd e7 f3 21 3c
       0.15832126 0.15939419 -0.045146585 0.009884811
000280 68 15 2a be b3 1b fe bc 6f 9b 30 3e 6f d9 44 3e
       -0.16609728 -0.031019067 0.17246793 0.1922357
000290 1a be 19 3c 57 16 a3 bd 67 9b bd 3d 4d 05 24 be
       0.009383703 -0.07963245 0.09258156 -0.16017647
0002a0 e0 0a 24 be db 26 44 be 33 0a b7 3d 2a 8a ba bd
       -0.16019773 -0.19155447 0.08937492 -0.09108384
0002b0 2d 2e 8c bd 9a a7 72 3b da 69 ae bd 00 a2 bb 3b
       -0.06844745 0.0037026168 -0.08516283 0.005726099
0002c0 c2 06 17 3e 80 3b f4 bc dd 8e 36 be 50 50 b4 3d
       0.14748672 -0.029813528 -0.17827936 0.08804381
0002d0 c5 98 3c 3e 67 11 fd bb 0d f7 8d 3d c0 2b 6a bd
       0.18417652 -0.007723022 0.06931887 -0.05717063
0002e0 87 87 04 bd 5a de d5 bd f7 aa f3 3d 57 fc 36 3e
       -0.03235581 -0.10442801 0.11897843 0.17869698
0002f0 6a f7 0f be b0 d6 92 3d 0d c7 fd bc 6f e3 04 3e
       -0.14059225 0.07169855 -0.030978704 0.12977384
000300 dd 27 f8 3d 6d 80 bc 3d 03 dc cc 3d db 8f 3f be
       0.12116978 0.09204183 0.100029014 -0.1870722
000310 2f 88 31 3e 1d 74 c4 3d 67 66 ba b8 da a1 d1 bc
       0.17337106 0.09592459 -8.888245e-05 -0.025589872
000320 da a3 f0 3d a3 94 3e be 22 bb 22 be db 22 3b 3e
       0.11750002 -0.18611388 -0.15891698 0.18275015
000330 3a 91 04 3d c0 da c8 3c f7 a0 8b 3d 9a 82 1f bc
       0.03236506 0.02451837 0.06817811 -0.009735728
000340 97 4d 09 be 00 3e 65 3b 33 37 b6 3c 0d 84 75 3d
       -0.13408504 0.0034979582 0.022243118 0.059940387
000350 20 54 37 be c0 d2 05 be 3f 98 21 be 5a c0 88 bc
       -0.17903185 -0.13068676 -0.15780734 -0.016693283
000360 80 6c 31 be 33 32 be bc 13 b8 49 3e 9d cf 20 be
       -0.17326546 -0.023217296 0.19699125 -0.15704198
000370 f7 41 ba bd cd 9f cf bc a8 23 17 be 4d d6 28 3e
       -0.09094613 -0.025344754 -0.14759696 0.16488
000380 78 e0 27 3e 8a 1c d8 bd e0 22 25 3d 33 73 de 3a
       0.16394222 -0.105523184 0.040316463 0.0016971588
000390 d8 df 43 3e 1b d5 13 be 60 31 4c 3d 2a 31 2c be
       0.19128358 -0.14436762 0.049851775 -0.1681563
0003a0 57 f5 1a 3e 15 40 18 3e 5d 1c ca 3d 4d ed 85 bc
       0.15132652 0.14868195 0.09868691 -0.016348505
0003b0 00 de cc 3b 38 de 40 be a3 c7 ba 3d 2b 6a 22 be
       0.0062520504 -0.1883477 0.09120109 -0.15860812
0003c0 fd 97 9b bd 0d 63 66 bd 1a 87 1a 3c 63 bc b9 3d
       -0.07597349 -0.056246806 0.009431625 0.09069135
0003d0 03 cd e2 3d 47 7f 15 3e c5 ff 26 be 6d c8 e6 3d
       0.11074259 0.14599334 -0.16308506 0.11268697
0003e0 6a 2c 40 be 60 10 80 bd 27 be c3 bc 9d 71 fc bd
       -0.18766943 -0.06253123 -0.023894383 -0.123263575
0003f0 00 65 ff 3d 9a 51 50 bb 00 5e 30 3e c7 de c8 3d
       0.12470436 -0.003178692 0.17223358 0.098081164

conv1.bias f4 [16]
000000 9d 8d ba 3d 6d 97 47 bd d0 41 3c 3e a7 c7 3e be
       0.09109042 -0.048728395 0.1838448 -0.18630849
000010 8d 2e f2 3d 55 83 2a 3e 63 56 1e 3e c0 af 15 bd
       0.11825285 0.16651662 0.15462641 -0.03654456
000020 40 0f 46 be 52 f7 0f 3e 0d b8 99 bc e7 32 b7 3d
       -0.19341755 0.14059189 -0.01876452 0.08945256
000030 aa 05 ec bd 5a ce 1f bd 38 96 2b be 8b f8 0a 3e
       -0.11524518 -0.03901515 -0.16756523 0.13571374

conv2.weight f4 [32, 16, 3, 3]
000000 48 8e 2c bd 63 70 2e 3d 6b 47 3b bc eb 19 25 3d
       -0.042127877 0.04258765 -0.011430602 0.04030792
000010 40 bd 61 bd 7e 26 a9 bd 4e aa 8c 3d b6 33 58 3c
       -0.055112123 -0.08259295 0.068684205 0.013195923
000020 83 91 11 3d 2a 05 8a 3d d6 d9 4b 3b e0 74 72 3c
       0.03553916 0.06739266 0.0031105182 0.014798373
000030 2b 81 03 bc c0 b5 52 bd 76 44 ae bc eb e1 1f bc
       -0.0080264015 -0.05144286 -0.02127288 -0.009758453
000040 73 65 82 3d b6 c5 20 3c 4c e5 85 bd 38 2a 3f bd
       0.06367006 0.009812763 -0.065378755 -0.046671122
000050 c0 df 71 3d e6 f3 84 bd c6 a4 aa bc 14 a5 9b 3d
       0.059051275 -0.064918324 -0.020830523 0.075998455
000060 f8 56 3a 3d 56 91 e5 39 20 e0 a1 3d 5c 5c 91 3d
       0.045493096 0.00043786567 0.079040766 0.07097694
000070 80 6e 1d bb 4b 79 da bc 86 59 2d 3d cb eb 3e 3c
       -0.0024022162 -0.026669165 0.042321704 0.011652897
000080 0b b5 67 bd de c5 64 3d 03 67 8a bd 54 6d 8d bd
       -0.05656914 0.055852763 -0.06757929 -0.06905618
000090 e8 74 40 bd aa 97 9c 3d 13 da 32 bd f6 41 a9 bc
       -0.04698649 0.07646115 -0.043665003 -0.020661335
0000a0 20 94 f1 bc 26 c3 fc 3c 0b 1c c7 bc 86 b3 d4 3c
       -0.029489577 0.030854773 -0.024305364 0.02596451
0000b0 d0 21 48 bd ab ba 91 3c 80 35 b2 3b 63 7e 5d 3d
       -0.04886037 0.017789206 0.0054385066 0.05407561
0000c0 96 c7 42 3d 4f 93 80 bd 16 b5 fe bb 33 6e 50 3d
       0.04755362 -0.06278097 -0.007773052 0.050886344
0000d0 b6 4c 52 3d b3 43 99 3d 84 02 aa bd fb 1c f7 bc
       0.05134269 0.07483616 -0.08301261 -0.030165186
0000e0 e0 88 6e 3c fe 15 05 bd fe 5e a8 bd 96 06 26 bd
       0.014559001 -0.032491677 -0.08221243 -0.040533625
0000f0 6b cf dc bc 56 49 3f 3b 9e ac 07 3d 00 82 61 3d
       -0.026954373 0.0029187999 0.033123605 0.05505562
000100 56 87 4c bd c2 a8 88 bd d6 33 54 3d a6 d5 21 bd
       -0.049933754 -0.06672813 0.051807247 -0.03951039
000110 f6 69 4e bd ab c3 61 3c 76 66 1e bd db 3c 7d bd
       -0.05039402 0.013779561 -0.038671933 -0.061825614
000120 cb 5d 92 3d 66 6d 19 bd f0 70 12 3d 80 1d 52 bb
       0.07146796 -0.037457846 0.035752237 -0.003206104
000130 5a 2f 94 bd f6 13 0d bc 58 a2 8e bd 74 f0 80 3d
       -0.07235594 -0.008610716 -0.06964558 0.06295863
000140 a6 b3 80 3d ce 6e 07 3d bb b4 63 3d 36 b1 57 bd
       0.06284265 0.033064656 0.05559228 -0.052659236
000150 08 60 55 3d 8b 7d a8 bd 80 ff 21 3c 16 3b 70 3c
       0.052093536 -0.082270704 0.009887576 0.014662525
000160 48 70 a0 bd 73 0c 82 3d 4b 27 52 bd d6 65 20 3d
       -0.07833916 0.06350031 -0.051307004 0.03915962
000170 8e fd 51 3d 47 c1 81 3d d3 cd 1a bd 00 1c 74 3d
       0.0512672 0.06335693 -0.037793946 0.059597015
000180 1b ca 82 bc 80 4d 12 bc 70 e5 d8 bc db fc 36 3d
       -0.015965512 -0.00892961 -0.026476592 0.044674736
000190 c6 c2 f2 3c db 58 35 bd f0 50 c2 3c c0 5c 45 bd
       0.02963389 -0.044274192 0.023720235 -0.048184156
0001a0 5c d3 92 3d 56 dc d4 ba ab b6 01 ba bb 19 fb bc
       0.0716922 -0.0016239982 -0.0004948179 -0.030651918
0001b0 eb 24 ac bc f8 4d 07 3d 26 12 38 3d e6 f7 39 bd
       -0.021013698 0.03303334 0.044939183 -0.04540243
0001c0 6e d1 18 bd 7a b1 83 bd 3b 82 17 3d 60 73 98 bc
       -0.037309103 -0.06430335 0.03698943 -0.018609703
0001d0 f7 e3 83 3d b3 e4 19 3d c0 d7 fc bb 70 bf 16 3d
       0.06439965 0.03757162 -0.007716149 0.036803663
0001e0 e0 f9 77 3d 3e 4f 07 3d 20 b0 56 3d 76 e3 01 bc
       0.060541034 0.033034556 0.05241406 -0.007927766
0001f0 0e e6 6e 3d 4b 2d 81 bc 86 a6 85 bd 1b 49 a6 bd
       0.058324866 -0.015768668 -0.065259025 -0.081194125
000200 3b 47 65 3d 23 5e 47 3d ac 55 89 bd 58 49 39 bd
       0.055976134 0.04867376 -0.06705794 -0.04523596
000210 b3 21 86 3d d0 db 7b 3d a8 d8 87 3d 0e 79 72 3d
       0.06549396 0.061488926 0.06633121 0.059197478
000220 de 1a 90 3d 20 15 4c bc d2 f9 98 bd 16 1d 6f bc
       0.070363745 -0.0124562085 -0.074695244 -0.014594337
000230 33 8b 08 3d ce ac 2d 3d c8 cd 63 3d 33 df 7a bd
       0.033335876 0.042401128 0.05561617 -0.061248016
000240 56 28 a7 bb f0 70 32 bd 72 53 9d bd a0 2d 68 bc
       -0.005101244 -0.043564737 -0.076819316 -0.014171034
000250 a0 1c 6c 3d 9b 79 fa bc 9b 17 9b 3c be fd 95 bd
       0.057644486 -0.030575564 0.018932154 -0.07323788
000260 cb 49 7d bd 56 65 20 3d 80 24 70 3b cb 6f 04 3c
       -0.061837953 0.03915914 0.003664285 0.008083294
000270 1b fc ce bc 3b 4c fb 3c d6 4e 04 bc 58 b2 96 bd
       -0.025266698 0.030675998 -0.008075437 -0.07358235
000280 2b 21 74 bd 88 35 39 bd 53 b9 50 bd 30 c1 86 3d
       -0.059601944 -0.045217067 -0.05095799 0.06579816
000290 fb 21 9c bc a0 21 e1 bc 06 4f b1 bc 8e 6b 45 3d
       -0.019059172 -0.027481854 -0.021644127 0.048198275
0002a0 da 55 8f 3d 60 a2 85 3c 20 ed b1 3c cb 09 75 bc
       0.06998797 0.016312778 0.021719515 -0.014955948
0002b0 a0 8b 44 bd 9b 3b ee bc 00 d6 51 bd 48 9e 26 3d
       -0.04798472 -0.029081156 -0.051229477 0.040678293
0002c0 26 bf d8 3c 36 64 65 bd 96 a3 ed 3b 6b b1 0b bc
       0.026458334 -0.05600377 0.007252167 -0.008526186
0002d0 00 f3 85 3c 0e 67 59 bd 00 43 8b 3b df 0b 93 3d
       0.016351223 -0.053076796 0.0042499304 0.071799986
0002e0 1b 20 41 bd ce 83 00 3d 16 b9 fc 3b ef 94 a0 bd
       -0.04714976 0.0313757 0.0077124937 -0.07840907
0002f0 d0 cd c7 bc 98 7d 27 3d 80 d4 47 bd 06 bc 57 bd
       -0.024390131 0.04089126 -0.04878664 -0.052669547
000300 d0 a5 5d 3d 36 e7 18 bc 96 09 45 3c 63 e9 9d 3d
       0.05411321 -0.009332469 0.012026211 0.077105306
000310 f7 71 86 3d 56 f5 62 ba 80 4f 84 3b 20 8a 6a 3c
       0.06564706 -0.0008657774 0.0040377975 0.014315158
000320 cb 57 81 3c f8 2f 99 3d ff d6 84 bd 2c 24 8e bd
       0.015788933 0.074798524 -0.0648632 -0.06940493
000330 60 58 1e bc 20 b4 88 3d 88 d7 6c bd 08 f5 7a 3d
       -0.009664625 0.06674981 -0.057822734 0.061268836
000340 76 20 b8 bc 7e fc 68 3d a8 00 13 3d 70 be cd 3c
       -0.022476416 0.05688142 0.035889298 0.025115222
000350 50 45 55 bd ab ba 99 3a 5a 7b 9d bd 56 1b 94 bb
       -0.052068055 0.0011728605 -0.07689543 -0.0045198603
000360 13 ce 77 bd 18 4d 80 3d 50 4b 1b 3d 5e 7f 84 3d
       -0.060499262 0.062647045 0.03791362 0.06469606
000370 76 f2 cf 3c 60 20 95 bc 76 ac 92 3c 4b 59 6d 3d
       0.02538417 -0.018203914 0.017904501 0.057946485
000380 28 91 aa bd eb dc f5 bc b0 b9 88 bc f8 8a 1a bd
       -0.083284676 -0.030012568 -0.016690105 -0.037730187
000390 c6 5e 4d bd 8b c7 d0 3c c0 31 4f 3c 66 60 dc 3c
       -0.05013921 0.025485775 0.012646139 0.026901435
0003a0 96 da 6b bd 6e 56 6e 3d 06 b6 60 bd 0b d1 54 bd
       -0.057581507 0.058187895 -0.05486109 -0.05195717
0003b0 ab 59 0f bb b6 1e 03 bd a0 85 da 3c 66 d9 89 3d
       -0.0021873515 -0.03201171 0.026675045 0.067309186
0003c0 db 3b dd bc 28 f8 7d bd 98 7d 3a 3d 6e 75 1c bd
       -0.02700608 -0.06200424 0.04552993 -0.038197927
0003d0 00 9b 1a 3b 08 1d 0e bd e3 ad 0a 3d a3 ad 0c 3d
       0.0023590922 -0.034695655 0.033857238 0.03434528
0003e0 d6 fc 2b 3c b3 85 7e bd b6 a7 63 3c 68 e8 9f bd
       0.0104972925 -0.062139224 0.013894966 -0.07808
0003f0 2b 1b ab 3b 0c c3 80 bd 5f 4e 85 bd 13 05 21 3d
       0.0052217445 -0.06287202 -0.06509089 0.03931148

conv2.bias f4 [32]
000000 7b 0f c8 bc e3 ca 83 3d 40 ba e1 3b 63 a3 30 bd
       -0.024421444 0.06435182 0.006888658 -0.043124568
000010 56 4d 18 3c 8c 56 8b 3d cb 23 38 3c cb 2d 80 bd
       0.009295782 0.06803617 0.011239002 -0.06258734
000020 ab 72 23 b9 56 b2 78 bc 6b 99 5a 3d 1b ae 79 bd
       -0.00015587609 -0.015179237 0.053368967 -0.060957056
000030 8e b1 34 3d 80 45 30 bb e0 de e5 bc 56 db 65 bc
       0.04411464 -0.0026896894 -0.028060377 -0.014029345
000040 37 f1 85 bd 7b 0f 16 bd b6 37 0c bd 4b 26 08 3c
       -0.06540149 -0.036635857 -0.034232818 0.008309911
000050 80 9e d0 bb 7e be 84 3d a8 b5 19 bd d6 06 f2 bb
       -0.006366551 0.06481646 -0.037526757 -0.007386069
000060 fb b3 5d 3d 77 12 8e 3d c8 fc 2b bd 00 73 90 bb
       0.05412672 0.06937116 -0.041989118 -0.0044082403
000070 3b a5 9d 3c fe c8 71 3d 5f 19 9d bd 56 35 5e bc
       0.019243827 0.05902957 -0.07670855 -0.013562521

fc1.weight f4 [120, 800]
000000 06 6b b5 bc 16 48 db bc 77 34 32 bc 10 c4 25 3c
       -0.02214576 -0.026767772 -0.010876766 0.010117546
000010 70 20 cd ba 14 b4 bb 3c 6c aa 01 b8 b6 94 66 bc
       -0.0015649926 0.022913016 -3.0914714e-05 -0.014073541
000020 10 3e 0a bd e1 cf c7 bc c9 dd 2a 3c fc 34 75 39
       -0.033750594 -0.024391117 0.010428854 0.00023384759
000030 2d 25 f9 bb 05 70 0c bd 45 83 c7 bc 54 7a a5 3c
       -0.0076033087 -0.034286518 -0.024354586 0.020199932
000040 e2 a5 0d bd 16 61 7b bc 13 a9 86 3c 17 a6 83 bb
       -0.034582026 -0.015342971 0.016438043 -0.004017602
000050 4e bd f6 bc 07 1e 36 bc fd 6f 56 bc a7 96 0b bd
       -0.030119564 -0.0111155575 -0.0130882235 -0.03407922
000060 63 eb 07 bd 90 c1 15 bc b6 fa 0e bd 54 f7 02 3c
       -0.033183467 -0.009140387 -0.034907065 0.007993538
000070 8a 76 e3 3c 53 3c 04 bd 2d 32 10 bc bb f7 06 bd
       0.027766485 -0.032284092 -0.008801025 -0.032951098
000080 05 6a 09 bd b4 e8 bf bc d9 99 4d bb 0d 7d af 3c
       -0.033548374 -0.023426391 -0.0031372218 0.021421934
000090 b5 43 00 bd 42 80 7c 3c 23 20 1a bc 9f f2 a8 bc
       -0.03131457 0.015411438 -0.009407076 -0.020623503
0000a0 c5 29 a5 bc 45 f8 3c 3c 2d 0b d4 39 0d aa 57 bc
       -0.020161519 0.011533801 0.00040444118 -0.013163102
0000b0 49 3a aa 3c 3c bc 9f 3c 72 65 8a bc a5 6e cd b8
       0.020779746 0.019498937 -0.016894076 -9.795771e-05
0000c0 26 6d 04 bd ba 02 02 bd a6 7d 74 bc 07 9d 07 3d
       -0.032330655 -0.03174088 -0.014922535 0.033108737
0000d0 b9 ff 53 3c ec dd f2 bb d5 d6 51 3c 9f dd 05 3d
       0.012939387 -0.007411709 0.012807568 0.032682057
0000e0 f7 88 90 bc 2e c8 c5 bc 6f 48 a1 3c 0f ba 56 3c
       -0.017643435 -0.024143305 0.01968786 0.013105883
0000f0 cd 43 dd bc e2 4e c8 3c 48 52 ec 3c 98 67 d7 bc
       -0.027009869 0.024451677 0.028847829 -0.026294515
000100 97 81 72 bc f3 39 89 bb 4a 6f 0e bd c7 10 ca bc
       -0.014801404 -0.0041878163 -0.034774102 -0.024666203
000110 73 b3 ea bc ab 2d c7 bc 10 e4 54 3c 16 03 d7 3c
       -0.028650021 -0.024313768 0.012993827 0.026246589
000120 10 c3 85 bc 3c 99 9b 3c f7 52 75 3b 1a 9d 96 bc
       -0.016328365 0.018993966 0.0037433484 -0.018385459
000130 1f 9a da 3c 7c 4a 03 bc 0e b1 03 bd 42 07 8a bc
       0.026684819 -0.008013364 -0.032151274 -0.016849164
000140 af 5e d6 bc 46 47 c5 3c 65 50 5c 3c 3c ed 21 3c
       -0.026168196 0.024081837 0.013446902 0.009883221
000150 c9 d6 2c 3c df 61 45 bc 6f 9d a8 3c ec 75 55 bb
       0.010549256 -0.01204726 0.020582883 -0.0032571508
000160 c6 c9 2c ba d9 65 f1 3b 0c 4b 3c 3c 07 b4 f1 3c
       -0.0006591346 0.0073668775 0.011492502 0.029504789
000170 0c d0 70 3b 0f 17 09 bd dd 67 47 bc 95 3d 34 bc
       0.00367451 -0.033469256 -0.012170759 -0.01100101
000180 80 03 2e bc 0e ea ca 3c 39 e4 b5 bc 18 7c c6 bb
       -0.010620952 0.02476981 -0.022203552 -0.0060572736
000190 a7 6a 54 bc ff 15 c6 3c 9f fc 31 bb 9c b0 ac 3c
       -0.012964881 0.02418041 -0.002715863 0.021080308
0001a0 3c 17 85 3c 25 4e ad 3b b8 66 e0 3c 0c ca 50 3c
       0.01624643 0.0052888566 0.02739273 0.012743484
0001b0 97 79 21 3c b5 35 e0 3c aa 88 98 3b 17 a5 0f bb
       0.009855649 0.02736936 0.0046549635 -0.002191847
0001c0 8c 2f 10 bd cd 85 6e bc 09 2f eb 3a 4d 22 ef 3b
       -0.035201594 -0.014558268 0.0017943095 0.00729779
0001d0 d0 df bf 3c f5 f8 75 3c c1 d6 9b 3c 9d 1f 93 bc
       0.023422152 0.015012969 0.019023301 -0.01795941
0001e0 c3 ea 6a 3c 05 eb 32 bc 66 53 8a bc 72 8e 6e bc
       0.014338198 -0.010920291 -0.01688547 -0.014560329
0001f0 73 35 20 3c 00 88 a4 bc 7e 15 d4 bc 6f 36 f6 bc
       0.009778368 -0.020084381 -0.025889155 -0.030055253
000200 00 3b 03 bb ab 03 ab ba 1d 83 b9 bc 68 a1 02 bd
       -0.002002418 -0.0013047358 -0.022645527 -0.03189221
000210 1d 20 ee 3c 6f eb ac 3a de de 26 bc 17 43 b5 3c
       0.029068047 0.0013192723 -0.010184972 0.022126717
000220 04 60 62 bc de 5e 98 bc 68 71 b5 bc c9 36 f5 bc
       -0.013816837 -0.018599924 -0.022148803 -0.02993335
000230 b5 13 32 bc cb 0f d1 bc 29 c4 f8 bc 5c bb d5 bc
       -0.010868956 -0.025520226 -0.030366974 -0.026090316
000240 80 91 0b bd 4b 7b c3 3b 54 4e bb 3c ff ba 95 bc
       -0.034074306 0.0059656254 0.022864498 -0.018277643
000250 59 8a 93 bc 1f a9 30 bc 92 ba 42 bc f6 9a 0f 3d
       -0.018010305 -0.010782509 -0.011885302 0.03505989
000260 ed f5 ff 3b 3c fa f1 3b bf 52 02 3d 54 93 f6 3c
       0.007811299 0.0073845666 0.031817194 0.030099548
000270 98 e1 b6 bc a5 e6 aa bc 25 2e 0f 3d 4e 36 84 bb
       -0.022324368 -0.020861933 0.034956116 -0.004034794
000280 d6 0b 0c bc a3 6f 88 bc e5 54 c4 bc 67 cd dc bc
       -0.008547744 -0.016654795 -0.023966262 -0.026953412
000290 7f 8d 12 3c 49 1d 20 3a 31 04 c0 3b f8 78 e3 bc
       0.008944868 0.00061078795 0.0058598747 -0.027767643
0002a0 c0 e5 ab bc 04 87 eb 3c ba 64 e6 3c 0c 0d ab bc
       -0.020983577 0.028750904 0.028124202 -0.020880245
0002b0 64 04 5b bc 9d 68 0b bd 1e ee ee 3c 82 85 e6 3b
       -0.013367746 -0.034035314 0.029166277 0.0070349583
0002c0 1f da 67 bc 91 97 0e bd 91 4a 89 bc 46 6b a8 bb
       -0.014151125 -0.034812514 -0.016759189 -0.005139741
0002d0 0d bc d1 3c b6 e7 81 3c d1 fa dd 3b 69 d3 a1 bc
       0.025602365 0.015857559 0.0067742844 -0.019754129
0002e0 17 aa f2 3b 87 be 9a 3b 7a 4a c3 3c ca 5e 09 3c
       0.00740553 0.0047224197 0.023839224 0.008384416
0002f0 38 00 f0 3c e1 ee d6 3b af 43 f4 3b 67 03 b9 bc
       0.02929698 0.0065592383 0.0074543576 -0.02258463
000300 2f 8d c0 3c 48 3f 13 bc be 92 18 bb 2c b1 7a 3c
       0.023504822 -0.008987255 -0.0023280825 0.01530103
000310 45 bb 6b bc 1e 88 a1 3c 2f 6d ae 3c e6 80 00 bd
       -0.01438791 0.019718226 0.021292297 -0.031372927
000320 ad 18 fd bc 14 3d a0 3c d7 f8 c2 bc bc 00 b7 bc
       -0.030895555 0.019560374 -0.023800297 -0.022339217
000330 e7 e6 3d 3c bd 46 2d bc a4 77 3b 3c 75 3f c8 bc
       0.011590696 -0.010575947 0.011442099 -0.024444321
000340 23 7d ba 3c 6f e6 92 bc 90 1e b0 3c 73 9a ae bb
       0.022764748 -0.017932145 0.021498948 -0.0053284704
000350 ce 8c e3 3b 26 c7 05 bd 02 d6 42 bc 0a 70 72 3b
       0.0069442755 -0.032660626 -0.011891844 0.003699305
000360 eb 48 44 bb 8b bc cb 3c c2 0b 03 3d 00 db 2b 3c
       -0.002995069 0.024870178 0.031993635 0.010489225
000370 94 8a 9d 3b fe 28 8f 3c d3 b7 29 bc b2 55 be bc
       0.0048077796 0.017475601 -0.0103587685 -0.023234222
000380 3c 73 f8 bb 69 c5 9d bb 95 81 10 bd b2 d6 a0 bc
       -0.0075820964 -0.004814793 -0.03527983 -0.019633625
000390 28 23 7d 3b f1 ca eb 3c 20 08 01 3d 3b 94 ab bc
       0.003862569 0.028783293 0.03150189 -0.020944705
0003a0 1d 46 54 bc 68 4e 99 3c 9d 17 f3 bc 5a c5 a3 bc
       -0.012956169 0.018714145 -0.029674346 -0.019991565
0003b0 a7 cb d0 3b 3c 9c ad 3c 89 41 fe 3c 3a a6 9d bb
       0.0063719335 0.021192662 0.031037109 -0.0048110755
0003c0 c3 8b b6 3c f2 3c aa bc f3 a8 c0 bb 5e 5d 78 3c
       0.02228344 -0.020781014 -0.0058795153 0.015158979
0003d0 b1 d0 cf bc b1 41 d7 3c 66 fc 27 bc 89 15 56 bc
       -0.025368067 0.026276441 -0.010253048 -0.013066658
0003e0 cd 26 c4 3c 84 21 00 3d 85 d0 ab 3c 2f 1e 01 bc
       0.023944283 0.031281963 0.020973453 -0.0078807315
0003f0 f0 3c 1d 3c 5b 06 e4 3c 5d 60 75 3c 29 7b b6 3c
       0.009597048 0.027835062 0.014976588 0.022275524

fc1.bias f4 [120]
000000 d3 5d 0d bd 02 33 db 3c 9b 13 2a bc ed fe 08 3c
       -0.034513306 0.02675772 -0.010380651 0.00836156
000010 05 9b aa 3c 3d 34 e0 3c 80 c8 e1 3c d8 f8 d5 bb
       0.020825872 0.02736866 0.027561426 -0.0065299086
000020 42 a0 e4 bb 88 6e aa bc 16 bf e3 bc c7 70 e0 bc
       -0.006977112 -0.020804659 -0.027801078 -0.027397526
000030 24 b6 26 ba 2c 85 33 3c ca f4 fc bc f4 d0 c9 3c
       -0.00063595385 0.010957044 -0.030878443 0.02463577
000040 0c 08 9c bc 1f 70 f8 bb 0f 18 97 bc ad 8a 3f bc
       -0.019046806 -0.0075817253 -0.01844409 -0.011690778
000050 7f c2 c4 3c 79 6d 86 b9 d1 0f fd bc 0a 43 07 bd
       0.024018524 -0.00025640035 -0.03089133 -0.033022918
000060 42 85 92 3c 8a 89 b0 3c d2 15 9b 3b e4 83 05 bd
       0.017885808 0.021549959 0.004732826 -0.032596484
000070 72 70 7d ba cd 78 38 bc 90 18 2f 3c 27 e8 a2 3c
       -0.000966794 -0.01125927 0.0106870085 0.01988609
000080 14 6e 0f 3d f1 03 82 ba 44 e5 cb 3c f6 a2 a3 bc
       0.035017088 -0.0009919388 0.024889596 -0.019975167
000090 83 1d ef 3c 6b 5c ad 3c 2b 27 bd bb 68 09 a1 3c
       0.029188877 0.021162232 -0.0057724915 0.019657806
0000a0 55 1c d6 bc 04 94 cf 3c 53 d1 a9 bc c1 33 f7 3c
       -0.026136557 0.025339134 -0.020729696 0.030176045
0000b0 30 d5 eb 3c d8 88 cd 3b 7b 11 9c bc 17 81 a3 3c
       0.02878818 0.0062724166 -0.019051304 0.019959016
0000c0 24 1a 5c 3c a3 2d ad 3c 34 36 dd b9 e2 6a e9 bc
       0.013433967 0.021139925 -0.0004219279 -0.028493349
0000d0 10 b9 0c bd d5 15 f7 bc f3 b1 dd bb 3b c4 8c bc
       -0.034356177 -0.030161778 -0.006765598 -0.017183414
0000e0 ea bb 0b 3d 52 84 77 bc 92 39 05 3d fa a5 d7 bc
       0.034114756 -0.015107231 0.032525606 -0.026324261
0000f0 98 45 06 bc d5 c1 a5 bb ee ee f1 3c 35 f8 cb bc
       -0.008195303 -0.005058507 0.029532876 -0.024898628
000100 5d 7f d1 3a a1 1b da bb c2 9b b6 bc 3d b4 10 3d
       0.0015983392 -0.0066561257 -0.022291068 0.03532814
000110 42 12 7f bc 7f dd b4 ba 14 42 d8 3c dc 08 00 bd
       -0.015568318 -0.0013798921 0.026398696 -0.03125845
000120 a8 50 8a bc ec dc c9 3b 84 80 c3 3c 13 e4 a7 3a
       -0.016884163 0.006160369 0.023864992 0.001280906
000130 6f 3e db bc 4d a0 7b bb 2f cd 5a bb 72 d7 ad 3c
       -0.02676317 -0.0038395107 -0.003338646 0.021220896
000140 a9 67 67 3c 6d 31 c2 3b 86 c3 83 3c a9 f3 83 bb
       0.014123836 0.005926302 0.016084444 -0.0040268493
000150 21 56 07 bc b3 00 a2 3b 12 4c 89 3c 0e c2 ce b7
       -0.008260281 0.004943931 0.016759906 -2.4647477e-05
000160 6b 10 9c bb b3 4d 52 bc 22 17 3f 3c 74 d6 0b 3d
       -0.0047626994 -0.012835908 0.01166323 0.034140065
000170 39 13 5b bc 0b 0a c0 3c 3f 86 81 bc 2e e5 06 bd
       -0.013371282 0.023442289 -0.015811084 -0.032933407
000180 72 38 ec 3c 41 c0 ae 3c ce d1 f3 bb 8a 2c 20 3c
       0.028835509 0.021331908 -0.007440782 0.009776244
000190 29 23 ee bc e2 bf 82 3c b2 37 8b 3c ac da 58 bb
       -0.0290695 0.015960637 0.016994331 -0.0033089323
0001a0 45 a7 5d bb c6 85 d0 bc 80 e8 88 bc 86 f6 8c 3b
       -0.0033821624 -0.025454413 -0.016712427 0.004301849
0001b0 21 46 d6 3c 00 9a c3 3c d5 e2 b8 3c 9f 5f 0b 3c
       0.026156487 0.023877144 0.0225691 0.008506685
0001c0 b2 b9 a0 37 c4 75 fc bc ec 91 95 3c 63 5b b6 3c
       1.9159957e-05 -0.030817874 0.018258058 0.022260373
0001d0 ca f2 aa 3c 0a 32 b7 bc 95 06 d0 3b 24 7b 85 bc
       0.020867724 -0.022362728 0.006348441 -0.01629407

fc2.weight f4 [84, 120]
000000 b4 30 86 3d 36 e1 32 3d 27 5d 55 bd 4f 0f 84 3c
       0.06552258 0.04367181 -0.05209079 0.016120581
000010 71 97 cf 3c 95 f0 75 bd 09 87 8b 3d 57 bb b4 bd
       0.025340768 -0.06004389 0.06812865 -0.08824795
000020 e9 81 48 3d db 59 a8 bd 5a 67 ba 3d 36 5a f6 bc
       0.048952017 -0.082202636 0.09101744 -0.030072313
000030 0a 34 8f 3d 73 87 aa 3d b5 10 fb bc f7 2e a8 bc
       0.069923475 0.08326616 -0.030647615 -0.020530207
000040 99 48 9a 3d 56 03 b9 bd e4 57 8b 3d 63 89 cc bc
       0.07533378 -0.090338394 0.06803873 -0.024967855
000050 85 d5 da bb c9 61 60 bd 35 e4 62 bd cc 31 98 3d
       -0.0066782855 -0.054780755 -0.055393416 0.07431373
000060 3d 84 13 3c 95 f3 b5 3d 4f f6 a5 bd 9b 9e 71 3d
       0.009003696 0.0888435 -0.0810362 0.05898915
000070 b0 ab 57 3d 01 05 99 3d 1a 2d a2 bd 1f 12 f0 3c
       0.05265397 0.074716575 -0.07918759 0.029305516
000080 37 1a 75 bd 6b 7d 66 3c 99 0c d4 3c a8 41 9b bd
       -0.059839454 0.014067988 0.025884913 -0.07580882
000090 2f 21 03 3c e4 de af bd 33 5b b1 3d 8e 63 92 bd
       0.008003517 -0.08587435 0.08659973 -0.07147895
0000a0 70 10 2f bd 5a 3f 2c bd 26 b3 73 3d eb 9a 6a bd
       -0.042740285 -0.042052604 0.05949702 -0.057276648
0000b0 2d 0b 9e 3d b5 08 1b 3c c6 4a 29 3d fc 4c 36 3d
       0.07716975 0.009462525 0.041331075 0.04450701
0000c0 d2 1c b6 bd 60 1b 29 3d 8d e3 6e 3d 01 c9 b9 bd
       -0.08892216 0.041285872 0.058322478 -0.090715416
0000d0 42 a4 a5 bd 3d a7 54 bb e1 6b 49 3b ef 8b 8c 3d
       -0.0808797 -0.0032448315 0.0030734467 0.06862628
0000e0 36 6e b3 3d 7f 6f 34 3d 40 d1 a3 3d 6f 44 3f 3c
       0.087612554 0.044051643 0.07998896 0.011674031
0000f0 91 77 4d bd cd 9f ea bc fe 97 06 3d 1d 8e 46 ba
       -0.050162856 -0.028640652 0.032859795 -0.0007574277
000100 96 49 13 bb 49 d6 62 bd 22 ce 1a bd 84 91 b3 bd
       -0.002247428 -0.05538014 -0.03779424 -0.08767989
000110 02 2e 29 bd 18 37 9c 3c be 0d 92 bd 1e d6 03 bd
       -0.041303642 0.01906924 -0.07131527 -0.03218662
000120 96 6e ca bb 72 14 8e 3d 76 21 23 bd bf 1e a7 bc
       -0.0061777337 0.069374934 -0.039826833 -0.020400403
000130 24 4d 35 3c 13 5e 92 bd 91 e7 6e bd 50 e4 19 3c
       0.011065755 -0.071468495 -0.058326308 0.009392813
000140 c6 1e 41 bd 24 60 b8 bd fe cf b0 3d d6 77 e8 bc
       -0.04714849 -0.09002712 0.08633421 -0.028377455
000150 ed 5c 47 bd 7d c3 33 bd 8d 16 00 bd f4 1c 87 3c
       -0.048672605 -0.043887604 -0.031271506 0.016493298
000160 d6 08 5f 3d 94 9c a7 3d 87 f7 00 3d 30 ab 38 3d
       0.054451786 0.08184162 0.03148606 0.045085132
000170 03 70 7b 3d 9f b1 b9 bd 1a ba f4 3c 60 6c b2 bd
       0.06138612 -0.09067082 0.029873896 -0.08712077
000180 26 25 88 3d 67 8e 81 bc 6f 50 2c 3c 6c aa 3f bd
       0.066477105 -0.015814973 0.010517224 -0.046793386
000190 05 49 a3 bd 25 87 86 bd ab 8a 9c 3d 50 0b 4e bd
       -0.07972912 -0.065687455 0.07643636 -0.050303757
0001a0 b0 1a 1e bb 97 68 aa bd 12 15 a0 bd 03 d9 92 3d
       -0.0024124794 -0.0832073 -0.07816519 0.07170298
0001b0 1c cf 81 bd 9c 92 9f 3c 88 f5 d8 3b 57 3a 88 bd
       -0.06338331 0.019479088 0.0066210665 -0.066517524
0001c0 d8 2f 93 bb ff d1 74 3d f8 dc 64 bb 8e 4d b4 bd
       -0.0044917874 0.05977058 -0.0034921747 -0.08803855
0001d0 bf 5e 2a 3d 06 89 b4 bd c5 8e 8a 3d fe ac a8 3d
       0.041594263 -0.08815198 0.067655124 0.08236121
0001e0 cb 04 5b 3d 8a fb 45 3d 75 a1 5c bd 73 ca 90 3d
       0.053471368 0.04833559 -0.053864915 0.07069864
0001f0 40 64 16 bd 4a 6e bc ba 67 f9 c0 3c 13 42 9b 3d
       -0.0367167 -0.001437613 0.023556424 0.07580962
000200 db e4 30 3d 81 dd c1 39 6a a8 e9 3a 90 a8 0d 3d
       0.043187004 0.00036976862 0.001782668 0.03458458
000210 1a 73 26 3d 04 a8 58 bd 9e 50 45 3d b1 4a 2c 3d
       0.040637113 -0.052894607 0.048172586 0.04206342
000220 1f bc 50 3d a5 04 34 b9 64 4c bd bb 6b db b5 bd
       0.050960656 -0.00017167868 -0.0057769287 -0.08879741
000230 02 2c 44 bd 55 cd d9 bc 45 98 ad bd 11 dd 27 3d
       -0.04789353 -0.026587168 -0.08476309 0.04098231
000240 b6 f0 02 3d 49 c3 9e 3d 97 5a 09 bd 14 ca 1f 3d
       0.03196784 0.077520914 -0.03353366 0.039011076
000250 ef 35 0b 3c c2 7d 90 3c 1d e3 87 3c 53 5e c9 bc
       0.0084967455 0.017638091 0.016587788 -0.02458111
000260 83 16 5a bd e5 6c af bd 3e 0e a2 bc 60 8b f8 bb
       -0.053244125 -0.08565692 -0.019782182 -0.007584974
000270 93 a0 86 bc 91 55 60 3d fd 56 74 3d 7c fe 37 bd
       -0.01643399 0.054769102 0.05965327 -0.04492043
000280 05 e5 99 3c d1 b2 59 bc 96 06 ac 3d fc e7 81 bd
       0.018785963 -0.013287262 0.08399694 -0.06343076
000290 c4 fb 9b 3d 37 26 8a 3c 23 f0 af bb e9 b9 c0 3c
       0.0761638 0.016863925 -0.0053692027 0.023526149
0002a0 b2 9f d3 bc 93 d9 b7 bd ad fc d5 3c c7 dc 99 3d
       -0.025832985 -0.08977046 0.026121462 0.07512813
0002b0 51 89 eb 3b c4 f3 ce bc 60 2c d3 3c 3b 46 7d bd
       0.0071880003 -0.02526272 0.025777996 -0.061834555
0002c0 3d 63 7a 3d 24 6c 73 3d 1f 8d 71 3d ec f4 94 bd
       0.061129797 0.059429303 0.058972474 -0.07273278
0002d0 76 ae c5 bc 14 15 80 bd 30 89 52 bd a8 7e 8f 3b
       -0.024131041 -0.0625402 -0.051400363 0.0043791123
0002e0 70 e4 8a 3c 62 98 00 bd 92 66 8e bd d7 24 94 3d
       0.01695463 -0.031395324 -0.069531575 0.07233589
0002f0 83 67 66 bc 76 91 63 3d b0 e6 80 3d 52 1d b7 bd
       -0.014062765 0.055558644 0.06294 -0.08941139
000300 d3 e3 b9 3d 38 aa 95 3d 7e 28 a0 3d cb 4f 8f 3d
       0.09076657 0.07307857 0.07820223 0.06997641
000310 11 9a 21 bd 3f dc 95 3d 17 eb 2d bb 91 ae 9c bd
       -0.03945357 0.07317399 -0.002653783 -0.076504834
000320 8b d7 a1 3d a7 ed 28 bd 43 ae 9d bc c5 bc b4 3c
       0.0790244 -0.041242268 -0.019248134 0.022062669
000330 c5 50 dc bc cf d3 89 3c a6 1e 1b bd 15 dd 21 3d
       -0.026893983 0.016824631 -0.037871026 0.03951748
000340 43 ab 8f 3d 4f 81 1f 3c 2e 82 6a bc 43 1d b5 bb
       0.070150875 0.009735419 -0.014313264 -0.00552717
000350 80 ae 2e 3d b7 88 6c 3d 82 af 93 bd 32 72 0b bd
       0.042646885 0.05774757 -0.0721121 -0.034044452
000360 3a fd 6f 3d dc f8 c2 3b e4 99 97 bd cc 42 10 bd
       0.058591105 0.0059500765 -0.07402399 -0.035219952
000370 e2 1c 7b bd 04 a9 73 bb 25 5b 72 bd 29 75 ff 3c
       -0.06130684 -0.0037179599 -0.059168953 0.031183796
000380 e3 08 97 3d 1f ab b5 3b 40 f2 b1 3d d1 b4 57 bd
       0.07374742 0.005544081 0.08688784 -0.052662674
000390 3a ba 18 3d 93 84 ea bc 03 55 e5 3c cd a4 19 bd
       0.037286974 -0.02862767 0.027994638 -0.037510682
0003a0 bb 41 8e 3c 89 d1 41 bd 67 51 1a bd 0b bc 92 3d
       0.017365327 -0.04731897 -0.037675288 0.071647726
0003b0 43 52 86 bd 52 ab 6b bd e0 d6 c8 3c c7 74 87 bd
       -0.06558659 -0.05753643 0.024516523 -0.066140704
0003c0 af 8b 98 3c ba f6 cc 3c d7 33 9b bd b1 dd 30 3d
       0.018621294 0.025019992 -0.07578247 0.04318017
0003d0 6c fa 33 3a b1 44 be bc 0d b8 97 3d 85 a3 83 bc
       0.0006865624 -0.023226114 0.07408152 -0.016069183
0003e0 1b 13 fb bc 32 56 aa 3d 87 c1 6c 3d 3d 43 2b 3d
       -0.030648759 0.08317222 0.05780175 0.04181217
0003f0 5a d7 24 3d fc 70 b2 bd bb f9 1c 3d b7 d4 82 bd
       0.040244438 -0.08712956 0.0383241 -0.063882284

fc2.bias f4 [84]
000000 47 38 30 3d 23 4b 44 3d ef 35 7c bd ff 07 2c 3c
       0.04302242 0.04792322 -0.061574873 0.010499953
000010 bc 45 4a bc dd c7 ca 3b 4d f8 4c bd 39 09 90 bd
       -0.0123457275 0.0061883763 -0.050041486 -0.07033009
000020 4f cc 9e 3d c8 c1 8f bd 34 80 b3 3d f4 bc 29 3d
       0.077538125 -0.07019383 0.08764687 0.041439965
000030 c0 4d d2 bc dc 08 24 bd 2a 70 28 3d d8 77 5d 3d
       -0.02567184 -0.04004751 0.041122593 0.05406937
000040 4b dc 39 3d b0 6a 9a 3d 75 b0 26 3d 9f 3a 9e 3d
       0.045376103 0.0753988 0.040695626 0.07726025
000050 23 b7 93 3d 45 2b a2 3d c7 20 36 3d 05 ed 7b 3d
       0.07212665 0.07918409 0.044464853 0.061505336
000060 c5 a9 97 3c e1 55 be 3c 8e 84 63 bd 47 52 55 3d
       0.01851357 0.02323431 -0.055546336 0.05208042
000070 c6 09 12 3d f8 38 7c bd 98 a8 b8 3d 9a a6 80 bd
       0.035653852 -0.061577767 0.09016532 -0.06281777
000080 90 56 ae 3d db e3 ba bd bd 30 2d 3d fc 54 ab bd
       0.08512604 -0.09125491 0.04228281 -0.08365819
000090 bb f7 49 bd b4 49 b6 bd 27 30 25 bd 66 2b b1 3c
       -0.04930852 -0.089007765 -0.040329125 0.02162714
0000a0 4c 93 92 3d 51 0c 9b 3d 28 72 8d bd 82 08 b9 39
       0.07157001 0.075707085 -0.06906539 0.00035292289
0000b0 6c 08 b1 3d f8 02 69 3d 86 6a 91 bd 38 90 cb bc
       0.086441845 0.056887597 -0.07100396 -0.024849042
0000c0 fc 5e b5 bd 53 ff 9b 3d 6f 78 d1 bc 91 c8 05 3d
       -0.088560075 0.076170586 -0.025570123 0.03266198
0000d0 8e ad fc 3c 35 ef e9 3c 90 04 57 bd 3f fd a7 3d
       0.030844476 0.028556446 -0.052494586 0.082026
0000e0 55 ab 3e bd 17 79 e8 3c 8a 0a 48 bd 6e 13 e1 bc
       -0.046550114 0.028378053 -0.048838176 -0.027475085
0000f0 62 cc b1 3b d3 fd 3b 3b 29 f6 78 3d 6e e6 5e 3d
       0.0054259757 0.0028685227 0.06078163 0.054418974
000100 38 e3 96 bd d5 fb 00 bd 51 0a a1 bd bc 05 b2 bd
       -0.07367557 -0.031490166 -0.07863296 -0.086925
000110 83 5d 2c bd 99 55 52 3c 5f 12 da bc 12 67 0c 3d
       -0.042081367 0.012837791 -0.026620088 0.034277983
000120 5c 36 87 bd fb 2e 5f 3d 7f 2c 63 3d 25 6c b5 3d
       -0.06602165 0.054488163 0.055462357 0.088585176
000130 37 17 a7 3b ac 19 36 bc b3 bf e0 bb f1 75 a5 bc
       0.005099203 -0.011114519 -0.00685879 -0.02019784
000140 2a 7a 5e 3d 6c 46 94 bd 97 87 a6 3d e7 c8 11 3b
       0.054315723 -0.072399944 0.081313305 0.0022244991

fc3.weight f4 [10, 84]
000000 6f 60 89 3d d4 ed b1 3d 91 62 5a bd a4 b5 ab 3d
       0.067078464 0.0868794 -0.053316657 0.083842546
000010 66 88 5f 3d 4e b1 8b bc f0 f8 f2 3b 30 7c 96 bb
       0.05457344 -0.017052319 0.0074149296 -0.004592441
000020 5a 45 cb 3d be b1 0a 3d fc 83 5d 3d 5b 1b 95 bd
       0.09925337 0.033860914 0.05408095 -0.07280608
000030 bd 2e 07 bc b9 28 cb 3d 89 1e de bd d1 57 93 3d
       -0.008250889 0.099198766 -0.10845668 0.07194484
000040 17 c1 1a 3d 17 9d 3b bd 02 e4 ce 3d f0 30 b4 bd
       0.0377818 -0.04580411 0.10102083 -0.087983966
000050 34 ec e8 bc 5f 9f a0 3d 17 64 e8 3c 7e fa b7 3d
       -0.028432943 0.078428976 0.028368039 0.089833245
000060 97 9c 20 3d 88 7e 54 bd ff 79 b5 3d 64 ef b3 bd
       0.039211836 -0.051878482 0.088611595 -0.087858945
000070 d9 8c 32 3c a5 ce bb bd c5 1a ab bd 23 bb de bc
       0.0108978385 -0.09170274 -0.08354715 -0.027188843
000080 2b 6d f2 ba 4f 45 df bd 68 f9 ad 3d 3e 4b 6c 3d
       -0.0018495669 -0.109018914 0.08494836 0.057688944
000090 ed 04 d0 bd 68 7c 1a 3d 0b f8 e8 3c cf ad 90 3d
       -0.101571895 0.0377163 0.028438589 0.07064401
0000a0 14 92 a5 bd a1 d6 38 3d be bb 83 3d 43 5c 2b 3d
       -0.08084503 0.04512656 0.06432293 0.041836035
0000b0 e4 e8 e3 3c a5 81 1a bd ea c6 ca bd f7 48 63 bd
       0.027821012 -0.037721295 -0.09901221 -0.055489507
0000c0 c0 89 a6 3d 99 04 66 bd ce 4e 1c 3d a0 4a f5 3c
       0.081317425 -0.05615673 0.03816109 0.02994281
0000d0 6d 20 76 bd fd 6c f8 3c 75 6f a9 3d 13 f8 ce 3d
       -0.060089517 0.030325407 0.08273212 0.1010591
0000e0 3d ef 3e 3d 0b d5 71 3d 85 c4 de bc 75 60 d0 bd
       0.046614874 0.059041064 -0.027193317 -0.10174648
0000f0 e0 ce ad 3c 4f aa 06 3d b0 36 c1 3c 6b a8 b2 3d
       0.02121681 0.032877263 0.023585647 0.087235294
000100 46 9c ca 3d d9 0b 23 ba 19 c4 2e bd bb 2f 5b 3d
       0.09893088 -0.0006219722 -0.042667482 0.053512316
000110 26 53 71 3d 74 e2 a9 3d 6e 58 95 3d 91 6a 2c bd
       0.058917187 0.08295146 0.07292257 -0.042093817
000120 8d 6b d7 bd 55 42 ff 3c a4 0c 7d bd ae 5f 4f 3d
       -0.105185606 0.03115956 -0.061779633 0.050628357
000130 eb 03 cb 3c 25 75 50 3d 96 e7 8a bc f5 ac 3a 3d
       0.024782142 0.050892968 -0.016956132 0.0455751
000140 d4 e3 6d bd 05 ea b9 bd 50 35 5e 3d 43 f5 56 3c
       -0.058078602 -0.09077839 0.05425006 0.013119998
000150 9c 87 4c bd e8 0c 61 3d 3b c7 2b 3d e0 46 95 bd
       -0.049934015 0.05494395 0.041938048 -0.07288909
000160 f9 ee d0 bd 39 fd 92 bd 47 bc 04 bd fd 07 57 3d
       -0.102018304 -0.07177205 -0.032406118 0.052497853
000170 5e 3e c5 3d 54 32 f3 3b 1a 7c b1 3d d5 53 64 3d
       0.09631036 0.007421771 0.086662486 0.05574401
000180 55 2b bf bd d5 72 d0 bd fb 9d ab 3d 07 da 14 bd
       -0.09334437 -0.101781525 0.08379742 -0.03634074
000190 7b 36 bd 3b 52 04 c3 bd ee de 01 bd 2b 93 c6 3a
       0.005774317 -0.095223084 -0.031706743 0.0015150061
0001a0 29 77 55 3c b9 ca 40 bc 5f d0 ac 3d 78 f0 c6 3d
       0.013028898 -0.011767083 0.08438181 0.097138345
0001b0 c9 d7 d3 3c 80 72 73 bd e8 c0 c3 bd af 2c 13 bd
       0.02585973 -0.059435368 -0.09558278 -0.035931285
0001c0 f1 0b 9f bd 6d ff 96 bd 81 5c 89 bd e4 59 cd 3b
       -0.077659495 -0.07372937 -0.06707097 0.0062668193
0001d0 1e e3 d8 bc e3 27 9d 3d 05 35 9d 3d 16 9a b3 bd
       -0.026475485 0.076736234 0.07676128 -0.08769624
0001e0 f7 14 ba 3c 41 00 6d bd 6c 78 aa bd b6 55 28 3d
       0.022715075 -0.05786157 -0.0832375 0.041097365
0001f0 a8 89 91 3d 98 33 99 3c 87 9a c1 bd 96 49 39 3a
       0.07106334 0.01870136 -0.09453302 0.0007068155
000200 9c ec 69 bc eb ad bc 3d b8 1e 50 bd 9d 07 6e 3d
       -0.0142776035 0.0921286 -0.050810546 0.05811273
000210 a6 e1 04 bd d8 80 78 3b 13 70 e5 bc 31 0f 83 3d
       -0.032441758 0.0037918594 -0.028007543 0.06399382
000220 9d df c1 bc 6c 6b 42 3d 90 e7 a3 bc 8a 38 89 3d
       -0.023666197 0.047465727 -0.020007879 0.06700237
000230 df 80 f0 3c b6 07 5d 3d b0 eb 6b bd b9 a5 6f bd
       0.029358326 0.05396243 -0.057597816 -0.058507655
000240 06 1a da bc c8 00 54 3d c4 7a 9d 3d d6 fb a8 bd
       -0.026623737 0.051758558 0.07689431 -0.08251159
000250 d9 5b 24 3d 14 a4 3e 3d 72 76 7a bd 3b 6b e1 3c
       0.040126655 0.046543196 -0.061148115 0.027516952
000260 55 dc cd 3c 64 12 ac 3d e6 ca 8e bd 11 4d 94 bd
       0.025129477 0.08401945 -0.069722936 -0.07241262
000270 79 f5 ea bc 18 b1 1a 3b 58 fa 42 3c 22 6c be bc
       -0.028681504 0.0023604091 0.011900507 -0.023244921
000280 7f 86 31 bc 94 f0 ed bc a6 e4 79 bc f9 d2 38 bd
       -0.010835289 -0.02904538 -0.015252268 -0.045123074
000290 b1 42 aa 3d 6c 7c 56 bd e7 0f 32 bd dd 20 00 3d
       0.083135016 -0.05236475 -0.043472197 0.03128134
0002a0 f3 03 da 3d 4e f8 5e 3d 56 d4 34 3d 9f d5 3b bb
       0.106452845 0.05443602 0.04414781 -0.0028661264
0002b0 56 a1 ab bd 94 77 6d 3d 18 04 48 3d 38 bb 8f bc
       -0.08380382 0.057975367 0.04883203 -0.017545328
0002c0 77 02 2b 3d 1d 67 42 3d 3d 57 cf bd 2d c2 6f 3d
       0.041750398 0.047461618 -0.10124061 0.05853479
0002d0 72 56 0f 3d d0 3a d5 3d 21 f1 26 3d 88 4b 74 3d
       0.03499455 0.10411608 0.040757302 0.059642345
0002e0 aa 60 a3 bd 08 c0 19 bd 3f 5c 68 bd 1c ad 4e bb
       -0.079774216 -0.03753665 -0.056728598 -0.0031536287
0002f0 10 61 b6 3d 66 54 4c bd 04 e9 b3 3c 8e 0c 85 bd
       0.08905232 -0.049885176 0.021961696 -0.06496535
000300 20 89 bf ba 94 6e d7 bd f5 ec a6 3b b9 1a 93 bd
       -0.001461301 -0.10519138 0.0050941654 -0.07182831
000310 b1 e8 c9 bd 56 18 be 39 99 84 e1 ba b3 76 55 bd
       -0.098588355 0.00036257756 -0.0017205655 -0.052115154
000320 26 29 3f 3d 3e 45 c8 bd 70 a8 8b bd 07 c3 27 ba
       0.0466701 -0.09778832 -0.06819236 -0.0006399606
000330 9f 64 d0 3d 66 fe 70 bd fc ec 92 3d 7b 6e 94 bd
       0.10175442 -0.058836363 0.071741074 -0.07247635
000340 f8 ec 2b 3c 37 8d ce bd ad 6b 37 3d 94 e3 ad 3a
       0.0104935095 -0.10085528 0.044780422 0.0013266676
000350 04 79 55 bd 68 b4 34 3d d5 55 9b 3d 94 34 96 3d
       -0.052117363 0.04411736 0.075847305 0.07334247
000360 44 d5 9f bd 27 e7 69 bc aa 57 ca bd b8 bb bc bd
       -0.07804349 -0.014276302 -0.09880002 -0.09215492
000370 d6 c3 10 3c c4 26 81 3c 49 84 a0 bc 2d 6b d4 3d
       0.008835753 0.015765555 -0.019594328 0.10372005
000380 ac 31 d7 bd e2 d3 a1 bd a7 fa 9c 3d 0f 7f 62 3d
       -0.10507521 -0.079017416 0.07664996 0.055296954
000390 c4 29 b5 bd 66 a6 b5 3d 75 01 85 bd 78 62 c9 3d
       -0.08845857 0.088696286 -0.064944185 0.098332345
0003a0 2a 6c 5f 3c c2 2e 43 3d 97 34 14 bd 9a 53 49 3d
       0.013636628 0.047652014 -0.036182966 0.049151994
0003b0 39 8a ab 3d 16 d1 7f 3d 64 1f 04 3d cf 2f 35 bd
       0.08375973 0.06245526 0.0322565 -0.044235047
0003c0 70 1d a6 3d 43 e1 98 3d 78 9d 83 bd 00 98 45 bb
       0.081110835 0.0746484 -0.06426519 -0.0030150414
0003d0 a0 e5 c4 bd 2d 97 83 bd 54 88 91 bd e7 8b 90 bd
       -0.0961411 -0.06425319 -0.07106081 -0.07057934
0003e0 be c7 b1 3d b7 e0 1f bd 57 d3 ad 3d c6 08 c0 3d
       0.08680676 -0.039032664 0.084875755 0.093766734
0003f0 f0 0e 7b bd 04 bc c4 bd ef a7 a5 bd 3c b0 3c bd
       -0.061293542 -0.09606174 -0.080886714 -0.046066508

fc3.bias f4 [10]
000000 83 b7 7f 3c 7f 52 d6 3c 71 24 49 ba 3d 64 75 bc
       0.015607717 0.026162384 -0.00076729717 -0.014977512
000010 f6 d5 38 bd ee 67 ab 3d d7 8b 1c 3d 97 af 9d bd
       -0.045125924 0.083694324 0.0382193 -0.07699507
000020 80 16 04 bd 1e d3 b9 3d
       -0.03224802 0.090734705
