models/cnn_checkpoint.pth (torch, 451995 bytes, 10 tensors)

conv1.weight f4 [16, 1, 5, 5]
00000000: 94d7 013e f2f9 223c 8b30 873e efe1 54be
00000010: 9dae bf3a 4e53 2a3e cfdb 5b3e b165 8ebd
00000020: 43b4 86be d179 47be 1233 4e3e 280c 0e3e
00000030: 3f3d 163b 93f0 8fbe 433a a5be 2e4f 353e
00000040: a3a0 543b edc0 89bd 09fa bbbe cc7c 25be
00000050: e1f6 583e 5d6c fa3d ab9a e13a f84f 77be
00000060: a543 f3bd c299 2b3e 0781 0cbe 45ca fcbd
00000070: 5df5 efbd 49c3 85be d4a7 4c3d 772a f3bd
00000080: 9796 90be 46d5 54bc 9ee0 373e 0ecb 2d3d
00000090: 4963 e23d ef49 3bbb 0714 6a3e 9c31 f33d
000000a0: 9a8e da3d 40cc c53d 7973 1f3e 73b5 1f3e
000000b0: e608 5abe 822c b0bd 6b67 58be aa4f 41bd
000000c0: 9135 b03d c763 173d 043f eebc 37c8 f4bd
000000d0: c7f3 4ebe 5271 88be edd9 96be 8186 0ebd
000000e0: 11e0 423e 7bfa 853d d579 8fb9 b3ad c8be
000000f0: baec 953d 12dd 1d3c 65e0 9a3c bad6 ae3d
00000100: 5d52 97be bfd6 ce3d 1635 703e 275a 423e
00000110: bd35 083e 55ad 613c d9e0 983d 6e90 873e
00000120: c82b 693e 3216 103e ef88 533e aa7c 873d
00000130: 1142 f13d 83aa b33c 16a0 4abd a6ec 863c
00000140: e25d f2bc 1e3f dfbc ef8a 263c 77cc 0b3e
00000150: 3052 463e 5dd6 bbbd 86f3 9fbd a34a 503e
00000160: 9eb2 1f3e b2ae cbbc be51 f1bd 4f71 423e
00000170: b109 913d 9e49 3e3d c7f3 45bb bebf 8a3c
00000180: 0516 ba3d 57a3 b83d 14e6 1cbe bbb5 42be
00000190: d2c3 2cbd 1aa2 5c3e e93c 583e 2bbb 233e
000001a0: d7dc 7b3e faf2 893d 4854 0f3e 5e9a ed3d
000001b0: d37e 9c3e 90cb 8f3e c40a e1bd faec 0d3e
000001c0: 7aed c23d cb1b acbd 26db 893e dc16 dcbd
000001d0: 4620 6cbe bbc4 bebe 3b67 82be 158f 37be
000001e0: 993d a4be 879a a8be a606 98be 19fa 61be
000001f0: 49cf 66be 7e34 7e3e 27ee 263e 5152 9a3e
00000200: a12b 8b3b ee0d d93c ccc9 41bd 2421 493a
00000210: 33bc 0bbd 0175 9cbc dcbd 083e b515 2f3e
00000220: 4eaa 07be 22fe f9bd ec64 8abd 4fb2 dc3d
00000230: 573a 20be 4327 40be 5b7a 79be b6de 2bbe
00000240: 60fe d9bd 89fb bfbd d5b0 67be 5d3b 29bc
00000250: 31a2 3dbd 7cf3 a43d ac91 03bd a87d a03d
00000260: 015f 833e 8d85 823e a378 acbc 9c99 6e3e
00000270: aca9 983d 0a18 9e3c 9f6b 893d b885 3c3e
00000280: 80f3 d2bc 27a2 6c3e f554 0c3e a53c f33d
00000290: 3374 6cbc 0880 81be 023b 9cba 0f46 c5be
000002a0: 93f3 f3be 074f 88be 12f0 833d cb4f 9bbe
000002b0: 9f2b 9cbe 72f1 233c 8968 f33d 6bd1 2dbd
000002c0: 811a 8c3d 9a15 9d3d cca4 253e a276 413e
000002d0: 7e0d 603d 4d4e 053e 0b35 fc3d 1047 0cbe
000002e0: d13c a6bd d7d8 40be 14c3 65bd da0b 5f3e
000002f0: 51d3 ec3c f83f 0cbe d1ec 023d 541f 233d
00000300: 6f7b f2bd d040 96bd 428d 9dbe 8959 233d
00000310: df59 293e 1077 123e 8204 443d 1ea2 51be
00000320: 5e5a 393d d9ba 14be 9472 3b3e 8ad8 a7bd
00000330: adb6 5d3e dfd4 be3c 629c 36be 1a82 97be
00000340: 281b 9cbd b853 b53d 5909 24bd cf65 26bd
00000350: 3f38 2dbe 962e 81be 2c57 483e ab45 2cbe
00000360: 9cb5 4dbb 3b8b 01be 5349 6dbe 88e3 febc
00000370: 1fb2 cdbd 179a 23be bd3b 94bc 4632 96be
00000380: a30d 5f3e c686 efbd 9d01 0a3e ce9b ca3d
00000390: 938b 15be 8b2b c7bd c1ca a0bd 0ab7 8cbd
000003a0: 1c09 153e 8e5f ca3b 8633 3cbd 3781 883e
000003b0: 927f 593e 95eb 153d a5f9 a8bc 5e32 283e
000003c0: 76ce 603e abeb 8a3e 5336 dfbd 1e37 f43d
000003d0: e266 6c3e ebcf 213e 18d6 a1bc d953 f3bd
000003e0: cef1 8cbe ae3a 95be 41f5 84be 2518 0ebd
000003f0: 7067 273d 5731 153e d883 96bd 8dcd 32be
0.12679893 0.009947287 0.26404223 -0.20789312 0.0014624182 0.1663334 0.21470569 -0.0695299
-0.26309404 -0.19480063 0.2013667 0.13871825 0.002292469 -0.2811323 -0.32271013 0.17705986
0.003244438 -0.06726251 -0.367142 -0.16160887 0.21187927 0.122277 0.0017212232 -0.241516
-0.118781365 0.16757873 -0.13721095 -0.12343267 -0.11716721 -0.26125553 0.04996474 -0.11873334
-0.2823989 -0.0129903015 0.17956778 0.042429976 0.110540934 -0.0028578003 0.22859202 0.118746966
0.1067173 0.09658098 0.15571393 0.15596561 -0.21292457 -0.08602239 -0.21133201 -0.047195114
0.08603967 0.03696039 -0.029082783 -0.119522505 -0.20210181 -0.26648957 -0.2946314 -0.03479624
0.19030787 0.06541916 -0.00027365857 -0.39195022 0.07320543 0.009635227 0.018905828 0.085370496
-0.29555026 0.10099553 0.2345775 0.18979703 0.1330175 0.013774236 0.07464761 0.2647738
0.22770607 0.14070967 0.20657705 0.06615575 0.11780179 0.021931892 -0.049469076 0.016470265
-0.029585782 -0.027251776 0.01016496 0.13652216 0.1936729 -0.09171746 -0.0781012 0.20340972
0.15595481 -0.024863575 -0.11783169 0.18988536 0.070819266 0.046456926 -0.0030205117 0.016937133
0.09086231 0.090155296 -0.15322143 -0.19014637 -0.042178936 0.21546212 0.21116985 0.15989368
0.24595962 0.06735797 0.13996994 0.11601709 0.3056551 0.28084993 -0.109883815 0.1385993
0.09517951 -0.084037386 0.2692501 -0.107465476 -0.23059186 -0.37259468 -0.25469384 -0.17925675
-0.32078245 -0.32930395 -0.29692572 -0.22068061 -0.2254001 0.24824712 0.16301785 0.30140927
0.0042471443 0.0264959 -0.04731159 0.000767248 -0.034115028 -0.01909876 0.13353676 0.17098124
-0.1324856 -0.12206675 -0.067575306 0.10776197 -0.15647255 -0.18764977 -0.24363081 -0.16784176
-0.10644221 -0.093741484 -0.2262605 -0.010329095 -0.046297256 0.080542535 -0.032121345 0.07836467
0.2565842 0.25492516 -0.021053618 0.23300785 0.07454237 0.019298572 0.0670998 0.18410385
-0.025750875 0.23108731 0.13704284 0.118768014 -0.014432001 -0.25292993 -0.0011919441 -0.38530013
-0.4764677 -0.26622793 0.06442274 -0.30334315 -0.3050203 0.0100062955 0.11885173 -0.042436045
0.06840993 0.07670136 0.16176146 0.18892911 0.054700367 0.1301815 0.12314805 -0.13698983
-0.081170686 -0.18832718 -0.056094244 0.21781865 0.028909357 -0.13696277 0.031964127 0.0398248
-0.11839949 -0.07336581 -0.30771834 0.03988031 0.1653819 0.14303231 0.04785586 -0.20471999
0.045252196 -0.14524402 0.18305427 -0.081955984 0.21651717 0.023294864 -0.17833093 -0.29591447
-0.07622367 0.08853859 -0.040047977 -0.040624436 -0.16915987 -0.25230855 0.19564503 -0.16823451
-0.0031388765 -0.12650768 -0.23172502 -0.031114355 -0.100437395 -0.1597675 -0.018094892 -0.2933523
0.21782546 -0.11695628 0.13477178 0.09892999 -0.14604025 -0.09725102 -0.07851172 -0.068708494
0.14554256 0.006175942 -0.045947574 0.26661083 0.2124007 0.03660162 -0.020626852 0.16425464
0.21953759 0.27132925 -0.108990334 0.11924575 0.23086122 0.1580197 -0.019755408 -0.11881227
-0.27528232 -0.29146332 -0.25968364 -0.034690995 0.04087013 0.14569603 -0.07349366 -0.17461224

conv1.bias f4 [16]
00000000: 9218 babc a19c 80be 5c30 c83c 43a7 6cbe
00000010: a55f e23d 95b8 3f3d 588b d1bd bcdb 61bd
00000020: 63f2 8a3d 7d76 22be 108c 3bbe c9b6 afbd
00000030: 5814 a1bb 30b4 18be 3287 13be 4f85 c1bd
-0.022716794 -0.25119498 0.024437122 -0.2311068 0.11053399 0.04680689 -0.10231656 -0.055141196
0.06784513 -0.15865512 -0.18315148 -0.085797854 -0.0049157552 -0.14912486 -0.14407042 -0.09449255

conv2.weight f4 [32, 16, 3, 3]
00000000: d732 01bd 5d06 16bd b1bd 2ebd 36b2 a8bd
00000010: d56f 83bd 7ba3 f2bd 053e 4d3c 517f f73a
00000020: 38c0 e5bc 153c a63b 7bdb e03c 4db4 fc3d
00000030: 1a65 48be 096d a0bd f2ba 2dbc b81c 00be
00000040: 9222 c0bd 4245 34bd 1d2f d7bd 0f1f 3f3d
00000050: 715c 823c bad1 dcbd d927 dabd 17a0 72be
00000060: 5645 7cba 4858 d13b bb0e 673c d5e1 e8bb
00000070: 033f 8ebd 2b7a 873a ea77 95bc 391b 0fbd
00000080: d320 e4ba 202c 8bbe 2769 30be 29d6 14be
00000090: f71d 193e 00f1 27bc 5711 4c3d b559 823d
000000a0: bdd3 b23d 89aa d33d 0cb0 bbbd c311 81bd
000000b0: 1608 9fbd 0542 3e3c 2355 dbbd 3ef7 aebd
000000c0: 6d6b 993d 5299 0d3e 1746 ad3c bde5 08be
000000d0: 0bfd f73c 3472 9bbd 73a5 b63d 00cd 80bc
000000e0: c246 8cbc b5a4 53bc a319 003e e019 013e
000000f0: eb69 c2bd 895f 8fbd 0d4a df3c db0b febb
00000100: 0a4e 63bd 63ce 29bd 621a 4b3d 9db5 c33d
00000110: e30a 333d 1664 19be 2427 08bd 7e63 e5bd
00000120: a433 1cbd 3e15 abbc 1bd7 44bd 04ff cc3d
00000130: 71bc 083d ef4f 47bd 7899 b23d d3b3 a03d
00000140: 4cb7 883b b25d 82bc c254 0abd a9bf 163b
00000150: f60c 29be 408f 0ebe ccd6 9fb6 41a5 fabc
00000160: 75e3 81be c4cd 5fbe 0426 03bd 86ec 23be
00000170: 8f30 80bd acfb 7e3d b0a4 cc3d 84f6 a7bb
00000180: 0338 6f3d 41b9 6fbb 61be 9cbd 1022 113d
00000190: 43cc 8c3d 4e8e 8c3d bb45 17be e1af aabd
000001a0: 1c2f b73c 6c6e 1fbe 6d88 dcbd e802 e73c
000001b0: 7d1c 88bd c671 70bd 589f b9bd 4b7c 31bd
000001c0: 10fd 18bd b3f9 9d3d 716d 34be 066f 04be
000001d0: 73a6 3dbd ae2a d7bd d894 4ebe 4de3 07be
000001e0: 755d 563d 15c5 f13c 13ad 2a3a ffeb 3a3d
000001f0: 1ff5 e33d 48e9 683d 4427 e03d 317a 073e
00000200: 1cba babd 5f3f 35be c9ed 27bd b0bf a9bd
00000210: 4e04 8bbd 83a3 13bd 295e 31be 4e8a b93d
00000220: 2bd1 533d 390a a33d e745 e3bd 4074 04be
00000230: 5ec6 21be 9f34 bc3b 68ea 08be 66ab 1ebe
00000240: 8a39 643e 6b2a 37bd cb62 60bd d8f9 f03d
00000250: 0f5e 29be 6c43 c03d f79f a7bb 005a 35bc
00000260: d528 ff3d 277b 9bbd 6b6d 49bd 3ba3 eb3d
00000270: 95bc cb3c efd5 c13d cece 49bd 3f98 3d3c
00000280: b75f 713d 07fc fcbc 3025 10bc 4f07 9ebd
00000290: 71ea 8f3d 6a0b 89ba a0ad a2bc 7771 d23b
000002a0: be16 d8bb 89a6 b33d 17b8 c9bc 07f2 a8bd
000002b0: 64cd 763c 0eb0 f13d 245e 07be 9f35 ce3d
000002c0: d19a e13d 41bb 16bd 253c c63d 97a7 f13d
000002d0: 5472 c0bd 9151 10be 99e5 b9bd 7f42 88be
000002e0: feae 73be 2024 fcbd f2d9 9abe 98d8 77be
000002f0: 17b6 fcbd 70e2 323b 4f41 5dbd b5c7 41bd
00000300: 2982 c53d bd9b 3bbe eac7 02be 24a1 0abd
00000310: deba 0ebe 9d95 8abd 073b c0bd 45a1 f3bc
00000320: c3bd b0bd 29fc 96bd 15b2 70be c571 17be
00000330: 6ef9 61be 5edf b6be 099e 70bd 4998 bd3b
00000340: ecd7 0bbe 9684 3abd ab36 6abe db0c 153d
00000350: 0a99 ef3c 0d60 3bbe b041 2a3e d727 243e
00000360: 7e14 1c3d 4a1e c13d ca8a 72bd f2b4 763d
00000370: f59f 82bc 23cf b9bd cf80 ad3d 54ab 933c
00000380: 68e6 ebbd bbc9 99bc 13e4 27be 1340 3c3d
00000390: 9476 82bc acd7 60bd ddb6 2c3e 9a9a 2dbe
000003a0: 3fad 32bd 6638 f53c e9c9 313d 21d0 183d
000003b0: 8354 d6bd 283f 263d 8ca3 a6bd f68d 8cbe
000003c0: 615c 393d e66e 3ebe 410b 44be c185 a6bd
000003d0: 9da3 e2bc 8d89 3f3d 1529 83bd 6c9d 283d
000003e0: b20b 003e 451b e2bc c69a f43d 58ca 0b3d
000003f0: 8a88 373c 0841 003c ac18 513d 85db 52be
-0.031542625 -0.036627162 -0.042661373 -0.08237116 -0.06417815 -0.11847588 0.012526994 0.0018882548
-0.028045759 0.0050730803 0.027448406 0.12339077 -0.19569817 -0.07833297 -0.010603653 -0.12510955
-0.09381594 -0.044011362 -0.10507033 0.04666048 0.01591322 -0.1078219 -0.106521316 -0.23693882
-0.0009623369 0.006388698 0.014102633 -0.0071069994 -0.06945612 0.0010336092 -0.018245656 -0.03493807
-0.0017404802 -0.27182102 -0.17227612 -0.1453482 0.14952837 -0.01025033 0.049821224 0.063647665
0.08731792 0.103352614 -0.09164438 -0.06302216 -0.07765214 0.01161242 -0.10709598 -0.085432515
0.07491193 0.13828018 0.021151586 -0.13368888 0.030272027 -0.07590142 0.08918276 -0.015722752
-0.017123584 -0.012917687 0.1250978 0.12607527 -0.094928585 -0.07000644 0.02725699 -0.007752878
-0.055494346 -0.04145659 0.049585707 0.09556124 0.043711554 -0.14979586 -0.033240452 -0.11200617
-0.038135186 -0.020884153 -0.048056703 0.10009578 0.033382837 -0.048660215 0.08720678 0.07846799
0.0041722413 -0.015913818 -0.033772238 0.0023002422 -0.1650885 -0.13921833 -4.763575e-06 -0.030596377
-0.25368848 -0.21855837 -0.032018676 -0.16008195 -0.06259262 0.06225173 0.09992349 -0.0051258225
0.058403026 -0.0036578926 -0.076534994 0.035432875 0.06874897 0.0686308 -0.14772694 -0.083343275
0.02236133 -0.15569466 -0.10768209 0.028199628 -0.06646059 -0.058702253 -0.090635955 -0.043331426
-0.037350714 0.07713642 -0.17619874 -0.12932977 -0.046301316 -0.105061874 -0.20173967 -0.13270302
0.05233522 0.029512921 0.00065107754 0.04563522 0.111307375 0.0568631 0.10944989 0.13230206
-0.09117529 -0.17699955 -0.040998254 -0.082885146 -0.067879304 -0.03604461 -0.17321075 0.09059583
0.05171315 0.07960934 -0.11097317 -0.12934971 -0.15798327 0.0057435776 -0.13370669 -0.15495071
0.22287574 -0.044718187 -0.054781716 0.11766404 -0.16539787 0.0938786 -0.005115505 -0.011068821
0.1245896 -0.07591849 -0.049176615 0.11505743 0.024870196 0.09464633 -0.04926949 0.011571943
0.05892917 -0.030881895 -0.008797929 -0.07716238 0.07027138 -0.0010455672 -0.019858181 0.0064222175
-0.006594508 0.087719984 -0.024623914 -0.08249288 0.015063617 0.11801158 -0.13219506 0.10068821
0.11015857 -0.036799673 0.096794404 0.11799543 -0.09396806 -0.14093615 -0.090769954 -0.26613232
-0.23797223 -0.12311578 -0.30244404 -0.24203718 -0.123394184 0.0027295612 -0.05401736 -0.047309596
0.09643967 -0.18321128 -0.12771574 -0.033845082 -0.13938472 -0.06766818 -0.093862586 -0.029739985
-0.08629944 -0.073723145 -0.23505433 -0.14789493 -0.22067806 -0.3571729 -0.058744464 0.005785976
-0.13656586 -0.0455366 -0.22872417 0.036389213 0.02924778 -0.18298359 0.1662662 0.16030823
0.03810548 0.09429605 -0.05921439 0.060231157 -0.015945414 -0.09072711 0.08471834 0.018026032
-0.11518556 -0.01877295 -0.16395597 0.045959543 -0.015925683 -0.05489318 0.16866632 -0.16953507
-0.04362225 0.02993412 0.043405447 0.037307862 -0.10465338 0.040587574 -0.08136663 -0.27452058
0.045254115 -0.18596992 -0.19144918 -0.0813098 -0.027665908 0.046762038 -0.0640432 0.041165754
0.12504461 -0.027600894 0.11943583 0.034128517 0.011201987 0.007828005 0.05104892 -0.20591553

conv2.bias f4 [32]
00000000: 300a c8bd 84a9 623d 73f7 f13c a238 823c
00000010: a848 f33c 4495 643d 5fc6 babc 8e8d 80bb
00000020: cf8c 763d 12fa 01be 8e49 1d3d 6df1 f43b
00000030: 326c a1bd a8de 44bd 2348 123d 8855 04be
00000040: 3fa9 0cbb 456f d4bc dba5 8e3d b47d 5e3c
00000050: f830 9fbc 2f34 c8bc 20c7 23bc 51b9 973c
00000060: 7deb 46bd 7bab 9b3d 0ae4 ecbc 3751 c9bc
00000070: dc2b 1f3d 3d51 afbd d151 f43c ff29 4c3d
-0.09767568 0.055337444 0.029536938 0.015896145 0.029697731 0.055806413 -0.022799669 -0.0039231246
0.06019288 -0.1269305 0.038400225 0.0074750693 -0.07881965 -0.048063904 0.035713326 -0.12923253
-0.0021463183 -0.025931964 0.06965228 0.013579775 -0.01943253 -0.024438946 -0.009996206 0.018520983
-0.048564423 0.07601067 -0.028917331 -0.024574859 0.038860187 -0.08560417 0.02982417 0.049844738

fc1.weight f4 [120, 800]
00000000: 4658 883c a524 60bb b10b fdba 9066 67bc
00000010: c985 dbbb c290 a7bc ff02 083c 5a76 bcbc
00000020: b1cb 91bc c54f 83bb 4d59 64bc 3574 1abd
00000030: 8f8d 8dbd 731e 89bd c707 2ebc 8f7d 853c
00000040: b2ba b63c 1008 4dbb 3211 a03c 9bd4 ad3c
00000050: ab42 5a3b 9853 22bd e9f9 29bb 7fd8 b1bc
00000060: 0cd3 ca3b 8103 c43a 5965 1cbc a0f1 923c
00000070: 8cdf 1a3b 3bc8 73bc 3b88 08bd c0ca 5fbb
00000080: 81a6 a13b e891 8cbc 24ca 9b3c 933e b0bc
00000090: f76f f2bc 20fe 413c 5c75 0abd c1fe cd3c
000000a0: 0f5a 9ebc fe75 a13c 70bb 813c 0d11 343b
000000b0: db00 2a3c dd03 eebc aca3 c13c 2fec b5bb
000000c0: 7ee5 a13b 117a cebc 938a 873c d0c4 8bbb
000000d0: 6fb8 af3b a5dd 2dbc 1dbb 323c 7059 67bc
000000e0: 14c4 a53b 414e 1fbc f941 053c 583d cebb
000000f0: 3630 0ebd 3ea9 3bbd ddb4 273c d3bf 95bb
00000100: 90a9 573c 6d68 8d3c d240 163c 069d a8bc
00000110: 10cb 17bd 5546 b93c 348c c43c 7478 be3c
00000120: 520a 433c c499 003d a198 643c f8df b8bc
00000130: 1e76 11bd a6d4 13bd 6330 42bd c670 8bbb
00000140: 0224 d13c 8e2e fabc a29c 0e3c 8a99 4a3a
00000150: e108 a43c 70b1 693c 9b85 c53b 6b1b 3fbc
00000160: 66b9 38bc fdf7 35bd 8cb9 92bb ff30 20bd
00000170: 60db 313c 42fd 04bd 4af7 0abd 1862 033c
00000180: 171f e93b c455 14bd 5fb7 36bd 18ae 0ebd
00000190: 7649 6fbc 3001 05bd 5df7 19bd cc17 debb
000001a0: 0708 a1bc 8f12 2fbd 6635 ee39 6767 7ebc
000001b0: 8ccc 523c fac2 0ebd 7ba8 3ebc 9cf6 a03c
000001c0: a6c1 c63c 9cd7 afbc 13e7 d23c 1c91 2ebd
000001d0: f52f 8f3c 7e6c a13a 20b0 e1bc c3bf 6b3b
000001e0: a5c7 c0bc 90a3 98bc 8c0d 20bd 65c0 a0bc
000001f0: 87d1 b53c e848 56bc 2caa bd3c 0406 cabc
00000200: 9b3e e9bc 1019 31bd 958b 70bc a65d 333b
00000210: 0451 073d c81b e83b 7f7b 84ba 6119 09bd
00000220: ec2d aabc 7c4a 32bb 0792 abbc 26aa 85bc
00000230: 775f 07bd 47e6 dcbc d778 88bb b922 acbc
00000240: b137 8dbc 5f60 493c 2346 ad3c e327 d5bc
00000250: d382 3b3c 2740 16bc 09da c5bc 099c 853c
00000260: ad0f 0e3c 513e 803c 0608 e23c e486 1fbd
00000270: 6416 91bc a417 90bb 589d 60bc cde1 14bb
00000280: cc59 493c 3ce2 12bd f9e1 ad3c 2113 d0bc
00000290: ea6d 633c b3b1 bebc ea22 1cbd 92a4 7cbc
000002a0: 90d8 0cbd 50f7 9bbc 7a61 573c 985a 82bc
000002b0: 2106 b33c 513f 15bd 814d eabb 7de2 a1bb
000002c0: ee5c f73b 9386 a4bc b037 33bc d209 86bc
000002d0: 0452 9d3c 2178 c238 a8e3 833c 8ed1 cc3c
000002e0: 5f84 b13c 6f90 1c3c 1de6 dfbb e793 5bbd
000002f0: c8a3 bd3b c5f2 04bd 383f c93c 44ac 773c
00000300: 98de 08bd b8c0 e7bc 17e9 d4bc fe01 a4bb
00000310: 3b36 d9bc 6536 c3bc 4293 dc3c 239c bcbc
00000320: 6ecb 9d3c d13a 9dbb 9805 1fba 374b 4c3b
00000330: 63a5 cc3c 3f62 b1bc d575 893c bb9e 1dbd
00000340: 8533 bfbc 3660 2bbb 4d5d bf3c 1192 9fbb
00000350: 9ba3 94bc d6d9 0dbc 9123 2fbc 6cf6 8d3c
00000360: d2bc eebc f76d 96bc ce94 1438 b518 8c3c
00000370: 31e5 4d3c 8c38 43bd 00db deba a4ad 0bbd
00000380: ca46 963c 03f8 a73c fe07 06bd f5f0 adbc
00000390: 45d5 cebb a985 29bd f330 34bd ab53 a7bc
000003a0: 0674 40bc bb07 fdbc db97 34bd b63c 18bd
000003b0: 9f6e 87bd fd00 b23c 554d fabc c783 1abd
000003c0: ad58 86bc c3f0 cb3b 8bfd 5bbc 1ee1 58bd
000003d0: f5cc 81bc 832d aa3c dedf 02bd 3c5c a4bc
000003e0: 4219 1abd 6108 eebc fd3c 883c 60f1 3dbb
000003f0: 22ed 67bd 42ef a3bc 688c ddbb 6b00 743c
0.016643655 -0.003420153 -0.0019305852 -0.014123574 -0.006699298 -0.020454768 0.008301496 -0.023005653
-0.017797323 -0.004007312 -0.013937307 -0.03770848 -0.06911766 -0.06695261 -0.010621971 0.016295223
0.02230582 -0.0031285323 0.01953945 0.021219542 0.0033303897 -0.039630502 -0.0025936312 -0.021709679
0.0061897095 0.0014954658 -0.009545648 0.017937481 0.002363178 -0.014879282 -0.033333044 -0.0034147948
0.004933179 -0.017159417 0.019017287 -0.021514213 -0.029594405 0.011840373 -0.03380333 0.02514589
-0.019330053 0.019709583 0.015836447 0.0027475983 0.0103761805 -0.029054577 0.023637615 -0.005551837
0.0049406877 -0.02520469 0.01654557 -0.0042654052 0.0053625624 -0.010611926 0.010908869 -0.014120445
0.0050587747 -0.009723247 0.008133405 -0.006293934 -0.034713946 -0.0458157 0.010235992 -0.0045699864
0.013162985 0.017261708 0.009170728 -0.020582687 -0.03705889 0.022616545 0.023992635 0.023250796
0.011904316 0.031396642 0.013952405 -0.022567734 -0.035513036 -0.03609147 -0.047409426 -0.004255387
0.025529865 -0.030539777 0.008704336 0.00077285676 0.020023765 0.014263496 0.00602789 -0.011664252
-0.011274671 -0.044425953 -0.0044776853 -0.039109226 0.010855526 -0.032468088 -0.03392724 0.008018993
0.007114302 -0.036214605 -0.04460847 -0.034833997 -0.014604917 -0.032471836 -0.03758942 -0.006777739
-0.019657148 -0.04274231 0.00045434682 -0.015527583 0.012866151 -0.034853913 -0.011636849 0.019648843
0.02426226 -0.021465115 0.02574495 -0.042618856 0.017478922 0.0012315658 -0.027549803 0.0035972453
-0.023532698 -0.01863268 -0.03907542 -0.01962299 0.022194637 -0.013078906 0.023152433 -0.024661072
-0.028472235 -0.043236792 -0.014681716 0.0027369051 0.033036247 0.00708339 -0.0010107605 -0.03347147
-0.02077385 -0.002720504 -0.020943655 -0.016316485 -0.033050027 -0.026965274 -0.004164796 -0.02101265
-0.01723847 0.012291043 0.021151608 -0.026019996 0.011444765 -0.009170569 -0.024151819 0.016309755
0.00867073 0.015654715 0.027591716 -0.038947 -0.017710872 -0.0043973494 -0.013709389 -0.0022717596
0.012289476 -0.035860285 0.021225916 -0.025399746 0.013881186 -0.023278093 -0.038119234 -0.015420096
-0.034386218 -0.019038826 0.013145799 -0.01591234 0.021853508 -0.036437336 -0.0071503525 -0.0049403296
0.00754892 -0.020083701 -0.01093857 -0.016362105 0.019204147 9.2730166e-05 0.016099766 0.025002267
0.021669565 0.00955592 -0.0068328516 -0.053607848 0.0057873465 -0.032458086 0.024566278 0.015116755
-0.033415407 -0.028290138 -0.025990052 -0.0050051203 -0.026515117 -0.023829648 0.026925687 -0.02302367
0.019262042 -0.004798271 -0.0006066202 0.0031172761 0.024981206 -0.021653293 0.01677982 -0.038481455
-0.023339996 -0.0026149875 0.023359919 -0.0048697074 -0.01814442 -0.008657893 -0.010689632 0.017329417
-0.02914277 -0.018362982 3.5424535e-05 0.017101625 0.0125668505 -0.04766135 -0.0017002523 -0.034101143
0.018344302 0.020504003 -0.032722466 -0.021233061 -0.006312045 -0.041387234 -0.043991994 -0.020425638
-0.011746412 -0.030887475 -0.044090133 -0.037167273 -0.06612896 0.021728987 -0.030554453 -0.03772333
-0.016399706 0.0062237694 -0.013427149 -0.052949063 -0.015844801 0.020773655 -0.031951778 -0.020063512
-0.037621744 -0.02905673 0.016630644 -0.0028982982 -0.05662263 -0.020011548 -0.0067611225 0.014892678

fc1.bias f4 [120]
00000000: 2561 82bc d8f7 0bbd 158c aebc afa5 023d
00000010: 9114 ff3c 92eb 20bd d98e 2abc 1d16 bebc
00000020: 7ac7 483c d59a a7bc 6257 18bc ab9e 193c
00000030: 5239 9e3d 5f92 66bb fadc 68bd af4a a7bc
00000040: 9b5d c23c 03b4 5bbc 87f5 173a a9a1 203c
00000050: 5d60 1dbd f84c 1fbd 8ad8 2b3c 2af9 81bc
00000060: 8279 0cbd 9c02 f23b 8daf 1ebd a209 a1bc
00000070: 56df e8bb 4916 c83c 1d3a 5fbd 1d87 5dbc
00000080: 32eb b43c 4347 403c 2370 acbc ea6e 0bbd
00000090: 76e6 17bc 37e6 84bd 6f00 b73c 4309 243c
000000a0: 6a52 393b d2cf 273d 20a6 d03c 677e fcbb
000000b0: b101 1dbd 32f8 b5bc 6aff 36bd 45c9 d8bc
000000c0: aa3a cebb de83 b2bb 4ce6 c8bd e056 d336
000000d0: b0ee 89bd 36ba 31bd bf5f 83bb e394 4ebd
000000e0: d6e4 80bd 5bab 10bc d7d3 92bc bc11 cbbc
000000f0: 0c5c 963b 5af4 6abc 89aa 6c3b 98ef 8a3c
00000100: 7197 c83d 908a 8abc 2fd0 c9ba 1a7b 66bc
00000110: 73fe 493d ab00 81bd 9202 26bd 3a62 cf3a
00000120: a00e c6bc 61cf b2bc e356 193d f2ed 0d3c
00000130: 412d e4bd 1391 d1bc 0bb8 50bc 343d d2bc
00000140: 4e98 1dbd 98b4 c4bc 6d9f 6a3c 30af bc3c
00000150: 66f1 b83c 0697 813d afea 83bd a6fe ca3c
00000160: 42e1 74bd 8793 8f3d 0850 8bbc ff0a d1bd
00000170: ae18 84bc 45ce 283c 53e5 51bc d1c0 303b
00000180: ada3 be3a 2d1e 78bc 471b e2bc eccd 813c
00000190: bb1d c4bb 0b0a 3a3c f6bc 84bc 1148 74bd
000001a0: 5761 203d c98f dc3c 6a60 0cbd 4189 c13c
000001b0: 904d 17bd fb99 c63c f5e8 b1bc 3ecc 973c
000001c0: c3a7 803c 8b27 263d 0eef 11bd b146 c03b
000001d0: 9bfa 1c3d d370 83bc af88 173d 23c3 1abd
-0.015915463 -0.03417191 -0.02130703 0.03189629 0.031137737 -0.039287157 -0.010410034 -0.023203904
0.01225459 -0.020459572 -0.009298177 0.009376208 0.07725777 -0.0035182459 -0.056851365 -0.020421354
0.023726275 -0.013409617 0.00057967793 0.009804168 -0.038421977 -0.038891762 0.010488639 -0.015865881
-0.034295566 0.007385565 -0.038741637 -0.019657914 -0.007106702 0.024424689 -0.05449878 -0.013520983
0.022084806 0.01173574 -0.021049565 -0.034041323 -0.009271255 -0.064892225 0.022339074 0.010011974
0.0028277882 0.040969677 0.02546984 -0.007705498 -0.03833169 -0.022213075 -0.044677176 -0.02646316
-0.0062936144 -0.0054478487 -0.09809551 6.2984036e-06 -0.06734979 -0.043390475 -0.0040092166 -0.05043496
-0.06293647 -0.008829917 -0.017923279 -0.02478873 0.0045886096 -0.0143404845 0.003611239 0.01695995
0.0979451 -0.016911775 -0.0015397127 -0.014067436 0.049314927 -0.062989555 -0.040529795 0.001582212
-0.024176896 -0.021827402 0.037436377 0.008662688 -0.11141444 -0.025581872 -0.012739192 -0.02566395
-0.038475327 -0.024011895 0.014320237 0.023032755 0.022576045 0.063276336 -0.06441247 0.024779629
-0.059785135 0.070105605 -0.017005935 -0.102071755 -0.01612505 0.010303085 -0.012811023 0.0026970396
0.0014544629 -0.015143913 -0.027600897 0.015845262 -0.0059849895 0.0113549335 -0.016203385 -0.05963904
0.03915533 0.02692403 -0.034271635 0.023625018 -0.036939204 0.024243345 -0.021717528 0.018530007
0.015704995 0.040565055 -0.03562837 0.005867802 0.038324933 -0.01604501 0.036995586 -0.037783753

fc2.weight f4 [84, 120]
00000000: 4603 51bd 7893 20ba 1d30 73bd afd1 f73d
00000010: 6d58 adbd 7066 5f3d b417 813d 574b 0e3b
00000020: aae3 8bbc 23e7 2b3d 9470 8c3d 6fe7 8bbd
00000030: 9d8a b83c 8876 8b3d 2b80 26bd 7e41 06bd
00000040: cec5 1bbd d984 183e c4c0 c7bd b43a 35bd
00000050: 8d57 393d 74c2 c4bd 09d1 c13d c831 113c
00000060: f53d 9fbc b8bf 97bd 395f 8b3d 7479 57bd
00000070: a296 89bd e690 2dbd 9155 a8bd 43b1 42bd
00000080: b341 12be 3e85 3cbd d617 1c3a f1a9 0f3e
00000090: 1a25 9bbd 2e27 03bd 79c5 3abe 4435 d33d
000000a0: 16e3 313c a8df 29be 52fe 9cbd 0f3e f93d
000000b0: 63dd f43a 83f6 febb d969 623c 7f46 babc
000000c0: de2b cfbb ebce 1c3d 9744 263b 778a 053e
000000d0: 6bcf f7bd fcc0 1e3e 701b c1bd 2ded 873d
000000e0: 8d71 7c3d b005 bfbd bf35 11bd dd40 9cbc
000000f0: e59d 17bd 1b28 4fbd a171 11bd a526 0b3e
00000100: 69a7 a9bd c965 063e 35b7 b8bd b98b a23d
00000110: 5772 8dbd 62a3 073d 022e 32bb 5e28 003d
00000120: daf6 1e3c 0594 a73c 25e7 6abd ab20 923d
00000130: 10be 633d 0f62 53bd 6f4d f03d 57b8 9abc
00000140: 202c 733d ec25 d63b 3a3e ed3d 1bd7 fc3c
00000150: 6e70 20be 8e80 f7bd 9ffe 433d 9144 15bd
00000160: c989 8dbd 8a3f cbbd b57d 36bd dac7 4a3e
00000170: 628a 6a3d bc21 b83d 8512 043d 7331 2ebd
00000180: f6ed eabc 12c0 c1bd f465 8e3d a1c0 b7bd
00000190: ffa6 b73c 4651 be3d 9b65 9b3d c469 d63c
000001a0: face 6e3d dd83 f5bd 85d6 e73d 05a8 96bd
000001b0: 42fe 8a3c 2579 08be a4e7 b43b bd50 93bd
000001c0: 65bf bfbd dbe3 a83d ea31 703c a309 853d
000001d0: c83c 863d 95dd b43d 870a 5cbe a670 d73d
000001e0: 0777 85bd 475b 79bd 7430 223d 3b90 d13c
000001f0: 8324 803e 141d 88bd 3c4b e1bb fd9d bb3d
00000200: 69af 9abd 2e4e 10bd b661 e73b c6dd 9fbd
00000210: aec0 b2bd 6208 1a3d fbee bcbd 6d06 eb3c
00000220: 547c 56ba af03 09be 9d6b 0e3d 1c22 17bc
00000230: 8dfb 233e c2ae d73d e17f ec3d facb 51bc
00000240: 564d c5bd f254 57bd 41ba 16bc a863 b83d
00000250: 7a66 9b3d 2850 93bd 7d93 50bb 26d1 c13d
00000260: 5605 253e 79b5 9f3c 1dfb 1a3d 75ac ffbd
00000270: 29ca a5bd 4a3b 5f3d 5c66 233e f49a 62bd
00000280: ba4f 3c3d 565c 0a3d 7bf8 473e 7212 c6bd
00000290: b62f 66bd 90e9 ad3d 469d 4e3b ab96 afbd
000002a0: 009d 553d b1c4 073e 6c37 c3bd 6eb3 c9bd
000002b0: ff92 8d3d 36ab 36bd 4cad 83bd 7d77 a93d
000002c0: 708a a3bc 2419 d5bd 3350 343e 2b67 793d
000002d0: 0f08 e7bd 42be 743d e8d8 f6bd ae1c 09be
000002e0: 285c e13d d533 2a3d 4c5b ba3c 4ec3 ad3d
000002f0: 040f 203d 37c8 5d3d f46c 75bc e60b 833d
00000300: 1eb0 e1bc 9025 c1bc 738f ac3d e79b bcbb
00000310: 8671 6dbd c94d 76bd 5a76 253c 30f4 d53c
00000320: 2349 9b3c f32b 4b39 1ee5 753d 7134 10bd
00000330: 5018 2e3e 51e8 b93d 07b3 da3c 9779 8a3d
00000340: 26d5 8b3d 1f85 af3d 415d 5d3e fa23 dbbd
00000350: 78d6 95bd fbc6 333c 9b77 343d e6be aa3d
00000360: 23b8 ae3d b3e4 133e 4af6 7bbd e221 713c
00000370: 07c6 34be d5c6 da3b d3b2 d2bd 6503 81bd
00000380: e376 353e c1eb 8c3d f736 2bbe 74ed 8c3d
00000390: b9ee 8b3d 0ebf 1e3e 31e7 333e 8567 2f3d
000003a0: efa7 b13d e396 39bc d92b b43d cb9b 24bd
000003b0: 25e4 343c d9dc 353d ea8e 2f3e 7bb8 79bd
000003c0: 9657 383d 7073 ddbc 4e11 6fbd 7019 1f3d
000003d0: f047 bd3d 73cf 823d dbff a33d 6f24 a13d
000003e0: 72cd 0abc f61b 193d 593e ea3c 6fb0 643d
000003f0: cc1d bc3a 18c1 bdbb b734 ae3d 8e4b d33d
-0.051028512 -0.000612549 -0.059372056 0.12100541 -0.084641315 0.05454105 0.06303349 0.0021712387
-0.017076332 0.041968476 0.0685741 -0.06831252 0.022527033 0.068097174 -0.040649574 -0.032777302
-0.038030438 0.14894427 -0.09753564 -0.044245437 0.04524951 -0.096074015 0.094636984 0.008861966
-0.019438723 -0.07409614 0.06805272 -0.05260606 -0.06718184 -0.042374514 -0.082194455 -0.04753233
-0.14282875 -0.046025507 0.00059544796 0.14029671 -0.07575436 -0.032019787 -0.18239392 0.10312894
0.010857364 -0.16589224 -0.07665695 0.1217004 0.0018681701 -0.0077808513 0.013819181 -0.022738693
-0.006322368 0.03828327 0.0025370473 0.13041101 -0.12100109 0.15503305 -0.094290614 0.066370346
0.061631728 -0.09327257 -0.035451647 -0.019073898 -0.037015814 -0.050575357 -0.035508756 0.1358896
-0.08283884 0.13124765 -0.09019319 0.07936806 -0.06906574 0.0331148 -0.0027188067 0.031288497
0.009702409 0.020456323 -0.057349343 0.07135137 0.05560118 -0.051607188 0.11733519 -0.018886728
0.059368253 0.0065352824 0.115841344 0.030864289 -0.15667889 -0.12085067 0.047850247 -0.036442343
-0.06911046 -0.099242285 -0.044553477 0.198028 0.05726088 0.08990809 0.032244224 -0.042527627
-0.028677922 -0.09460463 0.0695304 -0.08972288 0.022418497 0.092928454 0.07587739 0.02617348
0.058302857 -0.119880415 0.11320213 -0.07356266 0.016966943 -0.13327463 0.005520778 -0.07193134
-0.093626775 0.08246585 0.014660338 0.06495979 0.06554562 0.08831326 -0.21488391 0.10519533
-0.06516843 -0.060878064 0.03959699 0.02558147 0.25027856 -0.06646171 -0.0068754237 0.09160993
-0.07552988 -0.035230808 0.0070612086 -0.07805972 -0.08728157 0.03760565 -0.092252694 0.028689587
-0.00081819785 -0.13380311 0.034770597 -0.009224441 0.16013928 0.10531379 0.115478285 -0.012804979
-0.09633891 -0.052571245 -0.00919968 0.09003383 0.07587905 -0.07193023 -0.003182619 0.0946372
0.16115317 0.019495713 0.037837137 -0.124840654 -0.080951996 0.0544999 0.15957016 -0.055323556
0.04597447 0.033779465 0.19528382 -0.09671487 -0.056197844 0.08491814 0.0031526848 -0.085736595
0.05215168 0.13258626 -0.09532055 -0.098486766 0.06912803 -0.044596873 -0.06429538 0.08274744
-0.019963473 -0.10405186 0.17608719 0.060889404 -0.11280834 0.059751756 -0.1205309 -0.13389847
0.110039055 0.041553337 0.022748612 0.08484517 0.03907682 0.054146018 -0.01497959 0.06398754
-0.0275498 -0.023577482 0.08425798 -0.0057558897 -0.057969593 -0.060132775 0.010099018 0.026117414
0.018955773 0.00019375961 0.060032956 -0.035206262 0.17001462 0.09077514 0.026696695 0.06761473
0.06827764 0.08570313 0.21617605 -0.10700221 -0.07316297 0.010972734 0.044059377 0.08337192
0.08531215 0.1444271 -0.061514176 0.014717551 -0.17653666 0.0066765347 -0.10288014 -0.062994756
0.17721133 0.06880904 -0.16720186 0.06881228 0.06832642 0.15502569 0.17568661 0.042823333
0.08674609 -0.011327478 0.08797426 -0.04018764 0.011040722 0.04440007 0.17144361 -0.06096695
0.045005403 -0.027032584 -0.058366112 0.03884262 0.092422366 0.06387224 0.08007785 0.07868277
-0.008471834 0.03738018 0.028594183 0.055832323 0.0014352142 -0.005790841 0.08506148 0.10317145

fc2.bias f4 [84]
00000000: cbf7 1e3d 43a5 803d b063 c0bd ba20 d1bd
00000010: a64b e9bc e36a 863d 41e6 08bb 3bd7 99bd
00000020: a6f0 853d d02a b93c 74e6 37bd e3ee 9cbc
00000030: 7154 923c b671 6f3c 6a8b ea3d 12fe 683d
00000040: e415 33bd 2feb c4bd d56d 40bc 4b82 95bd
00000050: cb50 273d 14e8 f03c ffac a1bd d46a ac3d
00000060: fda5 3cbd 0957 83bd 4594 bdbd f0b9 0ebe
00000070: 8609 5bbc 6c6f c5bb 982f 233e 1bfb d33d
00000080: c267 84bd 5118 95bd 776f ac3d 7cf2 163a
00000090: 1402 e0bd c843 923d f01d b0bd db1d 08be
000000a0: feef 933b 4e00 0a3d e4d6 bb3d cc75 343d
000000b0: 72c3 a3bc 2495 3fbd a2fb 5abd c21d 673d
000000c0: d504 90bd 839d 8c3c c1b4 d1bd 7628 12bd
000000d0: 0db5 8fbd 19b9 00bd e008 c33d fef5 933c
000000e0: b0e6 3b3d 1c25 62bd 5ad6 413d e751 93bd
000000f0: 4314 2d3d 8b3a 063d e98f cebd 21d5 033e
00000100: b833 8cbd a5e5 c43d a442 cbbd aaae 0cbe
00000110: adcf 27bd 7612 9b3c 2361 bc3d a026 a33c
00000120: ac81 583d e9a5 8bbd b218 00bc 7660 ec3d
00000130: 79fa 693b 6497 b0bd 6fb0 e0bd 60e0 18be
00000140: 0cda f6bd 243d 30bb e3f7 a3bd 9363 dcbd
0.038810533 0.06281521 -0.09394014 -0.1021132 -0.028478455 0.06563356 -0.0020889195 -0.07511755
0.06540041 0.022603422 -0.04489751 -0.019156879 0.01786253 0.014614513 0.11452372 0.056882925
-0.04372205 -0.0961517 -0.011744936 -0.07300242 0.040848535 0.029407538 -0.078943245 0.08418813
-0.046056736 -0.06413085 -0.09256796 -0.13938117 -0.01336897 -0.0060252454 0.15936124 0.10350629
-0.06465103 -0.072800286 0.08419698 0.0005758179 -0.10937896 0.071418345 -0.0859946 -0.13292639
0.0045146933 0.033691697 0.091718465 0.044057652 -0.019990657 -0.04677309 -0.053462632 0.056424864
-0.07032172 0.017164951 -0.10239554 -0.035683118 -0.070169546 -0.031426523 0.09523177 0.018061634
0.045874298 -0.05521117 0.047323562 -0.07193356 0.04225565 0.032770675 -0.100860424 0.12874271
-0.06845802 0.09614114 -0.0992482 -0.13738504 -0.04096954 0.018929701 0.09198215 0.019915879
0.05285804 -0.06818754 -0.007818388 0.11541836 0.0035702272 -0.086226255 -0.10971152 -0.14929342
-0.12053308 -0.0026891911 -0.08006265 -0.1076118

fc3.weight f4 [10, 84]
00000000: c32e b2bd 080c 43ba f7ba c23d ee19 04bc
00000010: 5b42 063e 8106 b13d 9e5a 923d 461c 03bc
00000020: cbb9 ed3d cfc5 0fbe 8c9c a6be 77d5 11be
00000030: 52b5 543d 071f 93bd d6a9 1bbe 0692 a0bd
00000040: 871b 93bc ed52 0cbe e40e 32bd dec8 82be
00000050: faab a73c 7137 1fbe 4b15 9e3d 4074 0f3d
00000060: 5040 9ebe 125e 12bd 327a 8fbd d44f 9e3d
00000070: c686 033e eff6 bfbd 338c 733c b268 6ebe
00000080: f835 55bd 2ddd 893d 940d 9e3d a157 20be
00000090: adeb 8abc 68c3 ea3d df8c 24bd b939 6b3d
000000a0: 7574 bfbc a430 42bd 1f82 27be 0d33 e3bd
000000b0: 12ea 95be 72ed 98bd 980b cebd 7299 04be
000000c0: deee 083e 786c 89bd 991a 573d e779 71be
000000d0: 5f04 1ebc fdfb 8b3d 92f3 17be aabf 893c
000000e0: b988 c8bd 9fde 98bd b80b f0bd 7a23 1cbe
000000f0: 722a eebd e7f3 a0bd cd64 a0bd fb93 20be
00000100: 2e89 b9bd 15b5 dc3d 7f8f 78bd 81d6 b9bd
00000110: 4993 963d 12d6 f53d 6bde 58be e9bb 14be
00000120: c650 c4bd 66d6 b1bd 5cfb 853d 5772 2bbd
00000130: 916a 85bd fc3f b33c 864d 3e3d 05f7 c8bc
00000140: 7ec1 d2bd 2e03 3dbd dddc 9cbd 012b 4f3d
00000150: 96db 68be 1b2e ff3d 911d f4bd 73b3 8ebd
00000160: fa65 f8bd 656f 2a3e 6b45 c43c fbc8 cdbd
00000170: 10b2 0f3e 74d4 43bd 50b1 23be 1836 cf3d
00000180: bdf1 21be 935a d03d fab0 c5bd f99a bdbd
00000190: bad7 bcbd 4a13 d9bd 13b5 e3bd c7e6 54be
000001a0: 9546 52bd b4e0 ffbd 3724 943d ea1b 2e3e
000001b0: 422a 1ebe 8848 e7bd 0041 84ba 7b87 4ebe
000001c0: 9b71 24bd cf89 133e 6388 c5bd 8afb 64be
000001d0: 7146 35be 4b22 5cbe 9da2 cc3d cc2b 3cbe
000001e0: 986f c2bd dab6 2cbe 833f 583c d3ac d5bd
000001f0: 1517 4ebc a715 12be 343e bc3b 8a76 d6bc
00000200: 29ff 643d 72c1 f6bd 61c1 57bb 9cc3 083d
00000210: 0301 37bc 41c3 d4bd 7af0 4c3d 99a6 62bd
00000220: 077d 093d d52a 18be 1cc5 adbd 4ddd 213d
00000230: 2327 cc3c f088 e73c 9a4c d63d 94c8 eb3d
00000240: 5cd7 a8bd d690 0d3d 9f07 9e3d c7c6 df3c
00000250: 29eb 8cbd cbd8 f3bd 2396 e7bd f0b9 44bd
00000260: 9b52 11be 459f 58be 0588 c03d 4932 4bbd
00000270: 2b98 b0bd 8ca5 52bd 9a48 6bbd a972 983d
00000280: f941 82be 8858 733c 46ef 5abe e188 3b3d
00000290: ee85 693d 11f0 28be fbff 593c d524 a8bd
000002a0: f8df 2dbd e898 923d dd41 e53d 0ba1 c3bd
000002b0: 0bc5 7b3d 3056 4cbc dedd 4dbd 6a80 873d
000002c0: 14d4 0ebe 6a76 bfbb bfc3 7cbd 2c7c b83d
000002d0: ad04 18be 889d bfbd 0810 dbbd b01c 03bd
000002e0: ab19 71be 195e 3b3d cf43 1fbe a48f 1cbe
000002f0: fe34 f6bd 23cb 403d 7745 55bd e6d4 37bd
00000300: b009 3dbe f9d3 a8bd aa41 58bc 988b 03be
00000310: b4e2 353c e2b7 09bc 59f6 653d b002 d3bd
00000320: ba42 9d3b e538 09be 54cc d3bc 1055 85bd
00000330: d184 12bd 744c 8ebd ce2d fa3b 9c65 d9bd
00000340: 89d5 8d3d d824 0d3c 5f15 d5bd 3456 70bc
00000350: 43a8 293d b313 d4bd c405 cd3c 078b b5bd
00000360: c87f bb3d ff2b 0a3e 2b3a 93bd 23a9 dabd
00000370: 8170 64bd 481f 833d cc65 673c f5a1 8b3d
00000380: 5c38 d4bd 9d41 94bd 3010 9d3b 24e9 d7bd
00000390: 5b2b b03d 32fc a73d 558d f43d 4207 ed3d
000003a0: e8f7 0cbe d8a8 b9bd 13b5 abbd 3f97 cebd
000003b0: 8150 19be 470f 0cbe e7e0 7fbd db97 9bbd
000003c0: 1602 b33b bdf1 c8bc efbe 1cbe 2574 db3d
000003d0: d619 adbd bbec 9ebc d4ce debc c302 23be
000003e0: c460 3e3d 65b2 3e3d 91e2 e23a 2528 d63c
000003f0: a0a3 c8bd 8d2d bdbc 47b4 26be bd95 4a3d
-0.08700325 -0.00074404525 0.09508317 -0.008062823 0.1311125 0.08643819 0.0714619 -0.008002346
0.11607703 -0.14040302 -0.3254131 -0.14241587 0.051930733 -0.07183652 -0.15201506 -0.07840352
-0.017957462 -0.13703509 -0.043471232 -0.25543875 0.020467747 -0.15548493 0.07718905 0.035022974
-0.30908442 -0.035734244 -0.07005729 0.0773007 0.1284438 -0.09373271 0.014864969 -0.23282126
-0.05205342 0.06731639 0.077174336 -0.15658428 -0.016958082 0.11463052 -0.040173408 0.057428095
-0.02337096 -0.04740967 -0.16358231 -0.110937215 -0.29280144 -0.07467164 -0.10060805 -0.1294916
0.1337237 -0.06710142 0.0525156 -0.23581658 -0.009644597 0.06835172 -0.14839008 0.016815025
-0.09791703 -0.074643366 -0.11720985 -0.15247908 -0.116291896 -0.07859021 -0.07831726 -0.1568145
-0.09059368 0.10776726 -0.060683724 -0.090741165 0.07352311 0.12003721 -0.21178596 -0.14524807
-0.09585719 -0.086834714 0.065420836 -0.04185709 -0.065144666 0.021881096 0.04646065 -0.02453185
-0.10290812 -0.04614561 -0.07659314 0.05057812 -0.22740015 0.12459966 -0.11919702 -0.06967821
-0.121288255 0.16644056 0.023958882 -0.100480996 0.14032769 -0.047810033 -0.15985608 0.101177394
-0.15814872 0.10173526 -0.09652896 -0.09258074 -0.09220834 -0.10599382 -0.111185215 -0.2079116
-0.051336844 -0.124940306 0.0723347 0.17002836 -0.15445808 -0.11293131 -0.0010090172 -0.20168869
-0.040147405 0.14408039 -0.09645154 -0.2236158 -0.17702653 -0.21497457 0.099919535 -0.18376082
-0.09493941 -0.16866627 0.013198736 -0.10433354 -0.012578745 -0.14266072 0.00574472 -0.02617957
0.055907402 -0.120486155 -0.003292166 0.033389673 -0.011169675 -0.10388804 0.050034024 -0.05533466
0.0335665 -0.14860089 -0.08484861 0.03951769 0.024921006 0.02826354 0.10463829 0.115128666
-0.082442015 0.034561954 0.07716297 0.027316464 -0.06880791 -0.11906584 -0.11307933 -0.048028886
-0.14191668 -0.21154507 0.09400944 -0.049608503 -0.08622774 -0.05142741 -0.057442285 0.07443745
-0.25440958 0.01485265 -0.21380338 0.045784835 0.05701249 -0.16497828 0.013305659 -0.0821015
-0.04244992 0.07158071 0.11194203 -0.09552201 0.06146721 -0.012471721 -0.050260417 0.0661629
-0.13948089 -0.0058429735 -0.061710116 0.09008059 -0.14845534 -0.093562186 -0.10696417 -0.03200978
-0.23544948 0.045744035 -0.1555321 -0.1528917 -0.12021826 0.047068726 -0.0520682 -0.04488077
-0.18460727 -0.082435556 -0.013199249 -0.1284622 0.0111014135 -0.0084056575 0.05614314 -0.10303247
0.004799214 -0.1340061 -0.025854267 -0.06510365 -0.035771195 -0.06948176 0.007634855 -0.106150836
0.06925494 0.008614741 -0.10404467 -0.01466899 0.041420233 -0.1035532 0.025027163 -0.08864408
0.09155232 0.13493346 -0.07188829 -0.106767915 -0.055771355 0.06402451 0.014123391 0.06818
-0.10362312 -0.07239077 0.0047931895 -0.10542515 0.086020194 0.08202399 0.119410194 0.1157365
-0.13766444 -0.090654075 -0.083841465 -0.10087442 -0.14972116 -0.13677703 -0.062470343 -0.075973235
0.005462895 -0.024529332 -0.1530721 0.10715512 -0.084521934 -0.019399991 -0.027198233 -0.15919022
0.046479 0.04655685 0.0017309954 0.02614219 -0.09796834 -0.02309301 -0.16279708 0.049459208

fc3.bias f4 [10]
00000000: 1bc4 ef3c 2211 b1bc a86c f2bd 3b3c aabd
00000010: c23a fb3d b2fa e63b 9e2b 11be 4cde c23d
00000020: 2782 823d c9a9 843a
0.029268315 -0.021614615 -0.11837131 -0.08312269 0.122670665 0.007048928 -0.14176795 0.09515056
0.06372481 0.0010121401
